saved_models/model_v1/model/model.pth (torch, 438475 bytes, 26 tensors)

cnn_layer_1.0.weight f4 [32, 3, 3, 3]
0	0xbb715839	-0.0036826266
1	0x3c75c158	0.01499971
2	0x3cbb351f	0.022852479
3	0x3c503178	0.012707107
4	0x3cd23288	0.02565886
5	0x3d089ad6	0.033350788
6	0x3c86ae7d	0.016440624
7	0x3ca236f3	0.019801592
8	0x3cda7eae	0.026671734
9	0x3a9e9cd5	0.0012101183
10	0x3c12f389	0.008969196
11	0x3c051f8f	0.0081252
12	0x3bc1a9fe	0.005910157
13	0x3c7b2c34	0.015330363
14	0x3c88033e	0.016603108
15	0xbb8fefd9	-0.0043926057
16	0xbb30bfd0	-0.0026969798
17	0xb7490c88	-1.1983451e-05
18	0x3d62af99	0.055343244
19	0x3d97c2e6	0.07410221
20	0x3d86255f	0.06550097
21	0x3d534636	0.05158063
22	0x3d964c35	0.07338754
23	0x3d97ccbc	0.07412097
24	0x3c5c9618	0.0134635195
25	0x3cfc7985	0.030819664
26	0x3d14c919	0.036324594
27	0xbd940872	-0.07228173
28	0xbd1f9389	-0.03895906
29	0x3da18921	0.078874834
30	0xbd4c260a	-0.049840964
31	0xbbbe4543	-0.0058065965
32	0x3dc208d2	0.094743386
33	0xbc983417	-0.018579526
34	0x3cd5fb00	0.026120663
35	0x3d11a8d4	0.035561398
36	0xbd9e14ca	-0.07718809
37	0xbcbbd716	-0.02292971
38	0x3db4b460	0.08823466
39	0xbd8ad559	-0.06778974
40	0x3aaf02a0	0.0013352223
41	0x3dbff0ed	0.09372125
42	0xbd7e4134	-0.0620739
43	0xbc18daee	-0.009329541
44	0x3c96c6ed	0.018405402
45	0xbd5f8b36	-0.05457612
46	0xbc5eaebd	-0.013591466
47	0x3daf53af	0.08560883
48	0xbd83ff3a	-0.06445165
49	0x3c02dcd4	0.00798722
50	0x3dd4588a	0.1036845
51	0xbd85e45a	-0.06537695
52	0x3b1d4a5e	0.0024000625
53	0x3d2da891	0.042397086
54	0xb85c468c	-5.251779e-05
55	0xb829f271	-4.051853e-05
56	0xb83aac5e	-4.4506385e-05
57	0xb7538293	-1.2606982e-05
58	0xb73bce53	-1.1194107e-05
59	0x351567bb	5.5657773e-07
60	0xb7bfc197	-2.2859122e-05
61	0xb77c8af6	-1.5052725e-05
62	0x375f22d6	1.3299947e-05
63	0xb815da51	-3.572769e-05
64	0xb7b55035	-2.161423e-05
65	0xb7ccbfdb	-2.4408035e-05
66	0xb73af3c8	-1.1143224e-05
67	0xb73b1e1e	-1.1153081e-05
68	0xb72422d2	-9.783269e-06
69	0xb79cfbcc	-1.8713901e-05
70	0xb7d0ff5e	-2.4914447e-05
71	0xb784c796	-1.5828566e-05
72	0xb6c1dcbd	-5.7775455e-06
73	0xb802c397	-3.1176573e-05
74	0xb8435273	-4.656841e-05
75	0x3896d6d9	7.192576e-05
76	0x386a25fb	5.582532e-05
77	0x384c407c	4.8697446e-05
78	0x385d8da6	5.2822426e-05
79	0x38683865	5.5365632e-05
80	0x3889fb61	6.579492e-05
81	0x3d3a19ee	0.045434885
82	0x3d88f085	0.066865005
83	0x3d8a3998	0.067492664
84	0x3d9c3e41	0.076290615
85	0x3dcc640a	0.099800184
86	0x3d9688c6	0.07350306
87	0x3dbc14f8	0.09183687
88	0x3dc8be64	0.09801939
89	0x3d9d73eb	0.07688125
90	0xbb37ef5a	-0.0028066249
91	0x3ccce1ec	0.025010072
92	0x3ccbfb34	0.024900056
93	0xbb0ef7eb	-0.002181525
94	0x3cc53d5b	0.024077108
95	0x3be75326	0.0070594726
96	0x3d21c646	0.03949573
97	0x3d0be238	0.034151286
98	0x3cf4e60f	0.029894857
99	0xbd81465a	-0.063122466
100	0xbd7897b2	-0.060691543
101	0xbd20bad5	-0.039240677
102	0xbd95b007	-0.07308965
103	0xbd99e83c	-0.07514998
104	0xbd96e131	-0.073671706
105	0xbd1bb452	-0.038013764
106	0xbd758ff1	-0.059951726
107	0xbd8b85da	-0.068126395
108	0xbc63420b	-0.013870726
109	0xbc1ef211	-0.009701268
110	0xbc4c8d54	-0.012484867
111	0xbc3d8752	-0.011567907
112	0xbbd32a9e	-0.0064442893
113	0xbc1df503	-0.009640935
114	0xbc03ec06	-0.008051878
115	0xbb803bd8	-0.003913384
116	0xbc117485	-0.008877878
117	0xbc6d844d	-0.014496875
118	0xbc068e69	-0.008212664
119	0xbc2fc24b	-0.010727475
120	0xbc1fb78c	-0.009748351
121	0xbb74ace0	-0.0037334487
122	0xbbcd783e	-0.0062704375
123	0xbb9a41a8	-0.004707534
124	0xb92bc91a	-0.00016382747
125	0xbb976b6b	-0.0046209595
126	0xbc84d0a0	-0.016212761
127	0xbbff4ff2	-0.0077915126
128	0xbbc7b1f2	-0.006094211
129	0xbbeba467	-0.007191229
130	0x398aeb2b	0.00026496625
131	0x3a5fa5ee	0.00085315004
132	0xbb18ecd2	-0.0023334515
133	0x3b31e559	0.0027144758
134	0x3a6d1257	0.00090435654
135	0x00000195	5.68e-43
136	0x000000ca	2.83e-43
137	0x800001cf	-6.49e-43
138	0x800000f4	-3.42e-43
139	0x000000c3	2.73e-43
140	0x00000189	5.51e-43
141	0x800001e8	-6.84e-43
142	0x00000112	3.84e-43
143	0x00000029	5.7e-44
144	0x000001c1	6.29e-43
145	0x000001e7	6.82e-43
146	0x80000067	-1.44e-43
147	0x8000018b	-5.54e-43
148	0x80000050	-1.12e-43
149	0x80000107	-3.69e-43
150	0x00000180	5.38e-43
151	0x80000146	-4.57e-43
152	0x80000086	-1.88e-43
153	0x800001e8	-6.84e-43
154	0x8000010c	-3.76e-43
155	0x000001da	6.64e-43
156	0x00000008	1.1e-44
157	0x8000006e	-1.54e-43
158	0x0000006c	1.51e-43
159	0x800001bf	-6.26e-43
160	0x800000a1	-2.26e-43
161	0x800001af	-6.04e-43
162	0xae93f45d	-6.728194e-11
163	0xada826e1	-1.9116654e-11
164	0xaba95e1a	-1.2034291e-12
165	0xaf616663	-2.0500006e-10
166	0xae4e65a8	-4.6929266e-11
167	0xac36603e	-2.591718e-12
168	0xb0f5f562	-1.7895838e-09
169	0xb000d509	-4.686887e-10
170	0xae8d79ba	-6.4335606e-11
171	0xac22ee1d	-2.3153764e-12
172	0x2a34021e	1.5987946e-13
173	0x28cc7e87	2.2703422e-14
174	0xae064715	-3.0531206e-11
175	0xab0f7f89	-5.0980796e-13
176	0x27e20c81	6.2741158e-15
177	0xb0ce1063	-1.499313e-09
178	0xaf25ebbb	-1.5090411e-10
179	0xad46c0de	-1.1297822e-11
180	0xad79f7ff	-1.42090775e-11
181	0xac05e590	-1.902787e-12
182	0x29b46f69	8.0129324e-14
183	0xae2bd88f	-3.907324e-11
184	0xac886a86	-3.877179e-12
185	0xa9e5faa1	-1.021312e-13
186	0xafcd8d47	-3.7389666e-10
187	0xae60f90a	-5.1152894e-11
188	0xac441f9a	-2.7870818e-12
189	0xbb0ac46e	-0.002117421
190	0xbb07888d	-0.0020680756
191	0xbaf2d607	-0.001852692
192	0xba9511a2	-0.0011373053
193	0xbaa04039	-0.0012226171
194	0xba92c43f	-0.0011197402
195	0xba332fd2	-0.0006835434
196	0xba1d2c6b	-0.00059956935
197	0xba3d1afe	-0.00072138
198	0xbae9b33c	-0.0017829905
199	0xbae225db	-0.0017253713
200	0xbac87f15	-0.0015296662
201	0xbab8a981	-0.0014088602
202	0xbab0643c	-0.0013457607
203	0xba91d648	-0.0011126483
204	0xbab4de19	-0.00137991
205	0xba8f7cd3	-0.0010947235
206	0xba7fd8c6	-0.000975978
207	0xbab86691	-0.0014068653
208	0xbab097ee	-0.0013473013
209	0xba9ab5bd	-0.001180343
210	0xba694f77	-0.0008900086
211	0xba6b4a7b	-0.0008975637
212	0xba409f93	-0.0007347997
213	0xba2758ab	-0.0006383757
214	0xba1533fa	-0.0005691644
215	0xba0db8ec	-0.00054062787
216	0xaec3baa1	-8.900725e-11
217	0xae470c1d	-4.525812e-11
218	0xad8b94c9	-1.5868544e-11
219	0xae682cc1	-5.2790442e-11
220	0xae0a8250	-3.1493308e-11
221	0xadb6efbf	-2.0797473e-11
222	0xaf863c6a	-2.4417385e-10
223	0xaea3d57e	-7.4503057e-11
224	0xae79209a	-5.6645e-11
225	0xae92df80	-6.679013e-11
226	0xadc431de	-2.2304766e-11
227	0xad324f4b	-1.0135735e-11
228	0xae79c092	-5.6787082e-11
229	0xadfb9b40	-2.8604341e-11
230	0xaddcf7cb	-2.5121146e-11
231	0xaf5791b1	-1.9605896e-10
232	0xae80113f	-5.8238296e-11
233	0xae5ed104	-5.06626e-11
234	0xaea0b782	-7.308555e-11
235	0xae05ecdd	-3.0451076e-11
236	0xae0d984d	-3.219496e-11
237	0xaddfccb8	-2.5443078e-11
238	0xad5b8d07	-1.2480023e-11
239	0xadadee8b	-1.9773757e-11
240	0xaec3e45d	-8.908139e-11
241	0xae1d7da6	-3.5809265e-11
242	0xae7939ff	-5.6667556e-11
243	0xb6952d4f	-4.4458207e-06
244	0xb4d8a628	-4.035403e-07
245	0xb4f0e631	-4.487097e-07
246	0xb64e90d3	-3.078069e-06
247	0xb3a7b50b	-7.809475e-08
248	0xb3410c94	-4.4947754e-08
249	0xb6f8c219	-7.413572e-06
250	0xb511645e	-5.416276e-07
251	0xb4a51577	-3.0749263e-07
252	0xb63db7d7	-2.8270204e-06
253	0xb5687d1e	-8.6608804e-07
254	0xb54457cd	-7.3143457e-07
255	0xb6996916	-4.571989e-06

cnn_layer_1.0.bias f4 [32]
0	0x3b051c88	0.0020311195
1	0x3d539b2c	0.051661655
2	0xb5b2fb39	-1.3335149e-06
3	0x3b89c9f2	0.004204982
4	0xbce186c4	-0.027530082
5	0xb32173d8	-3.7591093e-08
6	0xb1b1db7b	-5.17633e-09
7	0x3c028748	0.007966824
8	0xb93d0363	-0.00018025706
9	0xb8727159	-5.780286e-05
10	0x3d569357	0.052386608
11	0xba67e15a	-0.00088455307
12	0xb6fca7ae	-7.5297057e-06
13	0x3c68c997	0.014208219
14	0x3d885d8e	0.06658469
15	0x3d1795fd	0.037008274
16	0x300081e9	4.675074e-10
17	0xbab60d73	-0.0013889506
18	0xbc62946b	-0.013829331
19	0xb68e0f9e	-4.233748e-06
20	0x3bbf3bc1	0.0058359806
21	0x3d82e2b6	0.06390898
22	0xb62f5a5c	-2.6129628e-06
23	0x3d154d3c	0.03645061
24	0xb7a0cdc3	-1.9169302e-05
25	0x3d8dee4f	0.069302194
26	0x3d95424f	0.07288038
27	0x9cff335f	-1.6887764e-21
28	0x3bd1d529	0.0064035845
29	0xaf3b1a26	-1.7016841e-10
30	0x3b9e1e93	0.004825422
31	0xbba55b1c	-0.0050462615

cnn_layer_1.2.weight f4 [32]
0	0x3dabd916	0.08391015
1	0x3dd552b9	0.10416169
2	0x34881437	2.5346682e-07
3	0x3d852498	0.0650112
4	0x3ca4d685	0.020121822
5	0xa4139b81	-3.200726e-17
6	0xbb8e0878	-0.0043345056
7	0xb97e912b	-0.00024277407
8	0x3b935fef	0.00449752
9	0x3b9d005d	0.004791303
10	0x3e539d06	0.20665368
11	0x3c3b4721	0.011430533
12	0x393b872b	0.00017884064
13	0x3d8d8d10	0.06911671
14	0x3eaf3255	0.34218088
15	0x3e23ac6a	0.1598374
16	0xb90f96bb	-0.00013693694
17	0x3b49db10	0.0030800737
18	0x3c77bdf0	0.015120968
19	0xb72755e4	-9.973974e-06
20	0x3df01578	0.11722845
21	0x3e90f04d	0.28308335
22	0xbc838fad	-0.01605972
23	0x3d8d40d4	0.068971306
24	0xbabc9dc2	-0.0014390277
25	0x3e9ac40a	0.3022769
26	0x3e5a9dc4	0.21349245
27	0x37146b5f	8.846487e-06
28	0xbce7e3db	-0.028306892
29	0x3ab0e4ff	0.001349598
30	0x39351c15	0.00017271966
31	0xbc1f5776	-0.009725442

cnn_layer_1.2.bias f4 [32]
0	0x3cc9874d	0.02460065
1	0x3d1a0910	0.0376063
2	0x38456421	4.7061712e-05
3	0x394fd8bc	0.00019821798
4	0x39886cfb	0.00026021138
5	0x39021320	0.00012404891
6	0xb9b0992b	-0.00033683455
7	0xb927b914	-0.00015995308
8	0xb9d1210c	-0.00039888208
9	0xb98a6638	-0.0002639757
10	0x3d7deb3a	0.061991908
11	0xb8268400	-3.970042e-05
12	0xb6363dc0	-2.7156057e-06
13	0x3cb9ce4e	0.022681382
14	0x3d65a088	0.056061298
15	0x3d5a2309	0.05325607
16	0x370d0e8e	8.407644e-06
17	0xbaa1f5d2	-0.0012356585
18	0xbb1bb45d	-0.0023758628
19	0x37f0f827	2.8725784e-05
20	0x3d21b01b	0.039474588
21	0x3d94ad65	0.07259635
22	0x3a44ddcb	0.00075098564
23	0x3c92ac34	0.017904378
24	0xb8c7849b	-9.513759e-05
25	0x3cd2fae1	0.025754394
26	0x3d7d6d75	0.061871964
27	0x37cc4c30	2.4354173e-05
28	0xba4eb2da	-0.00078849273
29	0xba1f8c2a	-0.0006086255
30	0xb86a4f18	-5.586361e-05
31	0xb843c629	-4.6676174e-05

cnn_layer_1.2.running_mean f4 [32]
0	0x3ea3c026	0.31982535
1	0x3de2b5f9	0.11069865
2	0x36d80ddc	6.438915e-06
3	0x3e1efbf8	0.15525806
4	0x251ee324	1.3781274e-16
5	0x00000004	6e-45
6	0x00000004	6e-45
7	0x39f19ef9	0.00046085546
8	0x00000004	6e-45
9	0x00000004	6e-45
10	0x3dd4880e	0.10377513
11	0x00000004	6e-45
12	0x323e9f4b	1.1095675e-08
13	0x3cc35dca	0.023848433
14	0x3d77465a	0.060369827
15	0x3d5d8b49	0.05408791
16	0x2602d096	4.5385497e-16
17	0x2685fd76	9.29743e-16
18	0x0fc1bbce	1.9103609e-29
19	0x2f582796	1.965915e-10
20	0x3ca18792	0.019717965
21	0x3d8e21fe	0.06940077
22	0x00000004	6e-45
23	0x3be285a4	0.006912904
24	0x00000004	6e-45
25	0x3d9c84b5	0.07642499
26	0x3da66f35	0.0812668
27	0x00000004	6e-45
28	0x3ddffa52	0.10936417
29	0x00000004	6e-45
30	0x3a69a46a	0.0008912744
31	0x00000004	6e-45

cnn_layer_1.2.running_var f4 [32]
0	0x3ccea7e3	0.025226539
1	0x3beaaf0e	0.0071619814
2	0x304848c6	7.2862993e-10
3	0x3c299f2d	0.010352892
4	0x2253faa1	2.8728514e-18
5	0x00000004	6e-45
6	0x00000004	6e-45
7	0x35ecb13a	1.763495e-06
8	0x00000004	6e-45
9	0x00000004	6e-45
10	0x3c2eda90	0.010672227
11	0x00000004	6e-45
12	0x2a147905	1.3187028e-13
13	0x3b0459f0	0.0020195208
14	0x3ae71069	0.0017628792
15	0x3b3fb127	0.0029249878
16	0x15a7d351	6.778416e-26
17	0x208a9b24	2.3480773e-19
18	0x0dc33322	1.2030113e-30
19	0x25202964	1.3891811e-16
20	0x3b2795cd	0.0025571466
21	0x3b419635	0.0029538993
22	0x00000004	6e-45
23	0x3a02ae82	0.000498511
24	0x00000004	6e-45
25	0x3a9dfc78	0.0012053391
26	0x3ba3f6c8	0.005003784
27	0x00000004	6e-45
28	0x3b390ef3	0.002823767
29	0x00000004	6e-45
30	0x35c31558	1.4534844e-06
31	0x00000004	6e-45

cnn_layer_1.3.weight f4 [32, 32, 3, 3]
0	0xbc095ee8	-0.008384444
1	0xbb68b371	-0.0035507346
2	0xba86e4f6	-0.0010291624
3	0xbc03592a	-0.008016864
4	0xbab6712a	-0.0013919224
5	0x3b3579fc	0.0027691117
6	0xbb9d707d	-0.0048046694
7	0x3b389d86	0.0028170063
8	0x3c0181b3	0.007904458
9	0x3c15fbe1	0.009154291
10	0x3ca6d477	0.020364983
11	0x3c9dbd07	0.019255174
12	0x3c2f0635	0.010682632
13	0x3cabddbc	0.020979755
14	0x3ca54ec5	0.020179162
15	0x3c8cfcd0	0.017210394
16	0x3cc39bc9	0.023877995
17	0x3caea297	0.021317763
18	0xb71866e8	-9.083866e-06
19	0xb70757c9	-8.067066e-06
20	0xb6eedfb5	-7.1189957e-06
21	0xb6d9dc25	-6.492732e-06
22	0xb6a04ed4	-4.7775484e-06
23	0xb68992d3	-4.1000108e-06
24	0xb70cc85d	-8.391301e-06
25	0xb6d18fe5	-6.245437e-06
26	0xb6bf2599	-5.6966205e-06
27	0x3c12b8da	0.008955205
28	0x3c0b8ccc	0.008517455
29	0x3c1d5977	0.00960385
30	0x3c5849cb	0.013201187
31	0x3c4ad5de	0.0123800915
32	0x3c61b6b1	0.013776467
33	0x3c55468f	0.013017311
34	0x3c4b4254	0.012405951
35	0x3c763a2c	0.015028518
36	0x37fa06e6	2.9805535e-05
37	0x37e0949d	2.6772084e-05
38	0x37dbbc45	2.6194504e-05
39	0x384b0856	4.8406735e-05
40	0x38431d9d	4.6519202e-05
41	0x38410112	4.6015783e-05
42	0x38586c11	5.1599058e-05
43	0x385236bc	5.0118877e-05
44	0x38503e09	4.964884e-05
45	0xb77d3ca0	-1.50940905e-05
46	0xb7856099	-1.5899817e-05
47	0xb768c8c3	-1.3875021e-05
48	0xb782fc3b	-1.5614662e-05
49	0xb785c0a3	-1.5944539e-05
50	0xb773d534	-1.4533569e-05
51	0xb791c392	-1.7376417e-05
52	0xb784699c	-1.5784804e-05
53	0xb762eec5	-1.3526243e-05
54	0x36fcf6e3	7.5389266e-06
55	0x36d0b980	6.220478e-06
56	0x36a8748b	5.0203575e-06
57	0xb6b3f2f1	-5.362898e-06
58	0xb6e83ef8	-6.9214693e-06
59	0xb6f767ba	-7.373249e-06
60	0xb5c1bd2c	-1.4434677e-06
61	0xb673ce56	-3.6329925e-06
62	0xb6a563b2	-4.9289893e-06
63	0x36afef26	5.243247e-06
64	0x3610a39f	2.1552912e-06
65	0xb41eef83	-1.480203e-07
66	0xb78454f3	-1.5775184e-05
67	0xb791fc9e	-1.7402981e-05
68	0xb783ad94	-1.5697246e-05
69	0xb6cae0a5	-6.046221e-06
70	0xb6dabddf	-6.51901e-06
71	0xb6dc7ca3	-6.5710205e-06
72	0x38e1f084	0.000107736356
73	0x38e20502	0.000107774526
74	0x38f080ad	0.000114680595
75	0x38dc63a0	0.00010508974
76	0x38dba2da	0.00010473067
77	0x38f76d63	0.00011798253
78	0x38f43d9a	0.00011646301
79	0x38edb64b	0.00011334995
80	0x3900db76	0.00012288787
81	0x3769ebc4	1.3942776e-05
82	0x3765e321	1.3702346e-05
83	0x376ab245	1.39889935e-05
84	0x374ec858	1.2325203e-05
85	0x374b7808	1.212769e-05
86	0x37677f66	1.3798335e-05
87	0x377ca96f	1.505982e-05
88	0x376e06fc	1.4187532e-05
89	0x3786ef66	1.6085523e-05
90	0xbc2eac76	-0.010661235
91	0xbcd9d7b9	-0.026592122
92	0xbce4c20b	-0.027924558
93	0x3bd42000	0.0064735413
94	0xbc85050a	-0.016237754
95	0xbca94c8b	-0.020666381
96	0x3b752a95	0.0037409414
97	0xbc9ba2ef	-0.018998591
98	0xbc62d2fa	-0.013844246
99	0xb71776d3	-9.027967e-06
100	0xb725225d	-9.842767e-06
101	0xb7369d8d	-1.0884728e-05
102	0xb76886fd	-1.3859707e-05
103	0xb77811ca	-1.4786094e-05
104	0xb788738f	-1.6266275e-05
105	0xb748326c	-1.1932669e-05
106	0xb75bebb9	-1.3108301e-05
107	0xb776fbea	-1.4721396e-05
108	0x372bb10c	1.0233616e-05
109	0x3740145d	1.1448833e-05
110	0x3741b68f	1.1546202e-05
111	0x3748c444	1.1966626e-05
112	0x375f01a1	1.3292215e-05
113	0x3764267d	1.359882e-05
114	0x375274e5	1.2544192e-05
115	0x3764618a	1.3612569e-05
116	0x3769ba55	1.3931266e-05
117	0x3c04966f	0.008092507
118	0x3b5bd947	0.0033546255
119	0xb9c55879	-0.00037640685
120	0x3bc1b4b2	0.005911433
121	0x3a19e65f	0.0005870815
122	0xbac26d88	-0.0014833668
123	0x3b36fc13	0.0027921244
124	0x3a2e47df	0.0006648283
125	0xbad2234d	-0.0016032249
126	0xbd90c5e6	-0.07068996
127	0xbd11f1a1	-0.035630826
128	0xbd300c69	-0.042980585
129	0xbd86fca6	-0.065911576
130	0xbd045be1	-0.032314185
131	0xbd39f46c	-0.045399114
132	0xbb96175c	-0.0045804214
133	0xbc92bd39	-0.017912494
134	0xbb905de9	-0.004405726
135	0x395cc98d	0.00021055918
136	0xbc9bd37e	-0.019021746
137	0xbbf32ace	-0.007420874
138	0x3b86a0eb	0.0041085384
139	0xbc010b0c	-0.007876169
140	0xbc6f2363	-0.014595839
141	0x3be18169	0.006881882
142	0xbc45e8c6	-0.012079423
143	0xbc540ede	-0.012942998
144	0xb5f39c1c	-1.8150345e-06
145	0xb5f32137	-1.8114578e-06
146	0xb5d3cddc	-1.5780638e-06
147	0xb56d668e	-8.8438617e-07
148	0xb53e4a00	-7.08882e-07
149	0xb53ca0c1	-7.0269385e-07
150	0xb5e116f9	-1.6770492e-06
151	0xb5a23749	-1.2086031e-06
152	0xb5a7c140	-1.2498713e-06
153	0xb74567fd	-1.1766327e-05
154	0xb7817060	-1.5430327e-05
155	0xb741e271	-1.1556419e-05
156	0xb8346007	-4.3004777e-05
157	0xb83f61d5	-4.562906e-05
158	0xb8286e8f	-4.0157287e-05
159	0xb80a5b36	-3.298671e-05
160	0xb81dd63a	-3.763123e-05
161	0xb80495bc	-3.1610703e-05
162	0xb9499e7f	-0.00019227898
163	0xb97b0f3c	-0.000239429
164	0xb9526a2b	-0.00020066711
165	0xba281dc1	-0.0006413125
166	0xba32fcd2	-0.00068278343
167	0xba20f80b	-0.0006140477
168	0xba187038	-0.0005815062
169	0xba2594d6	-0.0006316429
170	0xba13d21b	-0.0005638913
171	0xb66434f7	-3.4005477e-06
172	0xb5dbc244	-1.637331e-06
173	0xb60d15c3	-2.1023304e-06
174	0x3606faeb	2.011361e-06
175	0x36787ad5	3.7026377e-06
176	0x363029b4	2.6250318e-06
177	0x34f246ad	4.5127436e-07
178	0x360c3c7d	2.0896834e-06
179	0x358dc139	1.0561554e-06
180	0x3c609d09	0.013709315
181	0x3be2b39b	0.0069183833
182	0xbaa6367c	-0.0012681033
183	0x3b065203	0.002049566
184	0xbba65e41	-0.005077154
185	0xbbc42387	-0.0059856805
186	0xbbf8fd3a	-0.0075985463
187	0xba2d59d3	-0.0006612811
188	0x3aa036bf	0.0012223347
189	0xbd83ccfd	-0.06435583
190	0xbd7364ae	-0.059422188
191	0xbd55878d	-0.052131224
192	0xbd3b9395	-0.045795042
193	0xbd1491b6	-0.036271773
194	0xbca6bee2	-0.020354692
195	0xbc8b6db9	-0.017020093
196	0xbc960b3c	-0.018315904
197	0xbc5d634f	-0.013512447
198	0x37ae497a	2.0776632e-05
199	0x37b2ed44	2.1329739e-05
200	0x37c94a80	2.3995759e-05
201	0x38372525	4.3665194e-05
202	0x3836957c	4.35314e-05
203	0x3839bc95	4.4283068e-05
204	0x38343c82	4.2971697e-05
205	0x3833f03c	4.290066e-05
206	0x3836c339	4.3573997e-05
207	0x3c7dc298	0.015488289
208	0x3c8d6a76	0.017262679
209	0x3c5bb2d9	0.01340934
210	0x3ce617fa	0.028087605
211	0x3cbc14df	0.02295917
212	0x3cd63a89	0.026150959
213	0x3d0b88a2	0.03406585
214	0x3cea97e2	0.028636876
215	0x3cb51841	0.022106292
216	0x36bb63a9	5.5846363e-06
217	0x36cad907	6.0453344e-06
218	0x36d2003e	6.258516e-06
219	0xb66aad8f	-3.4969742e-06
220	0xb6656085	-3.417984e-06
221	0xb62dac96	-2.5879467e-06
222	0xb6185921	-2.2701645e-06
223	0xb65e8432	-3.3157526e-06
224	0xb616a3a0	-2.2446984e-06
225	0x3c1ea33a	0.009682471
226	0x3cb19d60	0.021681488
227	0x3d343a11	0.04400069
228	0x3cdaa158	0.026688263
229	0x3d157c5d	0.036495555
230	0x3d210b5b	0.03931747
231	0x3bd16d94	0.0063912366
232	0x3b998277	0.004684742
233	0x3c682926	0.014169967
234	0xbc61f7c5	-0.013791983
235	0xbcccbd50	-0.024992615
236	0xbc27b20e	-0.010235323
237	0xbc925c2b	-0.017866215
238	0xbd27a7dc	-0.040931568
239	0xbcad321e	-0.021142062
240	0xbd2dfb1f	-0.042475816
241	0xbd41ae9c	-0.04728566
242	0xbcd806b8	-0.026370391
243	0x35c77da7	1.4863225e-06
244	0x359e1542	1.1778104e-06
245	0x36426a56	2.8970148e-06
246	0xb5798da4	-9.296584e-07
247	0xb5445a83	-7.31474e-07
248	0x361327e7	2.1927933e-06
249	0xb68ffbc5	-4.291042e-06
250	0xb6ade077	-5.181933e-06
251	0xb61ca155	-2.333972e-06
252	0xba2ebe4b	-0.0006665929
253	0x39a87b47	0.00032135306
254	0x3962acc5	0.00021617401
255	0xba39c8bb	-0.0007087101

cnn_layer_1.3.bias f4 [32]
0	0x3c57c450	0.013169363
1	0xbce903d0	-0.0284442
2	0x3bd7ba9a	0.006583524
3	0xb58ef9e8	-1.0652557e-06
4	0xbd7bc95e	-0.061471336
5	0xbd6d642f	-0.05795687
6	0xbd70604d	-0.05868559
7	0x3bc856fe	0.006113886
8	0xbd0491b5	-0.03236552
9	0xb95fdd92	-0.00021349479
10	0xbda0fc04	-0.07860568
11	0xb63077f1	-2.6295859e-06
12	0xbd13c169	-0.036073122
13	0xb65f88db	-3.330925e-06
14	0xbb42a03e	-0.0029697563
15	0x3d8842a9	0.066533394
16	0xbd7a3657	-0.06108698
17	0xbda4aad4	-0.080403954
18	0xbdb13a40	-0.086536884
19	0xbc9c57b4	-0.019084789
20	0xbb80d99b	-0.0039321906
21	0xbc85021c	-0.016236357
22	0xbc9332a4	-0.017968483
23	0xbd3fbef9	-0.046812985
24	0xbbabb928	-0.005240578
25	0xbd15a9d4	-0.036538914
26	0xbdd5c229	-0.10437424
27	0xbb015496	-0.0019734255
28	0xbd9f8b0c	-0.07790193
29	0xa9bf224b	-8.488053e-14
30	0xbc353c88	-0.011061795
31	0xbcb80a04	-0.022465713

cnn_layer_1.5.weight f4 [32]
0	0xbc15fc0d	-0.009154332
1	0x3e56d6d9	0.20980395
2	0x3e2e1a8e	0.17002317
3	0xb5401f8e	-7.157149e-07
4	0x3ddf452e	0.10901867
5	0x3e00d3c6	0.12580785
6	0x3e2557bd	0.16146751
7	0x3e3028aa	0.17203012
8	0x3ddab801	0.10679627
9	0xbb4aefcc	-0.0030965684
10	0x3d9d13e4	0.076698095
11	0xbb2b0436	-0.002609504
12	0x3e4d47bb	0.20046894
13	0xb888f721	-6.531017e-05
14	0xbbbbf768	-0.00573628
15	0xbd2e59b3	-0.042566013
16	0x3e25287c	0.16128725
17	0x3d487d2f	0.04894751
18	0x3d9af472	0.075661555
19	0x3e6cc4d7	0.23121963
20	0x3e1c20e5	0.15246923
21	0x3e4acbff	0.19804381
22	0xbbfa6a43	-0.007642062
23	0x3dc6d2b9	0.09708161
24	0x3e0edf1f	0.13952301
25	0x3e4825c5	0.19545658
26	0x3d9eb87e	0.07750033
27	0x3e7a03af	0.24415468
28	0x3e28cb52	0.1648381
29	0xb925aded	-0.00015800419
30	0xbcb39e9c	-0.021926217
31	0x3e736c9a	0.23771897

cnn_layer_1.5.bias f4 [32]
0	0x3abdd96b	0.0014484351
1	0xbc084447	-0.00831706
2	0xbd6388f7	-0.05555054
3	0xba23e8db	-0.0006252655
4	0xbc8274c3	-0.015924817
5	0xbc4111c3	-0.01178402
6	0x3b47d763	0.003049337
7	0xbc39f2d7	-0.011349401
8	0xbc091dc2	-0.008368911
9	0x3772540c	1.4443893e-05
10	0x3c07a084	0.008278016
11	0x3af6bb83	0.0018824193
12	0xbcfcff46	-0.030883443
13	0x3a2263c6	0.0006194677
14	0xb8e39df4	-0.000108536246
15	0xbc0a965b	-0.008458699
16	0xbd1012e0	-0.03517425
17	0x3c25c866	0.0101185795
18	0x3b0317ff	0.0020003316
19	0xbc7f214a	-0.015571902
20	0xbd3d8674	-0.046270803
21	0xbd4bd425	-0.049762864
22	0xbb22f752	-0.0024866653
23	0xbd056f70	-0.03257698
24	0xbc48d7a8	-0.012258448
25	0x3c128a7b	0.008944149
26	0xbb782309	-0.003786268
27	0xbc66dd4a	-0.014090845
28	0xbc066454	-0.008202631
29	0xbab8ec2d	-0.0014108472
30	0xbc36c38a	-0.011155019
31	0x3c8720f6	0.01649521

cnn_layer_1.5.running_mean f4 [32]
0	0x3c9e1c0a	0.01930048
1	0x3d3810c7	0.044937875
2	0x3d0adf3f	0.03390431
3	0x3386a46a	6.269768e-08
4	0x3be18024	0.0068817306
5	0x3c782098	0.01514449
6	0x3d2d4c90	0.042309344
7	0x3d85a444	0.06525472
8	0x3c351d6d	0.011054379
9	0x2bad19b6	1.2299526e-12
10	0x3ca036c0	0.019557357
11	0x00000004	6e-45
12	0x3d0bd2e6	0.034136675
13	0x27eb276b	6.526834e-15
14	0x3453df26	1.9732087e-07
15	0x3ddd10fa	0.10794254
16	0x3c457284	0.012051228
17	0x3c06de85	0.008231764
18	0x3babba5a	0.0052407207
19	0x3d4d7173	0.05015702
20	0x3ce881a5	0.028382132
21	0x3d060de2	0.032728083
22	0x38a8be1f	8.046277e-05
23	0x3c65b310	0.014019743
24	0x3cff7133	0.031181907
25	0x3d32427d	0.04352044
26	0x3c1243b2	0.008927273
27	0x3d6012c6	0.054705404
28	0x3d063d07	0.032773044
29	0x00000004	6e-45
30	0x3cf29867	0.029613687
31	0x3d4f5cb3	0.050625514

cnn_layer_1.5.running_var f4 [32]
0	0x3ac90907	0.0015337773
1	0x3c2889e1	0.010286779
2	0x3bb47ab7	0.005507793
3	0x2a24fa59	1.4652983e-13
4	0x3a998a31	0.0011714158
5	0x3b09cb85	0.0021025848
6	0x3c1518d9	0.009100162
7	0x3bfcf0b5	0.007719124
8	0x3abffa59	0.0014646753
9	0x23fbb427	2.7289772e-17
10	0x3b49699e	0.0030733119
11	0x00000004	6e-45
12	0x3c041e9d	0.008063939
13	0x1f90ff6d	6.140894e-20
14	0x2f3da28f	1.7247202e-10
15	0x3c53a8dd	0.012918678
16	0x3af8312f	0.0018935556
17	0x39fbf13b	0.0004805418
18	0x3a29d8e8	0.000647916
19	0x3c25f865	0.010130023
20	0x3b9ce569	0.00478809
21	0x3bfba8c6	0.0076800315
22	0x35577b4e	8.0273173e-07
23	0x3ab516b1	0.0013815967
24	0x3b7d49d6	0.0038648746
25	0x3c20cadd	0.009813991
26	0x3a9c04fd	0.0011903342
27	0x3c5aaf6d	0.013347489
28	0x3bf87e07	0.007583383
29	0x00000004	6e-45
30	0x3b1771b1	0.0023108537
31	0x3c853da8	0.016264752

cnn_layer_2.0.weight f4 [64, 32, 3, 3]
0	0x3bf35333	0.0074256896
1	0x3c091f78	0.008369319
2	0x3b89520d	0.0041906894
3	0xba1cbc80	-0.00059790164
4	0xbae6327b	-0.0017562652
5	0xba2cfbff	-0.00065988296
6	0x39b9eb9c	0.00035461492
7	0xbaa4200a	-0.0012521755
8	0xbb87b796	-0.004141758
9	0x3c81b4f0	0.015833348
10	0xbcb2818e	-0.021790292
11	0xbc876ccf	-0.016531376
12	0xbc435c01	-0.011923791
13	0x3ad4e1e7	0.001624164
14	0x3c81d20b	0.015847227
15	0x3a2928c6	0.0006452914
16	0x3d18ac3f	0.03727364
17	0xbc168b6d	-0.009188515
18	0xbba00456	-0.0048833294
19	0xbce79d8e	-0.02827337
20	0x3d0bdf07	0.034148242
21	0xbc99eb13	-0.01878885
22	0xbcd6e29d	-0.026231105
23	0x3b2d9d6b	0.0026491533
24	0xbc6ebe15	-0.014571686
25	0x3d048c48	0.032360345
26	0x3bf01d1e	0.00732769
27	0x398a29cf	0.0002635256
28	0x39051670	0.00012692227
29	0x390a3267	0.00013179482
30	0x393d2ca2	0.00018041072
31	0x38337d03	4.2793352e-05
32	0x3839e093	4.4316588e-05
33	0x3935344c	0.00017280987
34	0x380ea6bb	3.4010718e-05
35	0x38196676	3.6573467e-05
36	0x3cc3c4f1	0.02389762
37	0x3d1de30d	0.03854661
38	0x3b537064	0.0032263035
39	0xb825cb4f	-3.952841e-05
40	0xbb03627a	-0.002004771
41	0xbb856cec	-0.0040718224
42	0x3d3ca2e9	0.0460538
43	0x3a231d38	0.00062223105
44	0xbc523b75	-0.0128315585
45	0xbb9069dd	-0.004407151
46	0xbd1e91fc	-0.03871344
47	0x3ab8d335	0.001410103
48	0xbc0aa129	-0.008461275
49	0x3aa91367	0.0012899459
50	0x3cfb5522	0.030680243
51	0xbb9841b8	-0.004646506
52	0x3cfaed60	0.030630767
53	0x3d39ad1c	0.045331106
54	0x3c041ea2	0.008063944
55	0xbc77bed0	-0.015121177
56	0xbd16678b	-0.03671984
57	0x39a477b9	0.00031369718
58	0xbc97df6e	-0.018539157
59	0xbcff8d07	-0.031195177
60	0x3c9d15c8	0.019175425
61	0xbaa7d89d	-0.0012805645
62	0x3d17e99f	0.037088033
63	0xbd2f0b35	-0.042735297
64	0xbd3fc8a6	-0.046822213
65	0xbc5ee5ab	-0.013604562
66	0xbd4e457d	-0.050359238
67	0xbd064bd4	-0.03278716
68	0xbd2c4c7d	-0.042065132
69	0xbd17409f	-0.03692686
70	0xbd1acfee	-0.037795953
71	0xbd139398	-0.03602943
72	0x3ce19485	0.02753664
73	0x3d164f05	0.036696453
74	0xbc22bdc7	-0.009932942
75	0x3cf47726	0.02984197
76	0x3d06d363	0.032916438
77	0xbcb69069	-0.022285657
78	0x3cc8d688	0.024516359
79	0x3cbab7f9	0.022792803
80	0xbbcf15c7	-0.0063197347
81	0xb613aae1	-2.2004172e-06
82	0xb5d54c07	-1.5891864e-06
83	0xb5cf8c81	-1.5463594e-06
84	0xb60d9fcf	-2.1103658e-06
85	0xb59f826f	-1.1884384e-06
86	0xb5d739c4	-1.603556e-06
87	0xb6113bbe	-2.1641458e-06
88	0xb5adf22b	-1.2959985e-06
89	0xb5fd84db	-1.8888635e-06
90	0xbcca6a55	-0.024708906
91	0xbc808054	-0.015686192
92	0xbc841a73	-0.016125893
93	0xbc2d7c25	-0.01058868
94	0xbc6bd280	-0.014393449
95	0xbb459f15	-0.0030154635
96	0x3b618b8d	0.0034415454
97	0x3c17cace	0.009264661
98	0x3c3419be	0.010992466
99	0xba3c0fe7	-0.00071740005
100	0xb9b80830	-0.00035101315
101	0xb9d20817	-0.0004006035
102	0xb9e1f16e	-0.00043095223
103	0xb7e30223	-2.7061504e-05
104	0x3618b1b0	2.2753193e-06
105	0xba00db19	-0.00049154606
106	0xb70636ca	-7.999779e-06
107	0x38ba30ec	8.8782836e-05
108	0x3d74cab7	0.059763636
109	0xbcf08526	-0.029360365
110	0x3d1de361	0.038546924
111	0xbd582dca	-0.052778043
112	0xb9817cbd	-0.00024697735
113	0x3c7be167	0.015373564
114	0x3c8977d0	0.016780764
115	0x3ce47067	0.027885629
116	0xbd8c2fcc	-0.06845054
117	0xb93685c8	-0.0001740671
118	0xb8e30436	-0.00010824988
119	0xb8f32fa5	-0.000115960174
120	0xb91a5882	-0.00014719556
121	0xb8874acb	-6.451233e-05
122	0xb8985107	-7.263017e-05
123	0xb90d3150	-0.00013465178
124	0xb87a6141	-5.969522e-05
125	0xb8919587	-6.9419904e-05
126	0x37ec0486	2.8135499e-05
127	0x3799efea	1.835074e-05
128	0x37c4f59b	2.347939e-05
129	0x37f26e6d	2.8900069e-05
130	0x37a9132e	2.0155301e-05
131	0x37bb23e6	2.2308854e-05
132	0x380946d9	3.2729327e-05
133	0x37acfbe5	2.0621295e-05
134	0x37c764b6	2.3769546e-05
135	0x3c73da6c	0.014883619
136	0xbc1eb153	-0.009685832
137	0x3cbcb843	0.023037082
138	0x3caa967f	0.020823715
139	0xba8e03fc	-0.0010834928
140	0x3cef76a2	0.029231373
141	0xbabf514a	-0.001459637
142	0xbb4fa12d	-0.0031681762
143	0x3c8c22cf	0.017106442
144	0xbc88c811	-0.016696962
145	0xbc6c00e5	-0.01440451
146	0xbc6b77f9	-0.014371865
147	0xbca77e1c	-0.020445876
148	0xbbf0c6eb	-0.0073479316
149	0xbc126c25	-0.0089369165
150	0xbd64fcb4	-0.05590506
151	0xbc86682e	-0.016407099
152	0xbd2fbc5e	-0.04290425
153	0xbc9e5b46	-0.019330632
154	0xbba7ff38	-0.00512686
155	0xbc26daea	-0.010184029
156	0xbc1c2a35	-0.009531547
157	0xbb716746	-0.0036835237
158	0xbb88ba74	-0.0041726176
159	0x3ac48fe7	0.00149965
160	0x3b018484	0.0019762823
161	0x3a8d68bf	0.0010788663
162	0xbbd7f274	-0.006590182
163	0xbc62b0bb	-0.013836081
164	0xbbf51d1e	-0.0074802777
165	0x3c80d361	0.015725793
166	0xbbc1c49a	-0.0059133293
167	0xbb37294e	-0.0027948203
168	0x3c41acc8	0.011820979
169	0x3b070589	0.0020602664
170	0x3d16738e	0.036731295
171	0xbcdb4291	-0.02676514
172	0xbd5a5758	-0.053305954
173	0xbd00fd1a	-0.031491376
174	0xbc33e611	-0.010980145
175	0xbd302de9	-0.043012533
176	0xbc485837	-0.012228063
177	0xbc6eea26	-0.0145821925
178	0xbba5e582	-0.00506276
179	0x3d1740bc	0.03692697
180	0xbacdbaaa	-0.0015695889
181	0xba8f502e	-0.001093393
182	0x3c48d741	0.012258352
183	0xbcab2da2	-0.020895783
184	0xbca91014	-0.02063755
185	0x39c16f8f	0.00036894946
186	0x3c83e25b	0.016099146
187	0x3d7719af	0.06032723
188	0x3a27f81f	0.00064075174
189	0x3c084fb4	0.008319784
190	0x3c741435	0.014897396
191	0xbc5d1da3	-0.0134958355
192	0x3d76fd7d	0.06030034
193	0x3cf90d9e	0.030402001
194	0xbc3e283e	-0.011606274
195	0x3c76d47a	0.015065307
196	0x3d78c762	0.06073702
197	0x3dd694cb	0.10477599
198	0x3a2219bb	0.00061836437
199	0x3974cc38	0.00023345731
200	0x39e3fe9b	0.0004348651
201	0x38dcdc6f	0.000105314764
202	0x398a63d4	0.0002639579
203	0x38f3c3df	0.00011623627
204	0x39eb1b8c	0.00044843217
205	0x3987e342	0.00025918527
206	0xb804078c	-3.147828e-05
207	0xbd2da88c	-0.042397067
208	0x3c5f3255	0.01362284
209	0x3ccdf583	0.025141483
210	0xbcbf95f8	-0.02338694
211	0x3cb7f56d	0.022455895
212	0x3c7e5f22	0.015525611
213	0xbcb621ee	-0.022232976
214	0x3c313176	0.010815015
215	0x3d36ca14	0.04462631
216	0xbd35e1a8	-0.044404656
217	0xbd035def	-0.032072004
218	0x3c53b41d	0.01292136
219	0xbd34747a	-0.044056393
220	0xbc26e941	-0.010187448
221	0x3bb1c581	0.0054251556
222	0xbc4494c6	-0.011998361
223	0x3ccdc95c	0.02512043
224	0x3d29dd5b	0.041470867
225	0xbc74aab6	-0.014933279
226	0x3c145ed7	0.009055815
227	0x3c56f5ba	0.013120109
228	0xbba59bcd	-0.0050539733
229	0x3c1d6425	0.009606396
230	0xbca48fd0	-0.020088106
231	0x3c05f532	0.008176135
232	0xbcd5854b	-0.026064536
233	0x3aea1ece	0.0017861964
234	0xbc2339f3	-0.009962547
235	0xba9192a5	-0.0011106326
236	0xbc59f375	-0.013302674
237	0x3c4626e9	0.012094238
238	0x3ca527c8	0.02016057
239	0x3c242d47	0.010020561
240	0x3bb52db1	0.0055291285
241	0x3d164c2f	0.036693748
242	0x3cb8bc67	0.022550775
243	0xbcfbbc57	-0.030729456
244	0xbd1d778f	-0.038444098
245	0xbbc3d6c6	-0.0059765307
246	0x3d00ffd1	0.031493966
247	0x3ae00f93	0.0017094485
248	0xbbe6f54a	-0.0070482837
249	0xbbbbae8b	-0.0057275943
250	0xbcaeb4b2	-0.021326397
251	0x3d37a275	0.044832665
252	0xbc16fa35	-0.009214927
253	0xbd10aa60	-0.035318732
254	0xbcc61607	-0.024180425
255	0xbc579573	-0.01315819

cnn_layer_2.0.bias f4 [64]
0	0xbdc38310	-0.095464826
1	0xbe15700d	-0.14593525
2	0xbd28aa85	-0.041178245
3	0xbbc8aed1	-0.0061243554
4	0x9f722404	-5.1275285e-20
5	0x3d164349	0.036685262
6	0xbc7ab791	-0.015302555
7	0x9d138ad8	-1.9527069e-21
8	0xb3902c83	-6.713619e-08
9	0x3d31e638	0.043432444
10	0xbcb95494	-0.022623338
11	0xb938e010	-0.00017631077
12	0xbd1840d0	-0.037171185
13	0xbd28a500	-0.04117298
14	0xaa0358a3	-1.166589e-13
15	0xbd833e4f	-0.06408369
16	0xbd5fb034	-0.0546114
17	0x3980c4a1	0.00024560562
18	0x3a15f9a7	0.00057211
19	0xbd435182	-0.047685154
20	0x3d6b75df	0.057485458
21	0xbcdcea51	-0.0269672
22	0x3c9b1839	0.018932449
23	0xbd1ad343	-0.03779913
24	0xbcf7487b	-0.030185929
25	0xbcb42dad	-0.021994436
26	0xb89d11c8	-7.4896554e-05
27	0xb5a1e899	-1.206313e-06
28	0xbd002cde	-0.03129279
29	0xadca1120	-2.2972346e-11
30	0xbd8b046c	-0.06787953
31	0xb75df9f3	-1.3230822e-05
32	0x3d51eb7b	0.051249962
33	0xbd825110	-0.06363118
34	0xbd19fd50	-0.037595093
35	0xb702f413	-7.805432e-06
36	0xbc40e369	-0.011772969
37	0xbd69cb57	-0.057078686
38	0x3bd8f705	0.006621244
39	0xbc73edaf	-0.014888211
40	0xbcff08f3	-0.031132197
41	0xad625c2a	-1.2867077e-11
42	0xb51c934c	-5.8328874e-07
43	0x3b313812	0.0027041477
44	0xb58935d1	-1.0222958e-06
45	0xbc91d9f9	-0.017804133
46	0xbcf38884	-0.029728182
47	0xb3a13003	-7.50588e-08
48	0x3ae02344	0.0017100354
49	0xbd87e17b	-0.06634804
50	0xbd6b0ee8	-0.057387263
51	0x39fda530	0.00048378995
52	0xbd5385d1	-0.05164129
53	0xa5c620aa	-3.436966e-16
54	0x9c6addf5	-7.771098e-22
55	0xa6f653f4	-1.7092435e-15
56	0xbd029918	-0.031884283
57	0xb7a73774	-1.9933774e-05
58	0xbbda5ec6	-0.00666413
59	0x3cebf267	0.02880211
60	0xbc71ad9b	-0.014750863
61	0xb8720b49	-5.7707806e-05
62	0x3b9d2d7b	0.0047966815
63	0x3d22129b	0.039568525

cnn_layer_2.2.weight f4 [64]
0	0x3d5f87f4	0.054573014
1	0x3da879e2	0.08226372
2	0xbbfb2c2b	-0.0076651773
3	0xbabf67a1	-0.0014603027
4	0x37820afa	1.5502319e-05
5	0x3e2314bc	0.15925878
6	0x3e37f7e9	0.17965664
7	0xb2299630	-9.871243e-09
8	0xb7c83f06	-2.3871205e-05
9	0x3e0541f3	0.13013439
10	0x3df4bd8f	0.11950218
11	0x3b7bd9e9	0.0038429445
12	0x3dc41c84	0.095757514
13	0x3e051ca5	0.12999208
14	0xb9c002d7	-0.0003662321
15	0x3dfffb97	0.12499159
16	0x3de5ee54	0.11227098
17	0xb9ac63d6	-0.0003288078
18	0x3902ebec	0.00012485654
19	0x3dc14a75	0.0943803
20	0x3e4c1b5a	0.19932309
21	0x3e0e1658	0.13875711
22	0x3e3eade6	0.18621024
23	0x3d8b48ff	0.06801032
24	0x3e0cf6ee	0.13766071
25	0x3e2b9f64	0.16760021
26	0xb91cd32c	-0.00014955987
27	0xb9dcbd9c	-0.0004210294
28	0xbbaa6e72	-0.0052011544
29	0x38fdcb08	0.000121017976
30	0x3dd50335	0.10401002
31	0xb9add652	-0.00033156812
32	0x3e5f6cc8	0.2181884
33	0x3e077624	0.13228661
34	0x3e0fa958	0.14029443
35	0xb8191a08	-3.6502286e-05
36	0x3e057ae1	0.13035156
37	0x3df2a2aa	0.11847432
38	0x3e051e0b	0.12999742
39	0x3e2ec77d	0.17068286
40	0x3df9eabb	0.122029744
41	0x38ff4cbf	0.000121736426
42	0xb7d720e0	-2.5645306e-05
43	0x3e1a3852	0.15060547
44	0xb9a1a90c	-0.00030834263
45	0x3ace97eb	0.0015761828
46	0x3de4c919	0.11171169
47	0x3a23e3ac	0.00062518823
48	0x3e05e1c6	0.13074407
49	0x3d4ea02c	0.05044572
50	0x3e161685	0.14657028
51	0x3e1ca63d	0.1529779
52	0x3d84c444	0.06482747
53	0x37402049	1.1451609e-05
54	0x35ab33db	1.2755585e-06
55	0x39aa4cc1	0.00032482113
56	0x3e244d2b	0.16045062
57	0x367ac86d	3.7369566e-06
58	0x3e0b7444	0.1361857
59	0x3dd720ca	0.10504301
60	0x3e39d7e1	0.18148758
61	0xb9aeba77	-0.00033326793
62	0x3aba8d98	0.0014232872
63	0x3e52538e	0.20539686

cnn_layer_2.2.bias f4 [64]
0	0x3bcec1f4	0.006309742
1	0x3c89c109	0.01681568
2	0x3be48a26	0.0069744764
3	0xb7c0d97c	-2.2989458e-05
4	0x3a6579de	0.00087538164
5	0x3d944efd	0.07241628
6	0x3d592d9b	0.05302201
7	0xb90d3e73	-0.00013470072
8	0x3951f736	0.00020023886
9	0x3c3550a0	0.011066586
10	0x3d1786cf	0.036993798
11	0xba9d2c26	-0.0011991307
12	0x3cd481e4	0.025940843
13	0x3cf967da	0.030445028
14	0xbb3145f4	-0.0027049752
15	0x3ce2dab5	0.027692178
16	0x3cfb0b33	0.030644989
17	0x39252e5e	0.000157529
18	0x39034197	0.00012517568
19	0x3cb80d0e	0.022467162
20	0x3d947c86	0.072503135
21	0x3c2e3559	0.010632836
22	0x3d81e87e	0.063431725
23	0x3c2fa74b	0.010721038
24	0x3c7b6943	0.015344921
25	0x3d37269c	0.044714555
26	0xb8641b53	-5.4384884e-05
27	0xbc47baa5	-0.012190496
28	0x39bdd75c	0.00036209344
29	0x3a3b9e5f	0.0007157083
30	0x3ccb1c6d	0.024793828
31	0x378acf9c	1.6547558e-05
32	0x3dc3e08e	0.09564315
33	0x3ccbe311	0.024888547
34	0x3ce3a560	0.027788818
35	0xb96aeb35	-0.000224036
36	0x3d28a6f9	0.041174863
37	0x3be3acbd	0.0069480822
38	0x3cd69787	0.0261953
39	0x3d52ad94	0.05143507
40	0x3d097bd5	0.03356536
41	0xbc3001c6	-0.01074261
42	0x392c91e0	0.00016457541
43	0x3d129dd7	0.03579506
44	0xb952a527	-0.00020088685
45	0x3aaf76a3	0.0013386797
46	0x3d109b2b	0.03530423
47	0x3a1dc4b1	0.0006018384
48	0x3c85c2bc	0.016328208
49	0x3bbb40f9	0.0057145325
50	0x3d7d8f8f	0.061904486
51	0x3d4a5c4e	0.049404435
52	0x3bc3db79	0.005977091
53	0xbbd63fcf	-0.0065383683
54	0x37105334	8.602441e-06
55	0xb9fcccf4	-0.00048217888
56	0x3d7d6d78	0.061871976
57	0x39ca0d71	0.00038538457
58	0x3c6a5d07	0.014304406
59	0x3cbf05ec	0.023318253
60	0x3d2699e9	0.040674124
61	0x3ac2399c	0.0014818194
62	0x39d6b2b1	0.00040950396
63	0x3da580f2	0.08081235

cnn_layer_2.2.running_mean f4 [64]
0	0x3be4afcf	0.006978966
1	0x3b9f2183	0.00485629
2	0x3d69202c	0.056915447
3	0x16a8695e	2.720836e-25
4	0x00000004	6e-45
5	0x3d7035fd	0.058645237
6	0x3d0ad5c2	0.03389526
7	0x00000004	6e-45
8	0x00000004	6e-45
9	0x3dad4364	0.08460119
10	0x3d29249d	0.041294683
11	0x00000004	6e-45
12	0x3c5e73c5	0.013577406
13	0x3cb50122	0.022095267
14	0x0ef5322f	6.0445488e-30
15	0x3de41a2d	0.11137805
16	0x3c2dbb1d	0.010603693
17	0x39ac34fa	0.00032845867
18	0x3a7e712c	0.0009706195
19	0x3c95cbf9	0.018285738
20	0x3dd313b3	0.10306492
21	0x3ced135f	0.0289399
22	0x3db20a1c	0.086933345
23	0x3ccb8910	0.02484563
24	0x3d1b4f92	0.03791768
25	0x3d0b24f9	0.033970807
26	0x00000004	6e-45
27	0x00000004	6e-45
28	0x39c4160e	0.00037400465
29	0x00000004	6e-45
30	0x3c45955f	0.012059539
31	0x01e02555	8.2338173e-38
32	0x3dc0d252	0.094151154
33	0x3ccd1b86	0.025037538
34	0x3d07a990	0.03312069
35	0x2a8893ac	2.426092e-13
36	0x3d14237a	0.036166646
37	0x3c53b588	0.012921698
38	0x3db4b602	0.08823778
39	0x3d392293	0.04519899
40	0x3ce7f54c	0.028315209
41	0x00000004	6e-45
42	0x1c7c556e	8.349022e-22
43	0x3d06cf54	0.032912567
44	0x00000004	6e-45
45	0x37897514	1.6386191e-05
46	0x3cbd2872	0.023090575
47	0x00000004	6e-45
48	0x3d020c13	0.031749796
49	0x3b61935c	0.0034420108
50	0x3df7d8d6	0.12101905
51	0x3d278182	0.040894993
52	0x3d2829e8	0.04105559
53	0x00000004	6e-45
54	0x00000004	6e-45
55	0x00000004	6e-45
56	0x3d5d38e0	0.05400932
57	0x344f2b3c	1.9294106e-07
58	0x3da6e3da	0.08148928
59	0x3cfcd905	0.030865202
60	0x3d4d9b6f	0.05019706
61	0x00000004	6e-45
62	0x3c5c6b17	0.013453267
63	0x3db7918d	0.089633085

cnn_layer_2.2.running_var f4 [64]
0	0x3a857cfc	0.0010184343
1	0x3a958fb4	0.0011410625
2	0x3c4a8d9a	0.012362862
3	0x1257c537	6.8085124e-28
4	0x00000004	6e-45
5	0x3bebf927	0.007201332
6	0x3ba485d2	0.0050208354
7	0x00000004	6e-45
8	0x00000004	6e-45
9	0x3c5f00de	0.013611047
10	0x3bd1fb0c	0.006408101
11	0x00000004	6e-45
12	0x3ad3ffca	0.0016174254
13	0x3b89ae9a	0.0042017223
14	0x0c257b5d	1.2748261e-31
15	0x3cdf9737	0.027293785
16	0x3a93c421	0.0011273661
17	0x34e01229	4.1736465e-07
18	0x3603dff2	1.9650874e-06
19	0x3b143410	0.002261404
20	0x3c72037f	0.014771341
21	0x3b8d3ff5	0.004310603
22	0x3c7b3e41	0.015334667
23	0x3b765015	0.0037584354
24	0x3bd39db4	0.0064580087
25	0x3ba98e4c	0.005174434
26	0x00000004	6e-45
27	0x00000004	6e-45
28	0x376206c6	1.3472227e-05
29	0x00000004	6e-45
30	0x3aef5f2f	0.001826262
31	0x0000573d	3.1295e-41
32	0x3c7f403d	0.01557928
33	0x3b8d75fa	0.0043170424
34	0x3b8f4869	0.0043726456
35	0x2465953e	4.9782873e-17
36	0x3bb0a4a9	0.005390723
37	0x3ad93f41	0.0016574637
38	0x3c71e626	0.014764344
39	0x3c0dd9de	0.008657901
40	0x3b9faefe	0.0048731556
41	0x00000004	6e-45
42	0x12ebd885	1.4883961e-27
43	0x3b84e841	0.004056007
44	0x00000004	6e-45
45	0x342fe4fd	1.638145e-07
46	0x3b331885	0.0027327847
47	0x00000004	6e-45
48	0x3b9a5041	0.004709274
49	0x39780c71	0.00023655758
50	0x3cddb195	0.027062217
51	0x3ba24b4b	0.0049528233
52	0x3bc37652	0.0059650326
53	0x00000004	6e-45
54	0x00000004	6e-45
55	0x00000004	6e-45
56	0x3c2b6c57	0.010462842
57	0x2c81bdf7	3.687491e-12
58	0x3c5dca15	0.01353695
59	0x3b6863ba	0.0035459832
60	0x3c15356e	0.009106977
61	0x00000004	6e-45
62	0x39310754	0.00016882765
63	0x3c879bcf	0.016553788

cnn_layer_2.3.weight f4 [64, 64, 3, 3]
0	0xbcae4c49	-0.02127661
1	0xbc9170f4	-0.017754056
2	0xbcc17c11	-0.02361873
3	0xbc0bd686	-0.008535033
4	0xbb759de2	-0.0037478139
5	0xbbbec775	-0.005822117
6	0xbc7b9197	-0.015354536
7	0xbbfad72e	-0.007655046
8	0x3c0d5477	0.008626095
9	0xbb0f7040	-0.0021886975
10	0xbb5cb531	-0.0033677334
11	0xbca5aa4a	-0.020222802
12	0xbc4341f1	-0.011917577
13	0xbc26c884	-0.010179643
14	0xbd0e827a	-0.0347924
15	0xbcb8fe34	-0.022582151
16	0xbd2f5a10	-0.0428105
17	0xbd1da2d6	-0.03848537
18	0x3c7681bf	0.015045582
19	0xbc79410c	-0.015213262
20	0xbce7dfce	-0.02830496
21	0xba9263ed	-0.0011168696
22	0xbce80496	-0.0283225
23	0xbcdad800	-0.026714325
24	0xbbe8e4dc	-0.0071073603
25	0xbd0b962c	-0.034078762
26	0xbd08db31	-0.033412162
27	0x382a420c	4.059267e-05
28	0xb7e2ca58	-2.7035523e-05
29	0x380e33d4	3.3903707e-05
30	0x37a46a7a	1.9599905e-05
31	0x381e11ca	3.7686703e-05
32	0x389882d6	7.272295e-05
33	0x37bea19d	2.2725022e-05
34	0x3840358e	4.5826244e-05
35	0x38a34f54	7.787222e-05
36	0x3be36881	0.006939948
37	0x3b842a65	0.004033374
38	0x3b76237c	0.0037557771
39	0x3c311aed	0.010809642
40	0x3be4cebf	0.006982654
41	0x3be0cc26	0.006860274
42	0x3c0f9c0a	0.00876523
43	0x3ba061af	0.0048944573
44	0x3ba22eca	0.0049494253
45	0x3d567a8c	0.052362964
46	0xbcb9379e	-0.022609528
47	0xbce3b7ea	-0.027797658
48	0x3d3b0035	0.045654494
49	0xbcb56ec6	-0.022147547
50	0xbd3cda19	-0.04610643
51	0x3d831141	0.06399775
52	0xbd16b651	-0.036794964
53	0xbd379771	-0.04482216
54	0xbd95bebe	-0.07311772
55	0xbd17f117	-0.037095156
56	0x3d6f4897	0.058418836
57	0xbc2c5a7f	-0.010519623
58	0xbc862972	-0.016377185
59	0x3b92128f	0.0044577788
60	0xbd5ca5fd	-0.053869236
61	0xbd1f226d	-0.03885119
62	0x3d61181e	0.05495464
63	0xb9573e7a	-0.00020527272
64	0xb941a8b1	-0.00018468757
65	0xb9626e81	-0.00021594205
66	0xb98b7a14	-0.000266031
67	0xb9757a30	-0.00023410539
68	0xb9887892	-0.00026029773
69	0xb987d78e	-0.00025909807
70	0xb96c2350	-0.00022519869
71	0xb984a037	-0.0002529637
72	0x3958db71	0.00020681114
73	0x39562660	0.00020422926
74	0x3984ea54	0.0002535159
75	0x3995f0bf	0.00028598864
76	0x3984837d	0.00025274968
77	0x399be82f	0.00029736894
78	0x398ee619	0.00027255787
79	0x3974b886	0.00023338394
80	0x3995048b	0.0002842288
81	0xbcad5a19	-0.021161126
82	0xbd0f759d	-0.035024274
83	0xbd494b37	-0.049143996
84	0xbcca7e03	-0.02471829
85	0xbd2007af	-0.039069828
86	0xbcb554a5	-0.022135088
87	0xbd77a35f	-0.060458537
88	0xbd817682	-0.06321432
89	0x3bef8f63	0.007310794
90	0xbca73f01	-0.020415785
91	0x3a87bab6	0.0010355327
92	0xbcd51b66	-0.026014041
93	0xbcc09138	-0.023506746
94	0xbcced0fb	-0.025246134
95	0xbc41dd44	-0.011832539
96	0xbd276a31	-0.040872756
97	0x3bedc6f4	0.007256383
98	0x3cb6e8d6	0.022327822
99	0xb99cdae9	-0.0002991774
100	0xb9ce6725	-0.0003936823
101	0xba8b7404	-0.0010639434
102	0xba76f967	-0.0009421319
103	0xba68b252	-0.00088766695
104	0xbab796ac	-0.0014006696
105	0xba544a19	-0.00080981996
106	0xba3d9acd	-0.0007232845
107	0xbab6ed63	-0.0013956245
108	0xbc318b51	-0.010836438
109	0xbc66bb7d	-0.014082787
110	0xbb587630	-0.003302943
111	0x3cf430c7	0.029808415
112	0xbc4ee9ec	-0.0126290135
113	0x3c7df659	0.015500628
114	0xbc71157c	-0.014714595
115	0x3c430afe	0.011904476
116	0x3c9408d3	0.018070614
117	0xbbf57402	-0.007490636
118	0x3c9ac0d6	0.01889078
119	0xbce505c2	-0.027956847
120	0xbce65d10	-0.028120548
121	0x3cabec96	0.020986836
122	0xbb009871	-0.0019622112
123	0x3c14688f	0.009058132
124	0xbd069860	-0.03286016
125	0xbbbdc5bb	-0.0057913936
126	0xbb1c1361	-0.0023815262
127	0xbae50474	-0.0017472641
128	0xbae77061	-0.0017657393
129	0xbb42e245	-0.0029736918
130	0xbb095821	-0.002095707
131	0xbb07fbf3	-0.0020749539
132	0xbb2b309e	-0.0026121507
133	0xbae5a673	-0.0017520919
134	0xbaf7a621	-0.0018894115
135	0xbd437706	-0.04772093
136	0xbd0f65d5	-0.035009224
137	0x3c5b0fc0	0.013370454
138	0xbcf12103	-0.029434687
139	0xbcd6630f	-0.026170282
140	0xbc7adc37	-0.015311292
141	0xbccdebd8	-0.025136873
142	0xbd8bf556	-0.068339035
143	0xbc7220db	-0.014778341
144	0xbc68bb38	-0.014204793
145	0xbc734edf	-0.014850347
146	0xbcc274f7	-0.023737414
147	0xbc799c1c	-0.015234973
148	0xbcb29f49	-0.021804469
149	0xbcf26ffa	-0.02959441
150	0xbc1396a1	-0.009008081
151	0xbb8bcb4c	-0.0042661782
152	0xbcc885eb	-0.02447792
153	0x3a05aaa4	0.0005098975
154	0x39edc0c6	0.0004534779
155	0x39d88f06	0.0004130529
156	0x39d22eea	0.00040089275
157	0x39a6625e	0.00031735277
158	0x394e33bd	0.00019664965
159	0x39ba98de	0.0003559058
160	0x3972e5f1	0.00023164578
161	0x3932af1e	0.00017040639
162	0x3a120d72	0.00055714615
163	0x3923c510	0.00015618303
164	0x39e06e2e	0.000428067
165	0x3a047cb3	0.0005053982
166	0x39559030	0.00020366977
167	0x39c0e29b	0.00036789928
168	0x3912d40b	0.00014002637
169	0x393685e4	0.0001740675
170	0x38bc6082	8.9825146e-05
171	0xbd32e86d	-0.04367869
172	0xbccaa1e3	-0.024735397
173	0xbcf3c759	-0.029758142
174	0xbce93354	-0.028466858
175	0xbc2b7681	-0.010465265
176	0xbcc2a094	-0.02375821
177	0xbc743ca8	-0.01490704
178	0x3c995ba1	0.01872045
179	0x3c7433ba	0.014904911
180	0xbcc78b2b	-0.024358353
181	0xbd504f98	-0.050857157
182	0xbd2be826	-0.04196944
183	0x3caa5c4d	0.020795966
184	0xbc972007	-0.018447889
185	0xbbf6ca1b	-0.007531417
186	0xbd902c2c	-0.07039675
187	0xbdba52f1	-0.09097851
188	0x3b90c1e3	0.0044176443
189	0x3ca1d03b	0.019752612
190	0x3c0bd523	0.0085347025
191	0xbd47ecfd	-0.048809994
192	0xbacc64c7	-0.0015593999
193	0xbcab019d	-0.020874793
194	0xbca41d9f	-0.020033656
195	0xbc6c1adc	-0.014410701
196	0xbc94b6c6	-0.01815356
197	0x3c55b0a7	0.0130426055
198	0xbcd6d617	-0.026225133
199	0xbccd5279	-0.02506374
200	0xbd4a3fd8	-0.049377292
201	0x3bf15414	0.007364759
202	0xbd39f911	-0.045403544
203	0xbd07bf09	-0.03314117
204	0xb95df203	-0.00021166359
205	0xbd11996d	-0.03554671
206	0xbd37af60	-0.044844985
207	0xbd04ab76	-0.03239008
208	0xbcd9d4f1	-0.026590796
209	0xbc7fc91e	-0.015611915
210	0xbcfe2608	-0.031023994
211	0xbc5c9294	-0.013462681
212	0xbc364c1c	-0.011126544
213	0xbbf434fc	-0.0074526053
214	0xbca76a08	-0.020436302
215	0xbc831b14	-0.016004123
216	0xbd22fb75	-0.03979059
217	0xbc785310	-0.015156522
218	0x3d5160f4	0.051117852
219	0xbcd0c051	-0.025482329
220	0x3be7b145	0.0070706927
221	0x3cac1e06	0.02101041
222	0x3c4885c8	0.012238927
223	0x3d852aa2	0.06502272
224	0x3df98f11	0.12185491
225	0x3d781e9f	0.060576078
226	0x3d5f7b3f	0.054560896
227	0xbd6fcf9f	-0.058547612
228	0x3a433acd	0.00074474217
229	0x3c7cb423	0.015423807
230	0xbd663c65	-0.05620994
231	0x3d02dd3b	0.031949263
232	0x3c4b8647	0.012422151
233	0xbc89fc61	-0.016843976
234	0xb7931027	-1.7531287e-05
235	0xb7518ffa	-1.2490893e-05
236	0xb7ea6208	-2.7940623e-05
237	0xb8010b9b	-3.0766805e-05
238	0xb7cb480c	-2.4233035e-05
239	0xb81d3100	-3.747735e-05
240	0xb7e8d825	-2.7757205e-05
241	0xb7ae6813	-2.079088e-05
242	0xb81072d1	-3.4439207e-05
243	0xbb6fb5ad	-0.0036576793
244	0x3a8bf9ce	0.0010679306
245	0x3b053bd3	0.0020329847
246	0xbc1c8826	-0.009553945
247	0xbb8378ef	-0.004012219
248	0xbb590f4c	-0.003312069
249	0xbbfde72a	-0.007748504
250	0xbb050e71	-0.0020302797
251	0xbac1f928	-0.0014798986
252	0x3aff972b	0.0019500008
253	0x3b3998b4	0.0028319778
254	0x3a9d8f89	0.0012020926
255	0x3ab06a68	0.0013459446

cnn_layer_2.3.bias f4 [64]
0	0xbdbbd5a1	-0.09171606
1	0xbda5bd71	-0.08092774
2	0xbd8cb66c	-0.06870732
3	0xa0de4438	-3.7653406e-19
4	0xbdd8d1ae	-0.10586868
5	0x363d930c	2.8248787e-06
6	0xbde6e77e	-0.112746224
7	0xbe00c500	-0.1257515
8	0xb480ba02	-2.3977196e-07
9	0xbe131cd0	-0.1436646
10	0xbd583095	-0.052780706
11	0xb462ccf4	-2.1122452e-07
12	0xbdbec57f	-0.09315013
13	0xbcb6acd0	-0.0222992
14	0xbdb53fce	-0.088500604
15	0x3d312b9d	0.043254483
16	0xbdc1d3e4	-0.09464243
17	0x3ce96ccc	0.028494261
18	0xbd58e923	-0.05295671
19	0x3ba05af4	0.004893655
20	0xbcf2647a	-0.029588927
21	0xbe043631	-0.12911297
22	0xbd86b945	-0.06578306
23	0xb9181766	-0.00014504566
24	0x3c05fd93	0.008178133
25	0xbcbda601	-0.023150446
26	0xbdd8e1d2	-0.10589947
27	0x3bdb8847	0.006699595
28	0xbd64a71c	-0.05582343
29	0x3cc2fcad	0.023802126
30	0x3c19541e	0.009358434
31	0xbc82735f	-0.015924154
32	0xbd975c71	-0.07390679
33	0xbd22e9c6	-0.039773725
34	0xbd6dba19	-0.058038805
35	0xbdf769db	-0.12080737
36	0xbda05498	-0.07828635
37	0xb703cc83	-7.855825e-06
38	0xbdebb48f	-0.11509048
39	0xbdee36f4	-0.11631575
40	0xbb4e8f09	-0.003151836
41	0xbb08aec9	-0.0020856133
42	0xbc52be5b	-0.012862767
43	0x3d0c3c7d	0.034237374
44	0xbd737e12	-0.059446402
45	0xbd55c3a4	-0.05218853
46	0xbd385e17	-0.045011606
47	0xbd46e8d4	-0.048561886
48	0xbd5f6d56	-0.05454763
49	0xbdc4832c	-0.095953315
50	0x3d0ce81d	0.034401048
51	0xbda26510	-0.079294324
52	0xbce2629b	-0.02763491
53	0xbd2287a8	-0.039680153
54	0xbd87c709	-0.0662976
55	0xbdbb4d13	-0.0914556
56	0xb3100478	-3.3531677e-08
57	0xbdf8918a	-0.121371344
58	0xb2822f27	-1.5155434e-08
59	0xbd8a86db	-0.06764003
60	0xbdb8edaf	-0.090297095
61	0xbbbed91e	-0.005824222
62	0xbd95a58d	-0.07306967
63	0xbe011bc8	-0.12608254

cnn_layer_2.5.weight f4 [64]
0	0x3eba83a5	0.36428562
1	0x3ea052cd	0.31313172
2	0x3e99d09f	0.30041978
3	0xa11c6bf4	-5.299773e-19
4	0x3e94f3b0	0.2909217
5	0x362df1df	2.5919796e-06
6	0x3e973a5c	0.29536712
7	0x3e23ee65	0.16008909
8	0x3ae4fd6a	0.0017470543
9	0x3e90ec09	0.2830508
10	0x3e9c0c82	0.30478293
11	0xba077ee4	-0.00051687495
12	0x3eb49a2e	0.3527388
13	0x3eac11d0	0.3360734
14	0x3da3d1d6	0.079990074
15	0x3ed51585	0.4161798
16	0x3e975de9	0.29563835
17	0x3efa671a	0.48906785
18	0x3eae788a	0.3407634
19	0x3ed8d8ee	0.42353004
20	0x3eaaf38d	0.3338894
21	0x3e86b63c	0.2631091
22	0x3e92ed74	0.28696787
23	0xb813277d	-3.5084307e-05
24	0x3ed1d12d	0.409799
25	0x3e9deccc	0.30844724
26	0x3e9777a3	0.29583463
27	0x3c49c2ad	0.012314481
28	0x3eae71b2	0.34071118
29	0x3eb7f5c4	0.35929692
30	0x3e89029b	0.267598
31	0xbb4e9e08	-0.00315273
32	0x3ea6254f	0.3245034
33	0x3ea469f6	0.32112092
34	0x3e89bd65	0.2690231
35	0x3eb5bf78	0.35497642
36	0x3e8e25ca	0.27763206
37	0xbbaf44be	-0.005348771
38	0x3e8eeb8e	0.2791409
39	0x3e9a12b0	0.30092382
40	0xbb806a04	-0.003918888
41	0xba28dd55	-0.00064416724
42	0x3e80b271	0.2513614
43	0x3ef8020c	0.48439062
44	0x3e87ed55	0.26548257
45	0x3e98d588	0.2985041
46	0x3e311b9a	0.17295685
47	0x3ed79774	0.42107737
48	0x3ece923a	0.40345937
49	0x3e9b2973	0.3030506
50	0x3e8f7bd0	0.2802415
51	0x3ec7bdee	0.39012092
52	0x3ee63142	0.44959456
53	0x3bf08a19	0.0073406813
54	0x3e5ad9b8	0.21372116
55	0x3e8663fa	0.2624815
56	0x332ce756	4.025727e-08
57	0x3eb9193e	0.3615207
58	0xbb5a246c	-0.003328587
59	0x3e83a109	0.25708798
60	0x3ebb1901	0.36542514
61	0xbb742132	-0.0037251231
62	0x3eb17b32	0.34664303
63	0x3ebb8ee1	0.36632445

cnn_layer_2.5.bias f4 [64]
0	0xbdb62138	-0.08893055
1	0xbdbcde40	-0.09222078
2	0xbda37909	-0.0798207
3	0xbc3662ba	-0.011131937
4	0xbd93a08f	-0.072083585
5	0xba2605d8	-0.0006333268
6	0xbcfac196	-0.030609887
7	0xb9fc09f9	-0.00048072616
8	0xb324c4d3	-3.8363236e-08
9	0xbd6779f2	-0.05651278
10	0xbd3a0832	-0.045417972
11	0xb363ea8e	-5.3065882e-08
12	0xbd8008a2	-0.062516466
13	0xbdae2e84	-0.08504966
14	0x3a2da9f6	0.00066247524
15	0xbe091584	-0.13387114
16	0xbd2d6b04	-0.042338386
17	0xbe1a82aa	-0.15088907
18	0xbca701c2	-0.02038658
19	0xbdbec2a3	-0.09314468
20	0xbde7b743	-0.11314251
21	0xbce9e9ce	-0.02855387
22	0xbd0dfa53	-0.034662556
23	0x3b09fc0c	0.0021054773
24	0xbd9ba6c0	-0.076001644
25	0xbd20d8a9	-0.039269123
26	0xbcafb338	-0.021447763
27	0x3b7384c1	0.0037157985
28	0xbb8eb237	-0.004354741
29	0x3b53817d	0.0032273226
30	0xbd915120	-0.070955515
31	0x3abc81b6	0.0014381919
32	0xba8683e1	-0.0010262692
33	0xbc9fc02c	-0.019500814
34	0xbd114eab	-0.035475414
35	0xbd0884af	-0.033329662
36	0xbda0198c	-0.07817373
37	0x32b91638	2.1546938e-08
38	0xbd6ae956	-0.057351433
39	0xbd93c95c	-0.07216141
40	0xba96d688	-0.0011508027
41	0x3a681602	0.0008853377
42	0xbd6e3001	-0.05815125
43	0xbe17871a	-0.14797631
44	0xbd019716	-0.031638227
45	0x3c6b65b2	0.014367508
46	0xbcba497b	-0.022740116
47	0xbe30667b	-0.17226593
48	0xbde7c3b8	-0.11316627
49	0xbd41061a	-0.04712496
50	0xbd39631b	-0.04526053
51	0xbd63a70f	-0.05557924
52	0xbe1fc035	-0.15600665
53	0x3baa7476	0.0052018715
54	0xbcf91aee	-0.030408349
55	0xbd5cd1ed	-0.05391114
56	0xb8216928	-3.8483326e-05
57	0x3c18790d	0.0093062045
58	0xb288d43e	-1.5929e-08
59	0xbd3de78b	-0.046363395
60	0xbc35f713	-0.01110627
61	0xba483398	-0.00076370826
62	0xbd9bbf58	-0.07604855
63	0xbdb53599	-0.088481136
