bestAccuracy.pth (torch, 837963 bytes, 26 tensors)

conv1.weight f4 [12, 3, 5, 5]
00000000: 66c2 2abd fe53 773d a696 fabd 91ad a7bd
00000010: 8a1a 133e f013 b83d 0984 18be 07bb eabd
00000020: 0f51 3cbd 3747 a83d 3593 06be 479b bdbe
00000030: 435e debe f4b7 b3be f971 27be bc3a 85be
00000040: 9ce0 d3be cceb b6be b4c1 b6be 0733 55be
00000050: d7a7 55be eefe 4bbe d4c9 89be 7cdd 8dbd
00000060: 78f7 87bd 2951 673e 3c76 733d 5dbd e23d
00000070: 8bc9 133e 5e41 873d def4 b13a 590a 323e
00000080: 4233 4e3c 74a2 193e 3cfe aa3d df3d 1f3d
00000090: 2fe6 323c ea3c 8dbd dc39 97bd 7446 a3bd
000000a0: 213c edbc 9255 8a3d 8150 f93c 8dfc 41bd
000000b0: e6ff d03d 961b 203e c694 b43c 6735 903d
000000c0: bdaa 0f3e 201a 823e 21b3 a13c ab0d 013e
000000d0: 5335 3d3d 952c 043e 2412 be38 660f 823d
000000e0: a10b 3a3e d8cd 0c3e 9c2c 37bd 49f2 ee3c
000000f0: 6632 0c3e 92ed 8d3c cf97 f93d e775 093e
00000100: 4f56 86bd 80f5 1a3e 3fb2 143e d783 2d3e
00000110: b8a1 0e3e e04e 023d e16d 363e b37b f43d
00000120: 5db4 703d 3d38 a53d 01b7 523e 7975 9f3d
00000130: b134 86bd 7796 2c3c 6a7a a73c d607 4c3e
00000140: be7d 513c 0229 253e ba0d 763d fb3e 88be
00000150: 2cb8 fcbd a33a 363e ee92 b03e 3c23 153e
00000160: 3d51 9bbe e41b 88be 22b4 523d 917f 8c3e
00000170: c711 a33d 76c0 76be ba7e 12be 18e4 ac3d
00000180: f834 373e 1b15 073d 1469 d9bd 1c84 083e
00000190: 837b c43c 447c 993d eb64 10be 5ed3 9ebd
000001a0: 65c2 083c 2070 413d 850f 5c3e ec91 6dbc
000001b0: c565 ecbe 3245 53be 39b3 243e 75b8 783e
000001c0: a16a ac3d c3f0 c9be 8ff8 97be 8f39 0f3e
000001d0: dd5d e93d bb4b 69bd 2cdc 24be 8d28 44be
000001e0: 379c 24bd ec24 133e 4302 ddbd 4bef 86bd
000001f0: f3a5 df3d d18c b6bc 60ea 123e c643 b8bc
00000200: cb49 41bd daea 1d3e 84f7 003e ed43 c63d
00000210: 39b6 1f3d c5e3 6ebe d04b e33a f4bb 833c
00000220: 9973 b83e 45db 50bc 09ca 84be 551e 3fbe
00000230: 8220 d63d dc8c 4d3e bb88 543d 4892 83be
00000240: 2d98 dd3a ed9e e6bd b6b1 233e 0cdd 053c
00000250: 14b2 04be a1d8 473c b9f1 3dbe 8592 a5bd
00000260: a56d 3dbe 682e 943c 7503 91bd c93b bcbe
00000270: 0697 ebbe 164f 27be b128 85bd 428e 82bb
00000280: e7c8 3ebd b34c 09bd e9d2 06be ee4b 893d
00000290: c30c 163d b577 7a3e 98e0 8f3e 4f3b a73e
000002a0: ec46 593e 75d9 c6bd 56db b83d 31ff 363e
000002b0: f6a1 ec3d 5753 d7bc ee6b 08be 72dd 31bd
000002c0: e156 febd 133a 49bd 8482 753d b23e dbbc
000002d0: c8de 68be e556 70be eebf 56bd 6c43 16be
000002e0: a4c6 0dbe aa5a 223d 87d9 043d b303 333d
000002f0: 9600 c53d fb1b 9d3d 48b8 013e 883e 7a3e
00000300: d430 9c3e da8d e93c 10cc 203d 4e90 213e
00000310: 112d 783e 7028 a83c 7210 623d 4d5c f6bd
00000320: fd97 8abd e622 b93d 1eab e0bc cf12 0f3e
00000330: 165f 193e 10f8 a4be 9126 d2be a42a 93be
00000340: be5f afbd efd0 a9bd 5e2d eebd 4f96 5abe
00000350: cc64 febd 051b c93d f7ad 23bd f8df 463d
00000360: 925e 603e 3dd5 2a3e 5882 b63c ddc9 bf3d
00000370: 6522 5b3e 93fd e13d 6c18 3c3e 8889 cf3d
00000380: d77f 4ebd 10d7 f83d 25a6 293e 796e e9bc
00000390: aa85 453e fa03 ea3c ad6b a63d ceda 423e
000003a0: 09ff ecbc 0ac5 933e afa8 a63d 67d2 8f3c
000003b0: cea9 41bd c7a3 e8bd e028 843e be94 2b3e
000003c0: ec65 97bd 9ea9 a3be f827 e6bd c083 493e
000003d0: 7217 f33d bf63 d73d 6c97 f7bd 493f 71be
000003e0: cad7 ce3d e6fd 10be b140 71bd fd35 10be
000003f0: e796 83be 6929 bfbd 3611 fbbd 4186 6abd
-0.0416893 0.060382836 -0.12235765 -0.08187402 0.14365593 0.08988178 -0.14894117 -0.11461454
-0.04597574 0.08216708 -0.13142093 -0.3703253 -0.4343129 -0.35101283 -0.16352071 -0.26021373
-0.413823 -0.35726774 -0.3569466 -0.20820247 -0.20864807 -0.19921467 -0.26911795 -0.069270104
-0.06638998 0.22589554 0.05943893 0.110712744 0.14432351 0.06604265 0.0013577004 0.1738676
0.012585463 0.15003377 0.083492726 0.038877364 0.010919138 -0.06896384 -0.07384083 -0.07972422
-0.028959336 0.067546025 0.030433895 -0.04735999 0.10205059 0.15635523 0.022043597 0.07041436
0.14029975 0.25410557 0.019738736 0.1260287 0.046193432 0.12907632 9.063285e-05 0.06350593
0.18168499 0.13750398 -0.044720277 0.029168265 0.136911 0.017325196 0.12187158 0.13423882
-0.06559431 0.15132713 0.1452112 0.16944824 0.13928878 0.031813502 0.17815353 0.11937656
0.058765758 0.08067367 0.20577623 0.07786078 -0.06553019 0.0105339205 0.020444114 0.19924864
0.012786327 0.16128924 0.060071684 -0.2661055 -0.123398155 0.17795806 0.34487098 0.14564222
-0.30335417 -0.2658378 0.05144132 0.27441075 0.07962375 -0.24096856 -0.14306155 0.08441943
0.178913 0.032979112 -0.10615745 0.13331646 0.023984676 0.07494405 -0.14100997 -0.07755159
0.0083471285 0.04722607 0.21490295 -0.0145001225 -0.46171394 -0.20631865 0.16083993 0.24289115
0.08418775 -0.394415 -0.29681823 0.139868 0.11394856 -0.056956988 -0.16099614 -0.19156094
-0.04018804 0.14369553 -0.10791447 -0.0658861 0.10920324 -0.022283943 0.1434722 -0.022493254
-0.047189515 0.1542162 0.1259442 0.096809246 0.03899214 -0.23329075 0.001734132 0.016080834
0.36025694 -0.01274759 -0.2593539 -0.18663915 0.10455419 0.20073265 0.05188821 -0.2569754
0.0016906314 -0.112607814 0.1598576 0.008170377 -0.12958556 0.012197644 -0.18549241 -0.08084587
-0.18498857 0.018088534 -0.070807375 -0.36764362 -0.4601366 -0.16338763 -0.06501902 -0.0039842436
-0.046578314 -0.03352041 -0.13166393 0.067039356 0.036633264 0.24459727 0.2810104 0.32662436
0.21218461 -0.097094454 0.0902621 0.17870785 0.11554329 -0.026284857 -0.13322422 -0.043424077
-0.124189146 -0.04912765 0.059938923 -0.026763294 -0.22741234 -0.23470648 -0.052429132 -0.14674157
-0.13845307 0.039637245 0.032434013 0.0437047 0.096192524 0.076713525 0.12667954 0.24437916
0.30506003 0.028510023 0.03925711 0.15777704 0.24235941 0.020527095 0.055191465 -0.12029324
-0.06767271 0.090398595 -0.027425345 0.13972019 0.14977679 -0.32220507 -0.4104505 -0.2874347
-0.08563183 -0.08291804 -0.11629747 -0.213464 -0.12421569 0.09819607 -0.039960828 0.048553437
0.21911076 0.16682906 0.02227895 0.09364674 0.21399839 0.110346936 0.18368691 0.10133654
-0.050414886 0.12150395 0.16567285 -0.02849506 0.1928927 0.02856635 0.08126006 0.1902878
-0.028930204 0.28861266 0.081376426 0.017556382 -0.04728108 -0.11359363 0.25812435 0.1675596
-0.07392487 -0.31965345 -0.11238092 0.19679165 0.11869706 0.10517072 -0.12089428 -0.23559298
0.10099752 -0.14159355 -0.058899585 -0.14083095 -0.25701067 -0.0933407 -0.12259142 -0.05725694

conv1.bias f4 [12]
00000000: 18ed d2bd a442 4e3e 8b2b 09bb 32e3 7abd
00000010: b159 7abd 3447 b0be 4d9b 8ebe 0106 c0bc
00000020: 4347 c1bd bdac aebb 19cf 103d 7863 ad3d
-0.10299128 0.20142609 -0.0020930495 -0.061251827 -0.061120693 -0.34429324 -0.2785286 -0.023440363
-0.0943742 -0.0053306506 0.035353754 0.08466238

bn1.weight f4 [12]
00000000: 6545 083f a873 a13f 9462 683f 8792 ad3f
00000010: 4222 d23f 0007 253f 095a 423f bd8d 6f3f
00000020: 7443 1c3f 51e6 c13f 6ff3 053f f640 f23e
0.5323089 1.261342 0.9077542 1.3560342 1.6416705 0.64463806 0.7591863 0.9357565
0.61040425 1.5148412 0.52324575 0.47315186

bn1.bias f4 [12]
00000000: 6bf0 323e 591a b73d cd8f fabd e601 f53e
00000010: fec5 b63f 3bb9 3d3d 1b66 c5be 34d9 fdbd
00000020: 8e25 013e 3d41 563f cd22 bbbe 3ea2 1bbd
0.17474525 0.08940572 -0.12234459 0.4785301 1.4279172 0.046319228 -0.38554463 -0.12394944
0.12611982 0.83693296 -0.36549988 -0.037996523

bn1.running_mean f4 [12]
00000000: 5e3b 5bbe e05f 373e 9ef5 9abd 5fd1 94bd
00000010: acef 86bd 0352 c8be 978e c6be 7bd9 4d3b
00000020: 4deb 46bd 8b68 dbbc 91c3 9e3d 9e16 773e
-0.21409366 0.17907667 -0.07566379 -0.07266497 -0.065886825 -0.3912507 -0.38780662 0.0031410146
-0.048564244 -0.026783248 0.07752145 0.24129722

bn1.running_var f4 [12]
00000000: 0ff3 8440 fbb5 6940 ac40 8a40 6f19 ad3f
00000010: 7903 973f e160 8f3f 0b1b 0641 06ed 153f
00000020: 3dc6 a53f df14 5b3f 91e8 1241 d4ea 3941
4.1546702 3.6517322 4.3203945 1.3523387 1.1797935 1.120144 8.381602 0.58564794
1.2951123 0.8557872 9.181779 11.619831

conv2.weight f4 [24, 12, 10, 10]
00000000: 047f 17be 3b75 c7bc 06a0 7fbc 932c 3d3d
00000010: 874b 323d 321d 7e3d 36c8 c13d dd78 fb3d
00000020: e3b4 c43d 79f6 1ebd 85bb d5bd e200 f1bc
00000030: 98b5 4b3c 326e 703d bf1d 493d eada a73d
00000040: 805e 183e 2640 073e 66a5 f03d 68cb 263d
00000050: 00e4 a7bd 0dd7 dfbc 1e1b 9ab9 a695 833d
00000060: cd23 f03d c46b c63d 6b84 253e 43d3 123e
00000070: ef75 f23d 37f5 713d 447e 09be 31ee acbd
00000080: 06d1 c1bd 0664 a4bd 50f0 00bd 7d88 223d
00000090: 0d48 8d3d 8d47 b23d 5345 a43c f152 533c
000000a0: 6f53 43be 97eb 15be 0a21 15be 8f22 dfbd
000000b0: b0b7 46bd 8f22 f5bc c8c1 883c 7afd f53c
000000c0: 3321 e93b 1836 aabd df12 13be f77e 8bbd
000000d0: 26cc 983b 451b c83d 069e 173e 05ea 343e
000000e0: aa45 273e b103 b73d 9040 513d 2f03 4abd
000000f0: aebd 2cbe 7c2b 82bd 0ec9 dfbc 7add b8bc
00000100: f75c a03c 05e3 473d 97a7 1b3d 7e08 f93c
00000110: afe2 75bd 2221 abbd 2c72 26be 98a3 2ebe
00000120: 4ae6 94be fa10 afbe 6be1 b6be 1039 b5be
00000130: 135b 96be c0b0 7abe ee06 7cbe df87 21be
00000140: 3028 e3bd fd4c 07be 9f72 4cbe 20cd 27be
00000150: 0ae9 0bbe 7c70 bebd 0460 a0bd 76d9 edbc
00000160: 3140 03bc c5eb d4bc d44a 483d 0197 343d
00000170: dd99 4d3d 771a 933d cbdd 063e a58c 1d3e
00000180: 4444 4e3e eefa 603e 22b2 1b3e 3940 c93d
00000190: cadf ac3d 5c93 56bd 4afd 04bd e33b dfbd
000001a0: 9d24 48be 3526 cabd f463 4a3c f0f1 b43d
000001b0: 0e3d 123e 2d59 7b3c 9219 d43d aac4 893b
000001c0: aaed d53c cad6 513d fae9 af3c 6614 b13c
000001d0: e678 ed3d dc96 d63d aec2 053e 9396 adbc
000001e0: 1527 3c3e 7a30 4c3d bb7f 913d bed4 123e
000001f0: 74c6 0d3e 0d31 563e 865b 2f3e 2ff3 373e
00000200: e51e 613e adfa 8b3b b740 223d 073a 85bc
00000210: 80eb c4bc 02bd 04bd f803 7f3d b69a 293e
00000220: 3ad2 1b3e 66c3 013e fe2c 543e d607 2dbc
00000230: fd69 033d e7b8 71bb 0bf1 10be 2936 13be
00000240: 63d0 8ebd 0e31 253d 5920 823d 4f1f 343d
00000250: 5971 d63d d17d 25bd da23 ce3d 0f3f e53c
00000260: b8d9 84bd 0b51 02be f8e0 bfbd a35e f6bb
00000270: 8f0b 5cbc 26e9 f63a ca33 d13b abfc 45bd
00000280: 846c a53d 8357 ac3d c274 e3bc 18c4 72bd
00000290: 79a1 9abc 93d6 a03c bb7b b4bc 884c 51bc
000002a0: 5cd2 723c a4fc 96bd fa2d 643d c74d ebbb
000002b0: 9360 37be 8686 c6bd 891f 97bd 7a25 e6bc
000002c0: 8a56 79bd e7c0 42bd da01 9f3c b8d6 b1bd
000002d0: 6fab 66bd d053 1abe 1b3b bcbe f407 ccbe
000002e0: 72d7 c6be afa6 8fbe 2b02 57be 0795 13be
000002f0: 00a2 babc 9033 b1bd 67d2 893d 70f6 0dbd
00000300: 1656 50be eb49 88be e728 8dbe 6264 2abe
00000310: 24ae 91bd b7b0 163d c408 d23d 8e77 5e3d
00000320: bd71 ae3d 17f7 393d 966d aa3d 57a4 e93d
00000330: 2f7a e73d d718 793d 06b6 c43d d128 aa3d
00000340: d930 333d cf61 9abc 05f6 4d3d 52d1 113c
00000350: 8aeb 323d de8e c5bc e350 bd3c 5575 583d
00000360: ec6f 6a3d e9ad dcbc 5cdf 60bc b2fd bdbd
00000370: fc8a 46bc 3a2d 4a3d 7394 833c f494 d03b
00000380: 20b0 653c e34d 403c 46dd 03bd fe3d 86bd
00000390: 159e cabd e0d8 53be 695a 7cbd 5737 9abd
000003a0: e313 21bd 8a0c 86bc e79e 81bc 0c11 813d
000003b0: bd41 903d 4d0f b23a 8992 7bbd ef70 53be
000003c0: 9099 90be a527 c1be b069 cdbe bf62 f0be
000003d0: ac83 d7be b68d bbbe 9a4d 9abe 83c0 87be
000003e0: d3b2 96be 72e2 adbe d521 86be 55c4 85be
000003f0: 1cd1 abbe c97d d0be b4fa e1be 64f9 eebe
-0.14794546 -0.024347892 -0.015602117 0.046185087 0.04352906 0.06203956 0.09462015 0.12278912
0.09604814 -0.038809273 -0.10436157 -0.029419366 0.012433432 0.05869884 0.049100634 0.081960514
0.14879799 0.13208064 0.11750297 0.040721327 -0.081977844 -0.027324224 -0.00029393373 0.064250275
0.117255785 0.096885234 0.16163795 0.14338402 0.118389 0.059071746 -0.13427073 -0.08443869
-0.09463696 -0.080268905 -0.03147918 0.039680947 0.06898508 0.087050535 0.020052588 0.012898193
-0.19074796 -0.14640652 -0.14563385 -0.108952634 -0.04851502 -0.029923705 0.016693965 0.030028094
0.0071145534 -0.08311099 -0.14362668 -0.06811326 0.0046630083 0.09770826 0.14806375 0.17667396
0.16335168 0.08936251 0.051086962 -0.049319442 -0.16869232 -0.0635595 -0.02731755 -0.022566546
0.01957558 0.048800487 0.038001623 0.030399557 -0.060030635 -0.08355929 -0.1625449 -0.17054594
-0.29081947 -0.3419264 -0.35718855 -0.35395098 -0.2936636 -0.24481487 -0.24612018 -0.15774487
-0.110916495 -0.13212962 -0.199656 -0.16386843 -0.13663116 -0.092987984 -0.078308135 -0.029034358
-0.00801091 -0.02599133 0.048899487 0.04408932 0.050195564 0.07182782 0.13170545 0.15385683
0.20143229 0.21970722 0.15204671 0.098267026 0.08441122 -0.052386627 -0.032468118 -0.10900094
-0.19545217 -0.09870569 0.012352932 0.088352084 0.14281103 0.015341085 0.1035644 0.0042043524
0.026114304 0.05123023 0.021473873 0.021616172 0.11595325 0.10477993 0.13062546 -0.021189963
0.18374284 0.04985092 0.07104441 0.14338967 0.13845235 0.20917149 0.17124757 0.17963861
0.21984442 0.0042718262 0.039612498 -0.016263021 -0.024038076 -0.032406814 0.062259644 0.16562924
0.15216914 0.12672195 0.20720288 -0.01056095 0.0320835 -0.0036883892 -0.1415445 -0.14376129
-0.0697334 0.040329985 0.06353826 0.04397517 0.10470838 -0.04040319 0.10065432 0.02798417
-0.06486839 -0.12726228 -0.09369081 -0.007518606 -0.01343049 0.0018837794 0.0063843476 -0.048336666
0.08077338 0.08415129 -0.027765635 -0.05926904 -0.018875824 0.019633567 -0.022031656 -0.012774594
0.014820661 -0.07372406 0.05570791 -0.0071809026 -0.17907934 -0.09693627 -0.07379062 -0.028094042
-0.060873546 -0.047547247 0.019410063 -0.086835325 -0.056315836 -0.15071034 -0.36763844 -0.39849818
-0.38836247 -0.28056857 -0.20996921 -0.14412318 -0.022782326 -0.08652413 0.06729584 -0.03465885
-0.20345339 -0.26618895 -0.2757027 -0.16639856 -0.07113293 0.036789622 0.10255578 0.054313235
0.085177876 0.04540166 0.08321683 0.114082985 0.113026015 0.060814705 0.09605031 0.08308566
0.043747757 -0.018845467 0.05028345 0.0089000035 0.04368166 -0.024115976 0.023109859 0.05284627
0.057235643 -0.026938396 -0.013725128 -0.09276904 -0.012118097 0.049359538 0.016061997 0.006365413
0.014019042 0.01173732 -0.032193445 -0.06554793 -0.09893433 -0.206882 -0.06160966 -0.075300865
-0.039325606 -0.016363401 -0.01582284 0.063020796 0.070437886 0.0013584882 -0.061419044 -0.2064855
-0.2824216 -0.3772556 -0.40119696 -0.46950337 -0.42092645 -0.36631554 -0.3013733 -0.26514062
-0.29433307 -0.33961827 -0.26197687 -0.26126352 -0.33557975 -0.40720966 -0.44136584 -0.46674645

conv2.bias f4 [24]
00000000: 55d3 293d fd7b e53d b9a9 593d 2bb9 4b3e
00000010: 821c 4fbd 94b7 34be 1cf2 653d 41fe 1f3c
00000020: 2431 a3bc 54fb cc3c fd05 d1bd f8ed 8abd
00000030: eaf0 e0bd ec8d e5ba 51c9 4bbc 12ef 32bd
00000040: eb46 2fbd b119 ee3d 20d5 91bd ee37 473d
00000050: ede3 cc3d 34cc a23d 812c 873d 8105 9dbd
0.041461308 0.112052895 0.053140376 0.19894855 -0.050564297 -0.17648154 0.056139097 0.009765209
-0.019920893 0.025022186 -0.1020622 -0.0678367 -0.10983451 -0.001751361 -0.012438134 -0.043685026
-0.042792242 0.11625994 -0.071207285 0.048637323 0.10004411 0.07949105 0.06600285 -0.076670654

bn2.weight f4 [24]
00000000: 0de3 6f3f 25a9 443f 4ce4 403f d9aa 643f
00000010: edb3 953f a5c6 413f 5b06 233f 0591 813f
00000020: ac0d 3d3f 7d93 1b3f 1bf8 883f dc06 913f
00000030: db39 963f dfa0 4a3f ccdb 3f3f 4431 403f
00000040: 8b91 6a3f 134c b73f 98ca 5d3f de2f 7c3f
00000050: 36d1 9d3f 3d12 703f 2d31 763f f3d9 4e3f
0.93705827 0.76820594 0.75348353 0.8932319 1.1695534 0.7569373 0.6368157 1.0122381
0.73848987 0.60771924 1.0700716 1.1330218 1.1736406 0.7915172 0.7494476 0.75075173
0.9162833 1.4320091 0.8663726 0.9851054 1.2329471 0.9377783 0.96168786 0.80801314

bn2.bias f4 [24]
00000000: 2d9f 25bf ba14 d4be 714c d4be 5c9d febe
00000010: 86c0 f9be 1a8b 50be 11fc adbe ee48 04bf
00000020: 9a3f abbe a39c bfbe c047 06bf 1d4f 07bf
00000030: 0d29 12bf f4b0 f4be ee3a ecbe 7c3c cabe
00000040: e819 0bbf 1a74 11bf ce17 98be 052d 02bf
00000050: 40e0 13bf a4a5 e8be 983a 1fbf e37b abbe
-0.6469601 -0.41422063 -0.4146457 -0.4972943 -0.48779696 -0.20365563 -0.33981374 -0.5167378
-0.33446962 -0.37424192 -0.5245323 -0.5285509 -0.5709389 -0.47791255 -0.4613871 -0.3949927
-0.54336405 -0.5681778 -0.29705662 -0.50849944 -0.57764053 -0.45438874 -0.6219878 -0.33492956

bn2.running_mean f4 [24]
00000000: cc39 80c1 58ba 1ac1 1b4a 34c1 24be 05c1
00000010: dce9 a9c0 c2c3 b6c1 0ae7 d940 1351 ddc0
00000020: 7ae2 22c1 36b4 13c1 f2a8 13c1 e850 dac0
00000030: bdac 0bc1 19a2 f5c0 b9d1 49c0 e545 8ac1
00000040: b65e 01c1 2b82 0bc1 d237 cfc1 e54d 8dc1
00000050: 4d45 c3c0 60f9 e1c0 4b20 b1c0 54ac 3dc1
-16.028221 -9.670494 -11.268092 -8.358921 -5.3097973 -22.845585 6.809453 -6.9161468
-10.180292 -9.231497 -9.228746 -6.8223763 -8.729672 -7.6760373 -3.1534255 -17.284128
-8.085623 -8.719279 -25.902256 -17.663034 -6.1022096 -7.0616913 -5.535192 -11.854572

bn2.running_var f4 [24]
00000000: 3dee 0e43 737d 0143 664f 1743 5c5f bc42
00000010: aa39 fc42 0963 2043 2b5b a442 02b5 b142
00000020: f71b d342 9865 c842 61f1 0443 4a95 1843
00000030: 0f1a da42 739d f742 f860 b742 567d 3f43
00000040: 0cb3 8442 45af d942 c48e 1443 73f6 5543
00000050: d482 9c42 8a53 2343 9e2b 7542 0fac bc42
142.93062 129.49004 151.31015 94.18625 126.112625 160.38686 82.17806 88.85353
105.55462 100.198425 132.94289 152.58316 109.050896 123.80752 91.68939 191.4896
66.3497 108.84232 148.55768 213.96269 78.25552 163.32632 61.292595 94.33605

conv4.weight f4 [48, 24, 10, 10]
00000000: dd0f c93d d10f 233d 5c50 513d 7970 593e
00000010: 4ad2 7e3e a478 4b3e f408 6e3d 4333 c33d
00000020: 515e af3d e12a c93d 1a96 39bc ac2d 77bd
00000030: b0b2 d9bd 3392 c73d 700d 7a3e 64ec 353e
00000040: 6ddc e63c b7af 06be bbcb 74bd f568 293c
00000050: 71eb 46be 925c 13be 9720 acbe cd07 5dbe
00000060: b5cd 46be e67f 4bbe eef7 a7be 616e 03be
00000070: 3113 45bd 1eb1 01bd fe09 e7bd 28ad 6fbe
00000080: 8a43 b7be 52d7 13be 22ce b6be 33d3 e6be
00000090: e96a 14bf 1316 acbe 152c 0fbe 3353 2cbe
000000a0: bb1b 0abd c596 763d 2263 05bc 2c9a 5b3e
000000b0: 7332 2abd 5d9a a5bd db40 34be 0e5f 403d
000000c0: 04c4 c93c 2a1b 98bd aa82 b53d 25b9 1a3c
000000d0: c3ca 22be d89a 4cbe 5d3e 8abe b306 66be
000000e0: d7c8 36be 7b89 a33d 2600 873e 19a3 3f3e
000000f0: a538 de3d e909 e03d 6fc7 4bbc 8826 573e
00000100: d34e 483d 28ff fabb 9161 80bc 8625 413e
00000110: 3aa7 aa3e bc22 913e 0ed7 bbbe f088 9ebd
00000120: bc42 ddbd c285 e7bd 6878 34be 741a 87be
00000130: 36c1 68be 8488 acbd c7ec 733d a0b8 cdbc
00000140: bd1e dbbd aa3d b0bd d577 d23d 0368 4e3e
00000150: 29bc f33d e9ec 1d3e 6562 be3d b04a 653d
00000160: 2c14 893e 5f88 453e df3c aebe 2823 5bbe
00000170: f34a 4fbd b917 063d 20e9 82bd b999 07be
00000180: 28e1 8bbd 8111 8ebd dfd1 a53d ac66 ac3d
00000190: 3b1a 183e f043 483e db6b 963e 2d75 0dbd
000001a0: 4633 c5bd adc1 42bd 3850 0c3e 1ea8 633e
000001b0: 392f 5f3e 07e3 c93c 7fa7 eb3d 9b80 883e
000001c0: 87e6 483e 72bd f6b9 e729 023d 7011 48bd
000001d0: 7af5 583d d7f1 2b3e 603f 383e 2a80 453c
000001e0: 3e5b c93d e162 5d3e 7f75 c13d fc15 cebd
000001f0: 12d0 50bd 63bd 17be d716 84bd e5c7 193e
00000200: e67a 113e 5064 983d fe1a 3abd 29e9 0e3d
00000210: d823 dc3d 3b3f 5ebe 71e2 adbd cd00 a8be
00000220: 6330 60be 4ef5 6d3d dd09 163e 352f 5cbd
00000230: be63 bebd b819 f9bc a744 38bd c79e 39be
00000240: 1b09 b7bd 5054 89be 6b12 6ebe ea3d 463d
00000250: 7cf9 b53d c7f7 a2bc 8ec5 4abd 8ab1 26be
00000260: ab31 f6bd a68c 4fbe 5670 87bd fb79 a8bd
00000270: 3004 1cbe f294 8a3d 3a88 ff3d 4c30 313d
00000280: 1089 b53d e04d 2cbe 711f 42bd 91af 87be
00000290: 8dee a9bc 6561 0ebe 53e3 45be 0673 c13d
000002a0: ee2c b13d ea41 913d 5f51 613e 9e39 58bb
000002b0: a066 733d 6c7c 3dbe 2a65 3e3c afc5 093d
000002c0: bdce 53bd 7afd 393d 044c 483d 24fb 453e
000002d0: d0a2 3c3e 6660 0e3d 3ab9 003e 2f38 75be
000002e0: 6d0b 19be fd9e c0bc d7f3 86bd ffeb ccbd
000002f0: 795c 95bd f710 4b3e dcb7 0e3e d245 e83d
00000300: 70e2 c83b 5a84 0bbe 30da debd 95b1 003e
00000310: 5a6e 4abc b549 77bd 271d 97bd 447e 3f3e
00000320: c268 173e e242 d2bc 3f01 3ebc bf05 9f3d
00000330: c879 6e3e 6817 723e 644f 3d3e a58f 0c3e
00000340: fd03 14bd 4947 a6bd b955 9e3d 5ee4 78bd
00000350: 715e 50bd acb3 13bc 5c3b a93d 37dd 873e
00000360: 12f8 943e e907 9c3e c178 983d 97f0 d4bc
00000370: ef62 843e acc3 2c3d f384 813d 35cc 8e3c
00000380: 6f87 113e a48a 463e 2cf4 3b3e 9166 213e
00000390: 9262 1b3c 604c 733d 407a a53e fc84 033e
000003a0: 606b 0c3e 7278 403d 20d7 f33d b147 c93d
000003b0: d552 053e c267 ff3d 5fb8 8d3d 835f 8d3d
000003c0: 509e 993d 15d7 4abd 612f dbbc b61e 303d
000003d0: 462a 793c b7c8 983c ab34 7eba a19c 8f3d
000003e0: 5f61 f63d 4ec4 e73d a906 1bbe 0c7d 56be
000003f0: 11b9 bdbd ea66 26be 8756 61be 0770 3fbe
0.09817479 0.039810006 0.051102027 0.21234311 0.24884906 0.1987024 0.058114007 0.09531262
0.08562911 0.098226316 -0.011327291 -0.06034629 -0.10629785 0.09744682 0.24419188 0.17765957
0.02818128 -0.13152967 -0.059764605 0.010339965 -0.19425751 -0.14390782 -0.33618614 -0.21585007
-0.19414409 -0.19873008 -0.32806343 -0.12835075 -0.048114005 -0.031663053 -0.11281203 -0.23405898
-0.35793716 -0.14437607 -0.35704142 -0.45083007 -0.5797563 -0.3361059 -0.1398166 -0.16828613
-0.033717852 0.06020238 -0.008141311 0.2144553 -0.04155202 -0.08086083 -0.17602865 0.04696565
0.0246296 -0.07427056 0.08862813 0.009443556 -0.1589766 -0.19980943 -0.27000704 -0.22463493
-0.17850052 0.07985207 0.263673 0.1871456 0.10850648 0.1093939 -0.012437685 0.21010792
0.048903298 -0.0076598115 -0.015671523 0.1886197 0.3333071 0.28346813 -0.3668751 -0.077409625
-0.10803744 -0.11304809 -0.17624056 -0.2638737 -0.22729954 -0.08424476 0.05955198 -0.02511245
-0.10699222 -0.086055115 0.102767624 0.20156865 0.11901123 0.15422405 0.09296111 0.05597943
0.26773202 0.19290303 -0.34030816 -0.2140013 -0.050608587 0.032737467 -0.06392121 -0.13242234
-0.068300545 -0.06936932 0.0809667 0.084180206 0.14853756 0.19557166 0.29379162 -0.034535576
-0.0962892 -0.047547985 0.13702476 0.222321 0.21795358 0.024644388 0.11506557 0.26660618
0.19619189 -0.00047061924 0.031778242 -0.048844755 0.05296848 0.16791473 0.17992926 0.0120544825
0.09831856 0.2161975 0.09446239 -0.10062787 -0.05097968 -0.14818339 -0.06449669 0.1501766
0.14207038 0.07441008 -0.045435898 0.034890328 0.10749024 -0.21703808 -0.08490456 -0.3281311
-0.21893458 0.05809527 0.146522 -0.053755958 -0.09296368 -0.030407771 -0.044987347 -0.18126975
-0.089372836 -0.26822138 -0.23249213 0.04839889 0.08885476 -0.01989354 -0.04950481 -0.16278663
-0.12021192 -0.20268497 -0.06613223 -0.08226391 -0.15235972 0.0676669 0.12477155 0.04325895
0.08864033 -0.16826582 -0.047393266 -0.26501134 -0.020743633 -0.1390434 -0.19324999 0.09445767
0.08651148 0.0709265 0.22003697 -0.0032993327 0.059424043 -0.18504494 0.011620799 0.03363579
-0.051710833 0.04540775 0.04890062 0.19334084 0.18421483 0.0347599 0.12570658 -0.23947214
-0.14945765 -0.023513312 -0.065894775 -0.1000595 -0.072930284 0.1983069 0.13937324 0.11341442
0.006130509 -0.13624707 -0.1088146 0.12567742 -0.012355411 -0.060373027 -0.07378607 0.1870051
0.14786056 -0.025666658 -0.011596977 0.07764768 0.23288643 0.23641741 0.18487316 0.13726671
-0.036136616 -0.08119065 0.07731194 -0.060764663 -0.050871316 -0.009015005 0.08263275 0.2653596
0.29095513 0.30474785 0.07444907 -0.025993628 0.2585673 0.042178795 0.06324186 0.017431358
0.1421182 0.19388825 0.18354863 0.15761782 0.00948395 0.05939901 0.32319832 0.12843698
0.13712835 0.046989866 0.11906266 0.09828127 0.13019879 0.12470962 0.069199316 0.06902983
0.07500899 -0.049521524 -0.02675599 0.04299804 0.015207833 0.018650396 -0.0009697179 0.070122965
0.12030291 0.11316739 -0.1513926 -0.20946139 -0.09263814 -0.16250196 -0.22005664 -0.18695079

conv4.bias f4 [48]
00000000: 292b d1bc 0612 8e3b d113 1bbc 0c5b b3bc
00000010: 80d4 2bbc 13b2 77bc fd96 e6b9 4f41 93bc
00000020: 9ac9 c73c 6e9f b3bc f062 36bc b6f0 b9bb
00000030: b10b aa3b 87a0 03bc f1e8 9c3b a167 c6bc
00000040: 391a d7bc de42 923c 5f3e 8dbc 3fa3 2e3c
00000050: b1e5 80bc adb1 a33b 4796 9dbc a204 1fbc
00000060: 99c8 283c a04f f33c 16ec 3ebc 2b3c 39bc
00000070: 1daf 8c3c f404 3a3c a5de b9bc 809d ac3b
00000080: d739 bcbb e13b 7a3c 3d9c 36bb 455a 093c
00000090: 3d00 86bc 26d6 c93b 9a1e d0bc d08f b53c
000000a0: b3e4 573c ea50 0fbd ce55 403c 7880 e2bc
000000b0: 9227 133c 1ebe 8cbb 4407 9e3b fd6c babc
-0.025533276 0.0043356447 -0.009465174 -0.021894 -0.010487676 -0.01511814 -0.00043981514 -0.017975478
0.024388123 -0.021926608 -0.011131987 -0.005674447 0.005189382 -0.008033878 0.004788511 -0.024219336
-0.026257621 0.01785415 -0.017241655 0.010659038 -0.015734525 0.004995546 -0.019236697 -0.009705694
0.010301732 0.029701054 -0.011652967 -0.011305849 0.017173344 0.01135372 -0.022689173 0.005267799
-0.0057441997 0.015273065 -0.0027864121 0.008383338 -0.016357535 0.0061595617 -0.025405217 0.022163302
0.013177085 -0.034989275 0.011739207 -0.02764915 0.008981602 -0.0042951247 0.0048226435 -0.022757048

bn4.weight f4 [48]
00000000: df88 6b3f 75c7 6b3f 722a 6b3f 8bea 763f
00000010: 0fda 903f 5c3b 673f 31f7 7e3f b120 763f
00000020: 28af 953f c75b 883f 90c0 843f eaa4 793f
00000030: a3bc 873f 0302 663f d369 7f3f 2b98 5e3f
00000040: 9119 613f 0312 a83f daf1 873f e13c 833f
00000050: 4c87 803f b006 783f 63d3 563f b7f3 793f
00000060: 1ae0 493f c9cc 853f f346 843f 9513 4f3f
00000070: 768c 773f 3cac 773f fd2e 7f3f 6e52 8c3f
00000080: d6ae 663f 73ce 6f3f 92b1 703f 2cc8 6e3f
00000090: 2ce4 6e3f 2cf9 813f 50b7 5a3f db1b 543f
000000a0: ba40 863f 0453 703f d0aa 833f 3d9e 873f
000000b0: d2b7 943f dc4d 553f 3083 493f 31b6 6d3f
0.92005724 0.9210122 0.9186164 0.96451634 1.1316546 0.9032495 0.99595934 0.96143633
1.1694078 1.0653008 1.0371265 0.97517264 1.0604442 0.8984682 0.9977085 0.8695094
0.87929636 1.3130497 1.0620682 1.0252954 1.0041289 0.96885204 0.839163 0.97637504
0.78857577 1.045312 1.0334152 0.80889255 0.966987 0.96747184 0.99681073 1.0962656
0.9011053 0.9367439 0.9402095 0.9327419 0.9331691 1.0154166 0.8543596 0.82855004
1.0488503 0.9387667 1.0286503 1.0595165 1.1618598 0.8332193 0.787158 0.9285613

bn4.bias f4 [48]
00000000: 1fb5 7abe f69c 1cbf d90e c2be a378 ddbe
00000010: ba8e c4be 9e76 afbe 8529 86be 364d d4be
00000020: 6850 c6be bc76 96be fcf6 8abe 5a98 bdbe
00000030: 73ed c2be ca12 c0be c274 c7be 59e8 bcbe
00000040: 6026 86be 878b f6be 3bf4 e6be 52d3 b2be
00000050: ab05 b4be 3578 cbbe db7b 71be feeb acbe
00000060: 09c2 92be e68b e0be 1539 dfbe ee7b aabe
00000070: 20ea 5cbe 99dd b7be 05b8 59be 2c32 a5be
00000080: 14bb a5be 2b78 a9be bfcb b0be e680 d2be
00000090: dc9f bbbe 40b2 d7be c8bc e8be 1377 d1be
000000a0: 4e3c efbe b994 adbe b864 98be 5deb 93be
000000b0: ada1 e1be 329a 76be 2adc adbe 28c5 e4be
-0.24483155 -0.61177003 -0.37901953 -0.432561 -0.38390142 -0.34270185 -0.26203552 -0.41465157
-0.3873322 -0.29387462 -0.2714156 -0.37030298 -0.38071784 -0.37514335 -0.38956267 -0.36896017
-0.26201153 -0.48153326 -0.45108208 -0.3492685 -0.35160574 -0.39740148 -0.23582403 -0.33773798
-0.28663662 -0.43856734 -0.43598238 -0.33297676 -0.21573687 -0.35911253 -0.21261604 -0.3226484
-0.32369292 -0.33099493 -0.34530446 -0.41113967 -0.366454 -0.4212818 -0.4545653 -0.4091116
-0.46725696 -0.3390253 -0.29764342 -0.28890505 -0.4406866 -0.24082258 -0.33957034 -0.44681668

bn4.running_mean f4 [48]
00000000: c534 57c1 7fa0 32c1 e857 35bf d754 fcbf
00000010: 336e a1c0 3baa df40 5cc3 26c1 e401 0cc0
00000020: 84a4 4bc1 2bd4 17c1 fc7e 98c0 9df6 2ac1
00000030: 4882 3cc1 8071 e9c0 2542 19c0 17e7 62c1
00000040: 411d 25c0 d7c0 0cc1 3bf9 e6bf e5ac 05bd
00000050: 8f29 1fc1 6e42 21c1 5dd9 5fc0 ba43 adc0
00000060: 40c2 d6c0 feab 1dc1 d3ef aec0 e4bc fc3e
00000070: c685 efc0 e5fe 3dc1 eb47 2bc0 44b6 92c0
00000080: a256 0ec1 e069 68c1 1f3c 36c0 4b2c 2dc1
00000090: 8790 b1c0 6503 cac0 d27f 40c0 11c6 43c0
000000a0: 88a2 a2c0 7937 e6c0 7f64 1dc0 5f21 1dc0
000000b0: d392 15c1 33dd 7cc0 80c1 0ac0 0b8b 8fbf
-13.450383 -11.164184 -0.7083726 -1.9713391 -5.044702 6.98953 -10.422695 -2.1876154
-12.727665 -9.489299 -4.765501 -10.685208 -11.781807 -7.295105 -2.3946621 -14.181418
-2.5799105 -8.79708 -1.8044809 -0.03263559 -9.947646 -10.078718 -3.4976418 -5.4145174
-6.711212 -9.85449 -5.4667754 0.49362862 -7.48508 -11.87473 -2.6762645 -4.584749
-8.896151 -14.525848 -2.8474195 -10.823314 -5.5488925 -6.3129144 -3.0078015 -3.058964
-5.0823402 -7.1942716 -2.4592588 -2.4551618 -9.348346 -3.951001 -2.1680603 -1.1214308

bn4.running_var f4 [48]
00000000: ed56 7742 d652 5f42 0095 9542 c9cc 9042
00000010: 0089 a342 2dd1 b442 69a8 9242 8fb8 7942
00000020: fef2 d242 c1c8 8a42 1b4f 8242 3f51 9b42
00000030: 05c3 9f42 6c99 8242 e605 5b42 a0a4 b742
00000040: 822e 6a42 e881 9842 15bf 4a42 9456 4242
00000050: a747 a642 423b d142 bc5c 9f42 875c b642
00000060: 2274 9442 28f9 8342 68b7 9542 b3cd 7142
00000070: 566e bb42 073a d242 7838 5f42 c48c b242
00000080: 3e58 7c42 06ec e742 0bc3 4b42 32b2 cf42
00000090: e2b0 8a42 40a8 b342 d773 8042 c757 7a42
000000a0: 2fbf 3a42 a975 7942 5efa ab42 4d19 4a42
000000b0: f51f a742 a82f c242 2060 6742 7028 3b42
61.83489 55.830894 74.791016 72.39997 81.76758 90.40855 73.328926 62.430233
105.474594 69.3921 65.1545 77.65868 79.8809 65.29965 54.75576 91.82153
58.545418 76.25372 50.686604 48.58455 83.139946 104.61574 79.68112 91.18072
74.22682 65.98663 74.858215 60.45088 93.7155 105.113335 55.805145 89.27493
63.086174 115.96098 50.94047 103.84804 69.345474 89.82861 64.22625 62.58572
46.686703 62.364902 85.989 50.524708 83.562416 97.09308 57.843872 46.78949

conv5.weight f4 [48, 48, 5, 5]
00000000: acaa 9fbd 51fc 03be 3421 2dbe 09eb 86be
00000010: 7f43 7abe d821 aebc 198a 7dbd 0cee 01bd
00000020: 0c6a 61be 6ddd 1d3c a99f 4abc 21f1 a43a
00000030: 0b66 f83d 8095 cf3c a097 ff3d 1a66 b03a
00000040: 1712 1aba 3134 0abd c526 813d 160c 353e
00000050: 4fe9 643e 68fa 29bc 52ef 18be cb77 733e
00000060: 8c61 043f db21 86bc 8dc0 0dbd 038e 68bc
00000070: 1171 c1bd 59af 643e 8bc2 3abe f606 253c
00000080: 5c81 bebd 0dc1 5a3c 3517 09be f361 61bd
00000090: 41a4 283d 016d 423c 5fde 2dbd 5f12 a2bd
000000a0: d7ad 043e 00ca 3cbc f7b7 823a 7b2b fd3d
000000b0: e244 86bd 797d 28bd dba9 3a3e 560a 873e
000000c0: 4e44 fc3d bdb5 e03d 4e9a 8ebe 2371 efbd
000000d0: 6dc6 48be 370c cebd b8a9 5fbd 9022 c2be
000000e0: 8c2a 55bd 8bcd d7bd 9f6e 28be 2526 1bbd
000000f0: 5493 04be dd88 88bd 7e4d 50be 47bc 79be
00000100: 17ba 63bd a152 ab3d a6a5 ee3c 5210 63bd
00000110: 537a db3d 86c5 153e 4eb0 68be 70d7 f2bd
00000120: e2a8 90b9 53dc 293e 3649 233e f87d a0be
00000130: 45b2 d3be 2f10 54be b7b2 1abe 6997 f9bd
00000140: 366c f2bd 2eb5 12be a89e 0abe c7b1 4cbd
00000150: 832f 8e3c e843 babc f823 e4bc de88 05be
00000160: 4c4e 95bd 2ffa d3bc c85b 49bd ac94 7ebd
00000170: 542a 49bd e2b6 a53d 5404 e83d 823e 64be
00000180: 95c2 79be a1eb 1abe 841c f8bd 9b84 36be
00000190: 9d33 333d 5dbe a43d dc20 ba3d c53d c03d
000001a0: 7e3e 0bbe e4bc ebbd 85aa 0dbd 27d4 3b3e
000001b0: bdfc 4b3e 5639 923b 1b76 58bc 3478 bf3c
000001c0: 6347 273e 8aab af3e 69da 163e e31e 6bbe
000001d0: 9533 5ebe 70fa ee3d 294b 8f3e 6e69 593e
000001e0: 0be8 94be 2563 eebd 279f 0f3e 910a bc3e
000001f0: 6f2b 3a3e d181 3dbe 3369 91be 5c87 98be
00000200: d53e 3fbe 0cc2 11be df32 19bd c9d2 62be
00000210: 9180 3bbe 2ea8 b5bd d543 03be f1e7 0cbc
00000220: 2aa5 aabc d16a 30be 79f7 473d ef70 95bd
00000230: 49f4 9bbe 5679 a1be 9cbc 4fbe 03c5 1e3e
00000240: def9 aa3d fc17 8dbe ddf9 41be a274 8bbe
00000250: 1748 863c aaf9 3c3d 2168 6ebe 3e89 2cbe
00000260: e709 bc3d 7df5 113d 53c5 a43d 3e7e 19bc
00000270: 78dc 4c3e d391 bd3e 1a50 c03d 61ee 5c3d
00000280: 166f 0abe 9248 fb3d e9f7 fd3d 6599 b7bd
00000290: 6269 c3be c354 fcbd a864 3e3e 5be4 943e
000002a0: 19d6 493d 5df3 ebbc c253 4cbc eca6 5c3e
000002b0: 7ef7 333e 6759 6d3e 0225 c53d 6654 91be
000002c0: 4536 29be 9436 76be db7f 62be 9dbb 4bbe
000002d0: cc4e 77bc 53a5 07be aa7d bebd 2c0b debd
000002e0: 3177 033e 18b7 483e 32f4 e6bc ff15 933d
000002f0: 5ce1 54be 725f b5bd 9ec9 14be 5303 e9bd
00000300: 4ef9 adbd 3a14 83be 2146 fbbd 279a f6bc
00000310: 4ad8 583d 6963 e3bd 08c1 9dbe dd59 4ebc
00000320: c1c9 d03c d162 903e 6585 563e 8444 433d
00000330: 82a3 cfbd c906 0d3c 3339 7e3e 10ea 963e
00000340: d848 cc3d fb5b 25be 253f 1ebe 764c e73c
00000350: f607 923e 8865 913e 0e24 99bd aa0c 083e
00000360: e476 1f3d 835d 983d 11d4 a93e 2a2b dd3d
00000370: 0fa1 203e 5ec1 be3d dd8c 16bc 0a22 143e
00000380: 79a0 1c3e de17 df3d 8688 b6bd 8411 b1bc
00000390: f8e3 153d c8e6 b03d 9b98 1c3e c049 9f3d
000003a0: b30e 91bc 1da0 fe3d 8e25 4b3e cbd0 a0bd
000003b0: 326f 84bd d74a 93be ce1e c6bc 2987 d1bd
000003c0: 81e9 1e3b 670c 6e3d 6041 abbd 2a0d 95bb
000003d0: 21dc 4abe 2d8f 553e 58a5 663e 7e03 c93d
000003e0: 9aed acbd 9273 3bbe 3d95 263e f6ec 3a3e
000003f0: f423 6fbd a13c b03c 9310 27be 0116 e13d
-0.07796225 -0.1288922 -0.16907197 -0.26351193 -0.2443981 -0.021256372 -0.06189928 -0.03172116
-0.2201311 0.009635312 -0.0123671675 0.0012584069 0.12128838 0.025339842 0.12480092 0.0013458163
-0.00058773294 -0.03374118 0.06306223 0.17680392 0.22354625 -0.010374643 -0.14935043 0.23776166
0.51711345 -0.016373565 -0.03460746 -0.0141940145 -0.09445394 0.22332515 -0.18238275 0.01007246
-0.09302017 0.013351691 -0.13387759 -0.055025052 0.04117227 0.011866809 -0.042448398 -0.0791366
0.1295694 -0.01152277 0.0009973039 0.12361809 -0.06556107 -0.041135285 0.18228857 0.26375073
0.123177156 0.10972164 -0.278521 -0.11691501 -0.19606943 -0.100609235 -0.054605216 -0.37916994
-0.05204253 -0.10537251 -0.16448449 -0.037878174 -0.12946826 -0.066667296 -0.20342061 -0.24388228
-0.05559739 0.083653696 0.029131722 -0.055435486 0.10716691 0.1462613 -0.22723505 -0.11857498
-0.00027591648 0.16587953 0.15945897 -0.31346107 -0.41346946 -0.20709299 -0.15107237 -0.12187082
-0.11837046 -0.14326927 -0.13537085 -0.04997423 0.01735664 -0.022737458 -0.027849182 -0.13040492
-0.072903246 -0.025876133 -0.049159795 -0.062153503 -0.049112633 0.08091523 0.113289505 -0.2228947
-0.24390633 -0.15128948 -0.12114814 -0.17824022 0.043750394 0.080441214 0.09088299 0.093867816
-0.13598058 -0.115106374 -0.03458645 0.18342648 0.19920631 0.0044624014 -0.013211752 0.023372747
0.16335826 0.3431056 0.14731754 -0.22961001 -0.21699364 0.11668861 0.2798703 0.21231624
-0.29083285 -0.11640004 0.14025556 0.36726812 0.18180631 -0.18506552 -0.28400573 -0.2979077
-0.18676312 -0.1423418 -0.03740203 -0.2215072 -0.18310763 -0.08869968 -0.12818845 -0.008600221
-0.02083071 -0.17228247 0.048819993 -0.07296931 -0.30459812 -0.31537884 -0.20286793 0.15504842
0.0834844 -0.2755736 -0.18942972 -0.2723742 0.016391797 0.046136536 -0.2328191 -0.16849229
0.09181576 0.035634506 0.08045449 -0.009368477 0.20005977 0.37025318 0.09390278 0.053938273
-0.13518938 0.12269701 0.12400801 -0.089648046 -0.38166338 -0.123208545 0.18593085 0.2908047
0.049276445 -0.028802568 -0.012471141 0.2154805 0.1757488 0.23178636 0.09626199 -0.28384703
-0.16524608 -0.24044257 -0.22119085 -0.19895788 -0.01509447 -0.1324666 -0.09301312 -0.108419746
0.12838437 0.19601095 -0.028192613 0.0718193 -0.20789093 -0.088560954 -0.14530036 -0.11377587
-0.08494817 -0.2560137 -0.122692354 -0.030102802 0.052940644 -0.11102945 -0.30811334 -0.012594667
0.025486829 0.2820039 0.20949323 0.047672763 -0.101386085 0.008607575 0.24826507 0.2947545
0.09974831 -0.16148369 -0.15453775 0.028234702 0.285217 0.28397775 -0.0747758 0.13286081
0.038931742 0.07439711 0.33169606 0.107992485 0.15686439 0.093142256 -0.009188858 0.1446611
0.1529559 0.10893224 -0.089127585 -0.021614797 0.03659436 0.08637768 0.1529259 0.077777386
-0.017707204 0.12432883 0.19838545 -0.07852324 -0.06466521 -0.28768036 -0.02418461 -0.10230858
0.0024248066 0.058117297 -0.08362079 -0.0045486884 -0.19810535 0.20855398 0.22524011 0.09815119
-0.084437564 -0.18305805 0.16267867 0.18254456 -0.058383897 0.021513285 -0.16314916 0.10990525

conv5.bias f4 [48]
00000000: db29 94bd 0352 033c 80e3 453d ce1d 203d
00000010: 3105 18bd 4265 54bc b0ca ebbc 2670 8cbd
00000020: c4f8 f23c 33ec 373c 2207 a4bc 4956 a43b
00000030: 6782 17bc 4aae 523d c673 34bc 1bd4 303d
00000040: 6b4f b3b9 5dd6 80bc 83d9 843b 0ec2 00bd
00000050: 7430 d43b 6f7d 7ebc 0d41 49ba 8cc0 263c
00000060: b3a1 b63b 7e76 02bc fec4 4dbc 879f 15bd
00000070: 4154 013c 1208 cdbc b7ed 803b 4015 abba
00000080: 6875 083c 66cc 343d 3fab 713d ef8a 683b
00000090: 4f59 0b3d 7e8d 683d 8ecc d4bc 7217 0c3d
000000a0: 50a2 53bc 25a1 8dbc 5d77 81bc d942 c23b
000000b0: ac89 43bc 8a29 bdbc 2648 1b3c d9bf 813d
-0.07234546 0.008015159 0.048312664 0.039090924 -0.037114326 -0.012963595 -0.028783172 -0.06857328
0.029659636 0.011225748 -0.020022932 0.005015169 -0.009247399 0.051435746 -0.011013931 0.04317103
-0.00034200712 -0.015727216 0.0040542497 -0.031435065 0.0064755026 -0.015532835 -0.0007677235 0.010177743
0.0055734753 -0.007962821 -0.012559174 -0.03652909 0.007893623 -0.025028262 0.003934588 -0.0013052598
0.008328773 0.044140242 0.059001204 0.0035483202 0.03402072 0.056775562 -0.025976446 0.034202047
-0.012917116 -0.017288754 -0.015803987 0.005928379 -0.011934679 -0.023091096 0.009477651 0.0633542

bn5.weight f4 [48]
00000000: 22af 353f c2e2 3c3f c8c0 3e3f ec20 553f
00000010: 49e3 453f b8d5 5e3f d037 483f 4ac8 3d3f
00000020: 9862 443f 9db2 363f c1a8 513f 2c55 4a3f
00000030: dff8 533f 0236 613f 428e 4e3f 4bed 3f3f
00000040: a0d7 523f d8be 293f 5355 303f 56e7 543f
00000050: 394c 4c3f a1d1 583f 987e 413f 2cd5 333f
00000060: 93e8 463f 648c 363f 5dd3 303f fd35 373f
00000070: 35dd 403f 30f8 6b3f f7e2 383f bc9c 443f
00000080: 3fd9 4b3f 617e 403f e5e1 723f 5656 593f
00000090: a75d 533f 3843 693f 8420 4e3f 226f 553f
000000a0: dcb1 323f d47e 303f 6681 553f 2a5b 563f
000000b0: c962 4e3f 03ea 533f e822 2e3f 4306 363f
0.70970356 0.73783505 0.7451291 0.8325336 0.77299935 0.8704486 0.78210163 0.7413374
0.7671294 0.7136629 0.81898123 0.7903621 0.8280162 0.87973034 0.8068582 0.74971455
0.8236027 0.6630683 0.68880194 0.8316549 0.79803807 0.8469487 0.7558379 0.7024715
0.7769863 0.7130797 0.69072515 0.71566755 0.75337535 0.9217558 0.7222132 0.7680166
0.79628366 0.7519284 0.9487594 0.84897363 0.8256478 0.9111819 0.80518365 0.833727
0.6980264 0.68943524 0.8340057 0.83732855 0.80619484 0.8277895 0.6802201 0.71103305

bn5.bias f4 [48]
00000000: 1937 a4be 446d b6be bd91 43be eaa9 a6be
00000010: 9758 afbe 59e2 c5be 0077 aebe 29a4 e4be
00000020: ac1a 9fbe 2c85 77be 1119 b7be c9d1 92be
00000030: efb6 a3be 4e39 3cbe 61b2 aabe 7682 bdbe
00000040: c9ef b9be 6bb7 adbe 590a a1be 15e9 6abe
00000050: f897 95be 0bc3 b4be 4151 74be 569f aebe
00000060: 05ae e8be fe15 bdbe de56 b8be 766f 9dbe
00000070: 236d afbe f8b5 a2be 6e1a f8be 3990 b4be
00000080: 4af0 a1be b759 83be 1887 a6be 837d 35be
00000090: 496e 91be 60ac 70be fe14 80be 140d afbe
000000a0: f51f a0be 2a5d a4be 9385 48be c4c8 86be
000000b0: 5c99 85be 7b5d bebe 5375 a8be f6fc 7bbe
-0.32073286 -0.35630238 -0.19098563 -0.3255151 -0.34247276 -0.38649252 -0.34075165 -0.44656494
-0.31075037 -0.24171895 -0.35761312 -0.28675678 -0.31975505 -0.18381235 -0.33339217 -0.37013596
-0.36315754 -0.33929 -0.31453207 -0.22940476 -0.29217505 -0.35305056 -0.23859121 -0.3410594
-0.45445266 -0.3693084 -0.36003774 -0.307491 -0.34262952 -0.31779456 -0.48457664 -0.35266283
-0.31628639 -0.25654384 -0.32524943 -0.1772366 -0.28404453 -0.23503256 -0.25016016 -0.34189665
-0.3127438 -0.3210233 -0.19582205 -0.26325047 -0.26093566 -0.37180695 -0.3290201 -0.24608216

bn5.running_mean f4 [48]
00000000: 393e 9e3e c77b 1dc0 0e36 f33e 90e7 99c0
00000010: 47a2 41c0 3947 7ec0 da5a 47c0 b35d 7abf
00000020: e55e bfbf d37c a2bf 9f6a 70c0 e319 16c0
00000030: 89cf 35c0 7d8f 96c0 4b3a 2cc0 8356 e2bf
00000040: ecec 6ac0 fbfb 71c0 0819 a0be 50c8 90c0
00000050: 4cc9 0fc0 e866 22c0 e384 083f c2b2 333e
00000060: 55fc cdbf e47f 14c0 e55d 84c0 2422 28c0
00000070: dada 52c0 9c8d 8cc0 30d5 eabf 839b 54c0
00000080: 2105 70c0 71c5 4bbe fe40 76c0 dc43 20c0
00000090: 69cf 1bc0 531f 8dc0 3d99 59c0 1cec 91c0
000000a0: 8855 f7bf 563d a9bf de77 89c0 ac71 3ec0
000000b0: c670 15c0 a8ff 05c0 00e6 c83f 847c 7ac0
0.30906847 -2.4606798 0.47502178 -4.809517 -3.0255296 -3.973097 -3.1149201 -0.97799224
-1.4950835 -1.2694343 -3.7565076 -2.34533 -2.840792 -4.7050157 -2.691058 -1.7682651
-3.6707106 -3.7810047 -0.31269097 -4.524452 -2.2466612 -2.537531 0.5332777 0.1754866
-1.6092631 -2.3203058 -4.1364617 -2.6270838 -3.2946076 -4.3922863 -1.834631 -3.3219917
-3.750313 -0.19899537 -3.8477168 -2.5041418 -2.4345343 -4.4100738 -3.399978 -4.560072
-1.9322977 -1.3221843 -4.295882 -2.975688 -2.3350081 -2.093729 1.569519 -3.9138498

bn5.running_var f4 [48]
00000000: 3fad 3741 ccfa 3341 b947 3341 9c2c 3141
00000010: 0e5c 4041 59f0 1a41 3953 2b41 4203 1741
00000020: 9973 0741 adfe 5241 d26f 3741 ece3 1841
00000030: 830b 4141 beaa 7341 0634 2f41 bbff 2941
00000040: 163e 3341 3145 2641 0ac4 2741 4f9a 3541
00000050: e384 1341 ebfa 0f41 5251 0c41 ce06 2341
00000060: 13c9 3f41 3547 1f41 862d 2241 09f5 0c41
00000070: 8336 2041 b051 5f41 fd31 0441 240d 2041
00000080: 3bea 5541 d769 3e41 15b8 5d41 421a 2641
00000090: e798 4941 0fd4 3b41 0188 3c41 db65 3c41
000000a0: 5532 0941 af0b 3241 2643 6641 61c7 1b41
000000b0: 72c9 2241 8e1a 3441 4d80 1b41 3de9 4641
11.479796 11.24873 11.20501 11.073391 12.022474 9.683679 10.707818 9.438295
8.465722 13.187177 11.4648 9.555645 12.0653105 15.229185 10.950201 10.624934
11.202658 10.391892 10.485361 11.350173 9.219943 8.998759 8.769854 10.189161
11.98659 9.954885 10.136114 8.809823 10.013309 13.957443 8.262204 10.003208
13.369685 11.90084 13.857442 10.381411 12.59983 11.739272 11.783204 11.774867
8.574788 11.127852 14.391394 9.7361765 10.174181 11.256483 9.718823 12.431943

fc1.weight f4 [10, 432]
00000000: dc9b f43d f4b6 fd3d bc2b 943d af26 48bd
00000010: ac15 1e3e d192 d8bd 5511 8ebd d58b 51be
00000020: 2bdb c23e 7b6f 883b cd5b 513e fe91 53bd
00000030: 15f7 2dbe 2e5c e5bd a91d 393e 4819 6fbe
00000040: 72a0 2fbc 8154 933d 6c62 013e b354 9c3d
00000050: e1e0 3b3e 02a2 953e a8dd fdbc 4932 b7bd
00000060: 0fad 83be a35c d93d d99d 81be 7642 083b
00000070: 4991 89be 124c 49be 36f4 17be 67d7 8abe
00000080: 37d4 0ebf c9e8 06be 887a db3d fbdd f3bd
00000090: 0a31 b2bd a58f f33d 6021 f2bc 6634 42be
000000a0: 1eb3 423e 146b f5be 6822 a7be af9a 0c3e
000000b0: 5308 06be 486a b8be 5a79 cdbe a251 f5be
000000c0: cd44 ffbd e134 1d3e 3b1d 19bd fa41 9d3d
000000d0: b04c 253e 0c9f 473e f865 36be e957 e63c
000000e0: 38aa 0b3e 22b1 2abe cad3 83be 778d 233d
000000f0: f65e 70be 2375 8dbe 29b1 3abe 1a2a 34be
00000100: 8d68 cabd 1ad9 4d3d b181 2b3d 01c1 473c
00000110: 7ea0 783d dca1 47be d4c6 09bd 0df4 55bc
00000120: 95f2 95bd f574 47be 085b 033d 8174 323e
00000130: 54f2 0bbd 5c59 f43d 4661 0e3e 2744 393d
00000140: 58b7 e6bd 303d d2bd f301 16bd 1047 2b3e
00000150: 042e 623e e765 bcbd 6191 76be 2bdf 87be
00000160: cf8b 5abe 4a93 9abb eefe adbd 0c89 acbe
00000170: 4810 b0be 9d7b 2ebe 46d8 653d d8e1 173d
00000180: 8d6b 95be d101 cfbe e39d 9dbd d5d3 193e
00000190: c9c0 aebe f7bd f3bd b67d b2bd e981 88bc
000001a0: 3f96 00be f563 e2bd f0ed 453e aead b5bd
000001b0: 3c58 38be 163f c0bd 054e 78be 5746 313e
000001c0: 7a5b a43c 2c7f 7abe cce3 94ba b5fb 093e
000001d0: f892 b33d 80cc 893d a5a5 f1bc 1d41 673c
000001e0: 622c 25be 3f87 2abe c96d eebc b6ef 7dbe
000001f0: 88e9 81be 4955 1ebe 0e0c 52be 4007 583d
00000200: 1ccb 173e e58d 323d 4684 553e 3fca a03d
00000210: 171f 4b3e 6160 033c 2fe1 0b3d 85f6 12bd
00000220: 982d ff3d 452a 0ebd 3004 acbd 1534 5dbe
00000230: 6771 cdbe 02af c1bd 513a 67bc 4874 c4bd
00000240: 629b 2b3c 79fd 44be 0ce1 adbe 4b1c 60be
00000250: 3cf4 82be 0665 f2bd 8035 9dbe 1712 8abd
00000260: 4f06 02be 325d cabe f096 32be 7118 9bbe
00000270: 43fb 313d ecb7 463e 3e7c 103c facf 9b3d
00000280: 60b6 b2b5 0791 6dbd 359d 1e3e 1076 1f3d
00000290: 1cb1 663d 8eb1 a3bd f29b 123d f37b 8a3d
000002a0: 380a a6bd 3503 923e f798 0e3e cf7f 9f3d
000002b0: bf08 173d 0a03 0bbc 3b16 aabd 9d3f d23d
000002c0: db4a 9b3d 67fb 60bd 5772 efbd 6e23 4d3d
000002d0: 2a9b b7bc 0534 083e 958a 243e 358f 7a3c
000002e0: 32bc 5c3e 56c0 bebe 6665 2fbe 5a22 113e
000002f0: bbdf cfbe b055 b6be e93b 49be c728 55bd
00000300: 1d55 adbe aa20 5ebe 96f7 cc3c 51f1 54bc
00000310: 443f 3abd 5afe 2e3e 9ffe c2bd 25c7 e23d
00000320: 37f5 ca3d 352d d7bd b31f 19be 0c81 dfbd
00000330: ca6e 51bd 4d35 1b3e 8f8f b53c f937 18be
00000340: 355d bb3c da3c 85be 8f46 4d3d 8e5e cb3d
00000350: 3c5c 563d 464e 54be 3b5b e5bc 2e3c 4ebd
00000360: 6ac6 47bd 3ff5 b83b 2b75 0e3e f294 e33d
00000370: 63ae 2cbe 885e d339 8975 1dbd 666c 573d
00000380: b5f7 0abf 86e8 dd3c 89c2 b43c a1e2 c23d
00000390: 8e13 6fbe 50b2 d6bd bf1e b23d 788b c7bd
000003a0: 506e 5cbe 5c34 f93d 57b2 de3c 3210 01be
000003b0: d7f9 b73d faa0 453c 4be7 993d 04d5 263c
000003c0: cc37 d8bd 3949 0ebd 55b6 8bbe 2f3c 813c
000003d0: 8a66 583d 4d12 f3bd c8f8 4f3e a177 413d
000003e0: c195 f73c fecb 2f3c cea0 3d3b dd03 563e
000003f0: b51b 75be ba63 fcbd ca78 10be 3efc 8bbe
0.1194379 0.12388411 0.07234904 -0.048865017 0.15437955 -0.10574878 -0.069368996 -0.20463498
0.38057837 0.00416368 0.20445175 -0.0516529 -0.16988786 -0.111992225 0.1807772 -0.23349488
-0.0107194055 0.07193852 0.12635201 0.076333426 0.18347503 0.29225165 -0.030989483 -0.08945138
-0.2571797 0.10613372 -0.2531574 0.0020791567 -0.26868656 -0.19657925 -0.14839253 -0.27117464
-0.55792564 -0.13174738 0.1071673 -0.11907574 -0.0870076 0.118926324 -0.02955693 -0.18965301
0.1901364 -0.47933257 -0.32643437 0.13730882 -0.13089113 -0.36018586 -0.40131646 -0.47913843
-0.124642946 0.15352203 -0.037381392 0.076786 0.16142535 0.19494265 -0.17812335 0.02811809
0.13639152 -0.16669133 -0.2574752 0.039929833 -0.23473725 -0.2762843 -0.18231644 -0.17594185
-0.09883223 0.050255872 0.04187173 0.012192012 0.060699932 -0.19495338 -0.033636883 -0.0130586745
-0.073216595 -0.1947821 0.032069236 0.17427255 -0.03416665 0.119311064 0.13904294 0.04523101
-0.11265439 -0.10265577 -0.036622953 0.16726327 0.22087866 -0.09199124 -0.24078895 -0.2653745
-0.21342395 -0.0047172653 -0.084958896 -0.33698308 -0.34387422 -0.17039342 0.056114458 0.037080616
-0.29183617 -0.40431073 -0.0769613 0.15022214 -0.34131458 -0.11901467 -0.08715384 -0.016663508
-0.12557314 -0.110542215 0.19329047 -0.088710174 -0.18002409 -0.09387033 -0.24248512 0.17311989
0.02006315 -0.24462575 -0.0011359393 0.13474925 0.087682664 0.067284584 -0.02949793 0.014114645
-0.16130212 -0.16653155 -0.029105084 -0.24798474 -0.25373483 -0.15462221 -0.20512411 0.05274129
0.14823574 0.043592352 0.2085124 0.078510754 0.19836079 0.008018584 0.0341503 -0.03587963
0.12459868 -0.03470828 -0.08399236 -0.21601899 -0.40125582 -0.09457208 -0.014113025 -0.095924914
0.010474058 -0.19237317 -0.3396076 -0.21885793 -0.2557696 -0.11835675 -0.3070488 -0.067417316
-0.12697719 -0.39524227 -0.1744039 -0.30292085 0.043452512 0.19406098 0.008818684 0.07608028
-1.3315112e-06 -0.057999637 0.15489657 0.038930953 0.05632125 -0.0799285 0.035793252 0.06761923
-0.08107418 0.28518072 0.13925539 0.077880494 0.036873575 -0.008484611 -0.083050214 0.102660395
0.07582637 -0.054927256 -0.116917305 0.050082617 -0.022412855 0.13301094 0.1606849 0.015292932
0.21556166 -0.37256116 -0.17128524 0.1417326 -0.4060038 -0.3561225 -0.1965176 -0.05204084
-0.33854 -0.21692148 0.025020402 -0.012996987 -0.04547049 0.17089215 -0.09521221 0.1107314
0.09910052 -0.105066694 -0.14953499 -0.109132856 -0.051131047 0.15157051 0.02216318 -0.14865102
0.022871593 -0.2602299 0.050116118 0.09930144 0.052334055 -0.20732984 -0.027997604 -0.05035036
-0.048773207 0.00564447 0.13911884 0.111123934 -0.16863398 0.00040315487 -0.03844217 0.05259361
-0.5428422 0.027088415 0.022065418 0.09515882 -0.23347303 -0.10483229 0.086972706 -0.097433984
-0.21526456 0.1216819 0.027184648 -0.12603834 0.089832 0.012062306 0.07514819 0.010182623
-0.105575174 -0.0347378 -0.27287546 0.015775768 0.052832164 -0.11868725 0.20309746 0.047233228
0.030222775 0.010729788 0.0028934958 0.20899911 -0.2393635 -0.12323709 -0.14108577 -0.27340883

fc1.bias f4 [10]
00000000: e60a 6b3d 5e6a 7bbd c580 8f3c 7464 723d
00000010: ec09 00bd 7ec0 223d 3654 b8bb c767 35bd
00000020: b208 dabc a5a9 60bb
0.05738344 -0.061380737 0.017517457 0.05917783 -0.031259462 0.039734356 -0.005625273 -0.044288423
-0.026615474 -0.0034280804
