bootcamp_nets.pth (torch, 250887 bytes, 10 tensors)

conv1.weight f4 [6, 3, 5, 5]
00000000: b8b0 eb3e 84de 9f3d 8b49 44be 6d0a e2bd
00000010: 27ad d03d 94c8 04bf 8622 74bf bcb9 93bf
00000020: 99e9 61bf 49cc bebe 3075 5fbf 6161 6bbf
00000030: 2aed 6bbf 967e 07bf fe36 bebe 7356 44be
00000040: 514a 46be a417 9f3d a2ac ac3d 7e5a 8f3e
00000050: 853e 1b3e 4c70 093e be2d 0a3e 49c3 433e
00000060: 5270 b03e 2152 d63e 58bb 913e 3016 e53d
00000070: f673 d23d 1e07 5e3e ed95 9fbe 3bb7 28bf
00000080: 5c9c 36bf ec7c 9fbe a10e 49be d98c 29bf
00000090: c8a5 f0be 1387 d4be bef8 68be c89a b1bd
000000a0: ed4a 82be 0003 993a ef9f 403e ea4d 273e
000000b0: bb14 0e3e 68f9 993b d374 6a3d b0fa 6b3c
000000c0: ad04 19bd 8c7f 26be aa81 0f3f 5d34 173f
000000d0: 59f3 063f 81c3 b13e 8dfa 233f 8d16 b53d
000000e0: 50a3 17be cf06 a0be 20d0 41bd 64c2 da3d
000000f0: 7955 9cbc 4898 33bc 7b0a e43d 6819 a83e
00000100: 7998 083e b087 ea3e 8716 373f 59b6 213f
00000110: d704 243f 2758 c33e f459 103f 8291 3c3f
00000120: c2de 3b3f 44fd 953e 381e 953e 918b b7bd
00000130: 6ba6 8abe 8fa3 47bc 6406 8b3d 6b53 5b3e
00000140: 9758 8cbe 0432 f3be 57a4 03bd 297a d8bc
00000150: e611 87bb 3481 92be 67e4 71be 79a5 5ebe
00000160: bd24 30bd 395c 303e a21b bbbe 1303 adbe
00000170: a0ab aebe 475b 86be 25e4 213e ebfc db3e
00000180: ce88 bebc d6f2 8abe 022a 1abe a48e a93c
00000190: a4fd fa3e b1c4 b33d 2b85 583e db74 103d
000001a0: ebcf 61be 3e27 883d 1784 fabc 0e73 f03d
000001b0: d7c6 7f3d 633f 07be 5a61 a23d dc0b 203e
000001c0: b339 c03e ca88 173e 0f97 103d 2e13 56bd
000001d0: 5ed5 bebc 21d2 5a3e 9ef8 613e 61d2 813e
000001e0: 0203 633e e7c1 fa3c 37b5 35bd 0405 22be
000001f0: 4652 2abe b1e4 02be 81ab 053e 827a c03e
00000200: 1999 073e 9561 92bd ab27 6bbe b3b4 a33d
00000210: 84ba eb3e ada3 923e 5342 36bc 16eb 38be
00000220: 701b c83e 6fcc 113f 74ab c33e 33ec 8b3e
00000230: cf14 43be 18b5 9b3e c301 133f 7458 e13e
00000240: 2d9c c43e 90d3 043e 93c6 8d3e e0da a03d
00000250: 5904 223e 566f cabd 4fd2 913e 6a4f edbe
00000260: 9efb 1fbf 3980 9fbe ad3b 783e e0d3 8cbe
00000270: cf04 6dbf 6a83 8ebf a0f3 7dbf cdf0 b6be
00000280: 0dd9 b63d 7d31 723f 3f82 853f d134 1e3f
00000290: 79ce 5dbe 8c37 26bc ae3f 523f 24ec 9c3f
000002a0: 08bb 6e3f a814 313e fa3b 47be 8baf bfbe
000002b0: e1e3 01bf 00ad afbe 8e9a 9abc 1834 473e
000002c0: 395b a9be 38a8 bbbe 37e1 4cbe 485e a33e
000002d0: c109 f4bd d65d 58bf 1d64 95bf 7ba4 5cbf
000002e0: 0948 40be d94d 503e bc9b 633f 7451 7f3f
000002f0: 2d1d 323f 4296 cebd 1b3b c23c 349f 5f3f
00000300: 3d5d 863f b84c 553f 4aba 313e 9ce4 0cbe
00000310: f599 03bf e09e 0abf aea0 8ebe cdd8 c53d
00000320: 67b3 493e 719d 5cbe c005 0abf 4edc 66be
00000330: 08fa 583e e520 a4be e9f0 87bf 0da4 a3bf
00000340: f34e 6bbf 8c2b 99be f97b 433b 7cd1 3a3f
00000350: 7a86 413f 9d93 153f a01e 5e3d 2074 9d3d
00000360: 4dde 3e3f 5151 5e3f 9ce8 1d3f 7d6f 893d
00000370: df11 9b3d 400a 93be 01cf 0ebf e107 24be
00000380: ea70 533e 3fd5 fd3e 15d9 a43e 6411 663e
00000390: 60e1 453e 1134 283d 2d4b 1e3e 8433 8abe
000003a0: e414 473e be86 223f 0239 913e 824f aa3d
000003b0: 35cd 73bf d3b7 c33e 2ffc 7d3f 63e6 183f
000003c0: fe5e 1f3c 5a9d 8abf 8643 c83e 3d74 803f
000003d0: c21e de3e 3844 293e 99bf 03bf 02fa 6b3d
000003e0: 18d2 043f 737b cb3d 5a77 0abe f582 3dbf
000003f0: 3e30 22bf a2f6 95be 57fa f4be d6af 63be
0.46033263 0.07806113 -0.1916868 -0.11037145 0.10189276 -0.5186856 -0.9536518 -1.1541057
-0.88247067 -0.37265232 -0.8728819 -0.91945463 -0.9215876 -0.5292753 -0.3715133 -0.19173603
-0.19364287 0.07768181 0.084313646 0.27998728 0.15160568 0.13421744 0.13494012 0.19117464
0.34460694 0.41859534 0.28463244 0.111858726 0.10276024 0.21682402 -0.31169072 -0.6590459
-0.71332335 -0.31149995 -0.19634487 -0.6623054 -0.4700148 -0.41509303 -0.22751138 -0.086721
-0.2544779 0.0011673868 0.1881101 0.16338316 0.13875096 0.004698921 0.05724032 0.01440303
-0.037357975 -0.16259593 0.56057227 0.59064275 0.5271507 0.3471947 0.64054185 0.08842192
-0.14808393 -0.31255195 -0.047317624 0.10681608 -0.019083725 -0.0109616 0.111348115 0.32831883
0.13339414 0.45806646 0.7151875 0.63168865 0.64069885 0.38153192 0.5638726 0.7365953
0.73386776 0.2929479 0.29124618 -0.08962167 -0.27080092 -0.0121849915 0.06788328 0.2141854
-0.2741134 -0.47499096 -0.03213915 -0.026425438 -0.0041220067 -0.286142 -0.23622285 -0.2174281
-0.043003786 0.1722268 -0.3654452 -0.33791408 -0.34115314 -0.26241514 0.15809686 0.429664
-0.023258593 -0.27138394 -0.15055087 0.0206979 0.49021637 0.0877775 0.2114455 0.035267692
-0.2205197 0.0664811 -0.030580563 0.11740695 0.062445488 -0.13207774 0.079287246 0.15629524
0.3754402 0.14798275 0.03530031 -0.052264385 -0.0232951 0.2136922 0.22067496 0.2535582
0.22169116 0.030610038 -0.044362273 -0.15822226 -0.16632947 -0.12782551 0.13053705 0.37593466
0.13241996 -0.071475185 -0.22964351 0.0799345 0.46040738 0.286405 -0.011124211 -0.18058428
0.39083433 0.56952566 0.38216746 0.27328643 -0.19050907 0.304116 0.57424563 0.44012797
0.38400403 0.1297133 0.27690563 0.07854247 0.15821971 -0.09884517 0.28480765 -0.4634965
-0.6249331 -0.31152514 0.24241515 -0.27505398 -0.9258546 -1.1133854 -0.9919987 -0.3573059
0.08928118 0.94606763 1.0430373 0.6179934 -0.21660794 -0.010145079 0.8212842 1.2259564
0.9325414 0.17293036 -0.19456473 -0.37438616 -0.5073834 -0.34311676 -0.018872526 0.19453466
-0.3307741 -0.36651778 -0.20007788 0.31907868 -0.11915923 -0.8451818 -1.1671177 -0.8618848
-0.18777479 0.20342197 0.88909507 0.9973366 0.6957577 -0.10087253 0.023709824 0.873523
1.0497204 0.8332019 0.1735622 -0.13759083 -0.51406795 -0.54148674 -0.27856964 0.09660492
0.19697343 -0.21544434 -0.53915024 -0.22544977 0.2118913 -0.32056347 -1.0620395 -1.2784439
-0.9191734 -0.29916036 0.0029828532 0.729759 0.7559582 0.58428365 0.054228425 0.07688165
0.74557954 0.8684283 0.6168306 0.06710718 0.07571768 -0.28718758 -0.5578461 -0.1601863
0.20648542 0.49576756 0.3219687 0.22467571 0.19324255 0.04106528 0.15458365 -0.26992428
0.19441563 0.6348685 0.28363806 0.08315946 -0.95234996 0.38226184 0.99212927 0.5972654
0.009727238 -1.082927 0.39114016 1.0035473 0.4338284 0.1652993 -0.5146423 0.057611473
0.5188308 0.099356554 -0.13522092 -0.7402795 -0.6335486 -0.29289728 -0.47847244 -0.22235045

conv1.bias f4 [6]
00000000: 08cd c43e 696f 09bf d852 1fbd 1281 493e
00000010: 52f5 403f 5aab f1be
0.38437676 -0.53685623 -0.038897365 0.19678143 0.7537433 -0.47201043

conv2.weight f4 [16, 6, 5, 5]
00000000: 0b1f 13be b7f9 37be 99ab f63d 0161 af3d
00000010: 42ec 20bd 3e56 60bb 5d8d f03d 5517 633e
00000020: d47a da3d 0f80 a7bc 89a0 c9bd b6bc ecbd
00000030: 7dab 973e f408 a13e 36a5 853b 52b4 0dbe
00000040: 559c 48be f9ae 39bd bff9 82be 2794 a8bc
00000050: 274d a8bd af3d e33e 604a f13e b6d3 1e3f
00000060: f05c c83e e39e 853e fa3c b83d 4bf1 5d3d
00000070: 45f1 8a3d 9779 be3d 4679 8d3d fe45 bc3c
00000080: edc6 96bc 4169 bcba 27e5 13be 5b3e 693e
00000090: 9bc3 57bc 9e0b a3bd d737 743d 5105 d0bd
000000a0: daa4 943d bd9a d5bd 4e28 613d 22ad 51be
000000b0: 7be3 a1be 2670 1abf 6f3c 0bbf 3a0b 09bf
000000c0: 5c70 00bf e2c6 99be 7464 d5bc c3a5 84be
000000d0: 54c3 7a3c c72f 903c 3122 913b c2bf 593e
000000e0: 5d48 373d 1ef6 44be 2928 83bd 4d6e 98bd
000000f0: 28b3 34bd 78bd 29be c573 9f3d be55 33be
00000100: e42e edbe e7b3 3d3e 3fec 893d 6831 283d
00000110: fd4c 4cbe 67c8 d6be f339 9b3e 35d4 4f3e
00000120: 7bb2 c73c fdd2 c4bd 694e a1bd 6dcf 123e
00000130: 52e1 23be fe7e 24bd 90e3 97bd 90b2 36bd
00000140: b3d8 653e 405b 1ebe 7f71 5fbd ec6e 58be
00000150: 908b 9cbd 68cf e73e b989 4c3e 7db9 993e
00000160: eb11 bdbd 5e91 67be 0ef5 1c3e 3cc2 fc3e
00000170: 13a8 003f 7de3 a8be 579b f33e d2bd 44bf
00000180: b3e9 b9be d1ef 8cbe eca4 84be f227 1a3f
00000190: f2e6 a3bd 792b 8dbd 1e54 9a3d 1403 81bc
000001a0: 87a1 a03d 86e9 a0bc 847c 2b3d b8ef 413d
000001b0: 6133 8ebd f135 983e 8ee6 27be 59d4 6a3e
000001c0: 4a34 f9bd bb57 1d3f 66c0 bc3e a950 4d3e
000001d0: 0197 103e a176 9e3d bb09 553f af8e 5e3e
000001e0: 0736 933e 54dc 123e bc42 28be 7c4a e1be
000001f0: 4611 2dbf e4a6 0b3e 14bb 4d3e 5950 b83d
00000200: b859 b23d cdd2 a33d e926 48bc e62f 303e
00000210: d09c 1a3d 9a88 47bd d018 a3be 9029 42bc
00000220: 3a93 7a3e 109c b33e 7400 5d3e 238a 46be
00000230: cbdb 103d a80c d0be dadb afbe 1ccd a2be
00000240: 64c3 aabe c01b d2be 4270 d6be 2d8a 97be
00000250: 1e97 e3be 5042 a5be 401f b5be bee6 48bb
00000260: 425f b53d 5c14 13bb 7362 c93e cd34 41be
00000270: 2384 08be d938 41bd f773 5d3e e799 d53e
00000280: cd6c 9abe 9d85 06bf 68c4 16be 42d2 393e
00000290: 57dd d73e 0142 e9be cdfe 98be c738 94be
000002a0: 6d3a 41bd 361f b53e 8dd7 51be 5a2f 9bbe
000002b0: aff1 69be 8e05 20be 1009 043e 4062 eebe
000002c0: 6a80 aabe a464 cfbd 15f5 ec3d 17e3 5e3e
000002d0: bc27 f9be 8e0a f3be 4f4f 6fbe 3386 a93d
000002e0: 9ab4 a03e 68ad b6be b36c 82be ce1a 18be
000002f0: 1e8b 1d3e 89a1 af3e 0b1e f1bd 23bc 34be
00000300: 584d 873b dd30 e73d 74aa 963e 02d8 9cbc
00000310: 8a81 473e 59d3 66bd 920b c83c 3bb0 053e
00000320: 4d4c 853d d20c 70bd fb43 b3bd a66b 2abd
00000330: 80cb 47be 3700 f5bb dd54 853e 4591 873b
00000340: 7070 a0be 516f 7dbe 7536 d73c 3bc8 52be
00000350: e62c 8c3e 1b22 bbbc 17bf fabe ea49 70be
00000360: 0e3a 60be f50b 7fbd a8ba 3f3e 0f3d bebd
00000370: 8c75 403e 29e2 343e 8192 b6be 7289 04be
00000380: d23e 63be 1f79 d1be 9eda c6bd 52f7 293e
00000390: a490 963d 96c2 c53c da12 1fbe 58d9 163d
000003a0: 0f1b dfbd dda6 b5bd ee93 413e ff4f 1cbe
000003b0: b658 97bd 0aa4 333e 1c6d 483c 05f8 973d
000003c0: 44e9 a4be de8b aabd 0d05 f43d f65c 90bc
000003d0: adda d5bd 2996 863d ccfb 4b3e ee07 82bc
000003e0: 3c88 253d 3315 943c 0a94 1d3d 6cf7 103c
000003f0: 8c94 8bbe d759 0abe 3e7b 47bc 3f16 9fbd
-0.1436731 -0.17966352 0.120444484 0.08563424 -0.039287813 -0.0034231092 0.11745713 0.22176869
0.10667959 -0.020446805 -0.09845073 -0.11559431 0.29623023 0.31452143 0.0040785326 -0.13838318
-0.19590886 -0.045332883 -0.25581166 -0.020578457 -0.08217841 0.44382998 0.47127056 0.62041795
0.39133406 0.26097783 0.08996005 0.054185193 0.067843 0.09300535 0.06907897 0.022982594
-0.018405402 -0.001437463 -0.14442883 0.22777693 -0.013169195 -0.079612 0.059623566 -0.10157264
0.072580054 -0.104299046 0.05497008 -0.20476201 -0.31618866 -0.60327375 -0.5438909 -0.53532755
-0.50171447 -0.30034548 -0.026048876 -0.25907716 0.015305359 0.017600907 0.0044291248 0.21264556
0.044746745 -0.19234511 -0.06404144 -0.07442913 -0.04411617 -0.16576183 0.07785753 -0.17513177
-0.46324837 0.18525659 0.067345135 0.041062742 -0.19951244 -0.4194977 0.3031765 0.20295794
0.024377098 -0.09610555 -0.07876284 0.14336939 -0.16003922 -0.04016017 -0.07416451 -0.044603884
0.22445945 -0.15464497 -0.054551598 -0.21136063 -0.07643807 0.45275426 0.19974412 0.3002433
-0.09231933 -0.22614047 0.15327856 0.4936694 0.5025646 -0.3298606 0.47579452 -0.7685214
-0.3631111 -0.27526715 -0.25907075 0.602172 -0.08003034 -0.068930574 0.07535575 -0.015748538
0.07843309 -0.019642603 0.041866794 0.047347754 -0.069433935 0.29728654 -0.16396543 0.22932567
-0.121681765 0.6146199 0.36865538 0.200503 0.14120103 0.077374704 0.8321797 0.21734117
0.28752157 0.14341861 -0.16431707 -0.4400214 -0.6760448 0.13637882 0.20090896 0.089997
0.08708519 0.079991914 -0.012216308 0.17205772 0.037747204 -0.048714258 -0.31854868 -0.01185073
0.24470225 0.35080004 0.21582204 -0.19388632 0.03536586 -0.40634656 -0.3434742 -0.3179711
-0.33352196 -0.41036797 -0.4188252 -0.29597607 -0.4445123 -0.32277155 -0.35375404 -0.0030655111
0.088560596 -0.0022442555 0.39332923 -0.18867798 -0.13331656 -0.047173355 0.21626268 0.4171898
-0.30161133 -0.5254763 -0.1472336 0.18146613 0.42161056 -0.4555817 -0.29881898 -0.28949568
-0.04717486 0.35375375 -0.20492382 -0.30309564 -0.22846101 -0.15627119 0.12894082 -0.46559334
-0.33301097 -0.101266176 0.11570183 0.21766315 -0.48663127 -0.4746899 -0.23370098 0.082775496
0.31387788 -0.35679173 -0.25473556 -0.14853975 0.153851 0.3430293 -0.11773308 -0.17649893
0.004129093 0.11288617 0.2942692 -0.01914597 0.19483009 -0.0563539 0.02441958 0.13055508
0.06508694 -0.058605976 -0.087532006 -0.041606568 -0.19511223 -0.0074768323 0.26041308 0.0041371905
-0.31335783 -0.24749495 0.026271084 -0.20584194 0.27378005 -0.022843411 -0.48973915 -0.23465696
-0.21897146 -0.062267262 0.18723547 -0.0928899 0.1879484 0.17664398 -0.3565865 -0.12943056
-0.22191933 -0.4091272 -0.09709667 0.16598251 0.07351807 0.024140637 -0.15534535 0.03682837
-0.10893833 -0.08869717 0.18904087 -0.15264891 -0.07389967 0.17543045 0.012233045 0.07420353
-0.32209218 -0.08327459 0.11915026 -0.017622452 -0.104421 0.065716095 0.19920272 -0.015872922
0.040413126 0.018076515 0.03847126 0.0088480525 -0.2726177 -0.13510834 -0.012175379 -0.07767915

conv2.bias f4 [16]
00000000: 7b08 1bbf 0796 4e3f a89a 93be c44d ffbd
00000010: 33fa a8be 059e c0be 8187 ed3f 4e97 ee3e
00000020: 78a1 95be fbc5 eb3f 0ff6 92be 0548 a43e
00000030: 00d8 9a3d b4e7 f4be 4de5 573e 3c63 aebf
-0.60559815 0.80697674 -0.2882893 -0.124660045 -0.33003387 -0.3762056 1.8556978 0.4659981
-0.29224753 1.8419794 -0.28703353 0.32086197 0.0756073 -0.47833025 0.21083565 -1.3624034

fc1.weight f4 [120, 400]
00000000: 25e5 44bd f964 c3bc 2aa8 103e 46e7 383d
00000010: 2a36 933d 2be8 1dbe 0587 9b3c cb59 cc3d
00000020: 898f e5bc 325b 00be fcb6 e43d b9ae 90bc
00000030: 41db adbd 7fe6 a13d c17e 913d 4684 663d
00000040: 150a 403e b2be 453e 85a6 f83d 0a45 283e
00000050: f2f4 2abe d6dd 45be 86a3 383e 3365 e93d
00000060: 68b2 bcbd 001c 0b3d 78a5 0e3e 1d95 6e3d
00000070: 465b 3f3d 76ba 1d3d e34c 18be a858 96bb
00000080: e529 51be 4042 f7bc 902b 563c 5e65 4abd
00000090: 2d29 1fbe a5f4 22be a482 633b 694e a0bc
000000a0: cbb8 50be a794 4dbe 39ae 56bd 34c4 98bc
000000b0: bfc5 493d 390f 2abe 962c 9bbe ca46 76bd
000000c0: cc0e febc 9f8a 28be 8e83 0bbd 670f 313b
000000d0: 2aed e3bc e4b6 5dbd e807 31bc 8232 8c3d
000000e0: cc50 1e3b a992 923d 3d49 fabc e03c 723d
000000f0: 6d3a b1bd 3bbe 06bd efc9 be37 1660 003e
00000100: f975 523e b6f2 8a3c 5315 a4bd a5e5 903d
00000110: 9c2f 743e a3cb 073e 4c0a 7ebd 74c6 e1bd
00000120: 03bb a9bb 7e4a 5a3d e3c2 8ebd 32da 0e3e
00000130: b160 423d 9de5 9c3d d31e bdbc 81ee 2f3d
00000140: c585 2f3d 5575 09be 0c53 acbd 9b21 83bd
00000150: 6456 ec3c 2212 5e3e 9885 2b3e 964c 013e
00000160: 50a6 2b3d 0e3a 613b eb84 df3d 739f 073e
00000170: f60f e53c cf74 3d3d 1d00 233e 2acf 453d
00000180: 750f 62ba bcc6 80bd f0b8 a5bd 8499 18be
00000190: c29f 8ebd 1a10 e93d c09e 81bc 5895 3fbe
000001a0: 9836 70bb 3cd5 b53c f425 c1bd 796f d2bd
000001b0: beaa 1ebe e4a4 cc3d bb5e 703e 71f9 bcbc
000001c0: 6ad1 5a3e 93bb e3bd c1b4 2c3d c829 663e
000001d0: 4937 773d 6727 ff3d ef85 16be 954c 0a3e
000001e0: b6e5 9cbc 7e88 a4bd ec70 44be 3f20 04be
000001f0: 10e1 223c b0bb d2bc da3c 0f3c b2f8 ecbd
00000200: 3739 c9bd b406 743d 2feb 803d ddd5 d13d
00000210: c7d3 febd af97 a63d 7808 183e 1098 16bd
00000220: e691 19be 9f01 b93d ec84 8c3d e8ab 0a3d
00000230: a11e f1bd e8fe e7bd a25e 19bd 34d9 293c
00000240: d83e e63c 4d48 20be b7a4 82be 6e8f 65be
00000250: 395a 80bd 7869 cb3d 39bf 8a3d fc62 b73c
00000260: 1bc8 23bd b682 20be 506a d8bd 3a76 ffbd
00000270: acb5 c3bd fb98 cebd 7316 b7bd c8a7 b6bd
00000280: ef1f e7bd 8670 96bd 6c5b 54bd c82d b5bd
00000290: ece3 a2bd ee1e 8cbd 6e58 1a3c 93a0 a63c
000002a0: ce89 b8bd beb3 3cbd 12cd 513d 4397 ce3d
000002b0: 8267 023e 142a 473d c9b5 cb3d 2e21 ecbb
000002c0: 1cb6 f83c 7ef3 62bd 0fea 78bc 4e84 7a3e
000002d0: 67f4 373e 95d6 4fbd a215 e9bc e511 fd3c
000002e0: 69c5 bf3d 1669 cbbb bdd7 abbc e248 75bd
000002f0: 27e7 37be 6add 15be eacd a2bd 1f83 bc3d
00000300: a62f 09bd b675 04bd 6ba5 03be fb65 1b3d
00000310: bad6 b3bd b7eb 57bd 5d93 d43d 55d5 2f3e
00000320: 89bd 333e 56c0 443b 3bc9 40bd 6a18 3c3c
00000330: ce32 073e a349 763c 66b7 3abe 2a8b f0bc
00000340: 6ca4 12be 37ed 7e3d 1ae5 243d 6a34 6b3d
00000350: dc21 333e d976 d03d 6cfa f93d cef8 c8bc
00000360: e6e5 19be 0bd9 663d 5278 903d 2dd4 0ebd
00000370: 54c4 11be e612 d5bb cc0e 073d 26c7 28be
00000380: 1660 3cbe adb5 91bd b64e f73c e330 88bd
00000390: 31e2 823c 1d16 b73c 77a6 28bd f980 973d
000003a0: 75e2 c63d 06a9 403d 6af1 19be 3408 eabc
000003b0: cc06 253e 0abc 81bc d559 ce3d 470f 1fbe
000003c0: 5e02 40be 9f1b b13b 1896 fcbc bdc5 c4bd
000003d0: 4536 c73d f8cd 22bd e392 8ebc a131 23be
000003e0: 77d4 81bd 5bbc 93bd 9f37 123d 6ca2 063d
000003f0: 74f6 9f3d 7a55 b8bd a0fb 2c3c 0010 133e
-0.04807009 -0.023851858 0.1412665 0.045142435 0.07188065 -0.15420596 0.01898528 0.09978064
-0.028022544 -0.12534788 0.11167714 -0.01766144 -0.08489085 0.07905292 0.071042545 0.05627849
0.18753846 0.19311026 0.12141136 0.16432586 -0.16695002 -0.19322905 0.18031129 0.11396255
-0.09213716 0.03396225 0.13930309 0.058247674 0.046717905 0.0385079 -0.1487308 -0.0045882054
-0.20426138 -0.030182958 0.01307191 -0.049413078 -0.15543051 -0.15913637 0.003471532 -0.019568639
-0.20382993 -0.20076238 -0.052412245 -0.018648244 0.04926085 -0.1660737 -0.30307454 -0.060126103
-0.031012915 -0.1645913 -0.034061007 0.0027017237 -0.02782305 -0.054129496 -0.010805108 0.06845571
0.0024157045 0.071568795 -0.0305525 0.059140086 -0.08653722 -0.03289626 2.2743798e-05 0.12536654
0.20552815 0.016961437 -0.0801188 0.07075051 0.23846287 0.13261275 -0.06202154 -0.1102418
-0.0051797642 0.053293698 -0.069707654 0.13950422 0.047455493 0.07660983 -0.023085987 0.042952064
0.042852182 -0.13423665 -0.084142774 -0.06402894 0.028849788 0.21686605 0.1675018 0.12626871
0.041906655 0.0034366879 0.10914024 0.13244419 0.027961712 0.046253975 0.15918012 0.04829327
-0.0008623519 -0.062879056 -0.08091915 -0.14902312 -0.06964065 0.11380024 -0.015822768 -0.18709314
-0.0036653634 0.022196405 -0.09431067 -0.10275168 -0.1549482 0.09992388 0.23473637 -0.023068162
0.21368948 -0.11119761 0.042164568 0.22476876 0.06035546 0.12458687 -0.14699529 0.13505776
-0.019152503 -0.08033846 -0.19183701 -0.12902926 0.009941354 -0.025724262 0.0087425355 -0.11570872
-0.09825366 0.059576705 0.06294858 0.10245869 -0.12442737 0.081344 0.1484698 -0.03676611
-0.14997062 0.09033512 0.0686129 0.03385535 -0.1177342 -0.113279164 -0.037443765 0.010366727
0.028106138 -0.1565258 -0.25516292 -0.22417995 -0.062672086 0.09932226 0.06774754 0.022386067
-0.039985757 -0.15674862 -0.105671525 -0.12473722 -0.095561355 -0.100877725 -0.08939829 -0.089187205
-0.11285388 -0.07345681 -0.051845 -0.08846623 -0.07953629 -0.06841837 0.009420497 0.02034024
-0.09010659 -0.046069853 0.05122096 0.10087445 0.12734798 0.048624113 0.09946782 -0.0072061038
0.030360274 -0.055407993 -0.015192523 0.24464533 0.17964326 -0.05074175 -0.028452698 0.030892322
0.09363825 -0.0062075956 -0.020976895 -0.05988396 -0.17959271 -0.14635244 -0.07949431 0.09204697
-0.033492707 -0.03233882 -0.1285607 0.037939053 -0.0878119 -0.05271503 0.1037967 0.17171223
0.1755277 0.0030021868 -0.04706691 0.01148043 0.13202974 0.015032205 -0.18234023 -0.029363234
-0.14320534 0.062237944 0.04025755 0.057423033 0.17493385 0.101789184 0.12205967 -0.024532702
-0.15029106 0.056359332 0.07054199 -0.034870315 -0.1423505 -0.006502497 0.032973096 -0.16482219
-0.18396029 -0.0711473 0.0301889 -0.066499494 0.015976997 0.022349412 -0.04117438 0.073976465
0.09711162 0.047036193 -0.15033498 -0.028568365 0.16115874 -0.015836734 0.10075728 -0.15533172
-0.18750903 0.005404904 -0.030833289 -0.09608028 0.09727148 -0.03974721 -0.017404025 -0.159369
-0.063393526 -0.0721366 0.035697576 0.03286974 0.07810679 -0.09000678 0.010558039 0.14361572

fc1.bias f4 [120]
00000000: 9433 0cbe a21a 2f3f 497e 2b3d 2b3e 033c
00000010: 2679 20bd 40ed 88be f5a7 71be a751 953d
00000020: 6d47 0c3e 3b78 d63d bd85 0c3d d100 9ebd
00000030: 0d5a 82bc baf8 5cbe 0781 59be ce5c 4e3e
00000040: ec21 96bd 7515 b4be 59d7 0abd db3c d43e
00000050: 2005 3b3e 4575 1abe a57a fdbb b313 b73a
00000060: e9c8 ba3d b5fd 903c 3532 d73e 41de 163e
00000070: 8ddc 393d 3463 a7bd d165 57be 4171 993c
00000080: 2689 9f3e fdd4 6a3e 324e 0f3e 941e d1bc
00000090: a41f ffbd 3f7d 873d 1e8a 89bd 83a0 353b
000000a0: 4ffd 9ebd 1480 3c3f 416b a23e 33eb ca3d
000000b0: 1fa2 0d3e c875 1dbd e1ae 8a3e e3bc 8cbe
000000c0: 65af 503e e50b ab3e 323e 08bd 7c7f 8dbd
000000d0: fe90 fa3d 14c8 a83b 3b59 ecbd a865 363d
000000e0: 01e3 82bd 478a d63e aa67 c7bd f52f 513e
000000f0: 23bb dd3d bb67 2b3e cc4f ff3c 2fd3 a73d
00000100: 9eab a53d 1e1b babc 9f52 8b3d 3da1 8f3d
00000110: 0bdd 3cbe cc01 61bd 963c 4b3e b4a1 50bd
00000120: 7d44 60bc 5a8e 023c 034d 1b3e 35c0 903d
00000130: fd4d 9d3d e634 debd 7da6 cfbd 1b02 95be
00000140: 93d5 a6be 6b70 e1be 8f57 38be 6bb0 9c3e
00000150: 6038 2f3e b62b 093e f4f1 da3c cea3 67bd
00000160: ab83 a43d 53cf 5fbc 451d 73be 7293 c33c
00000170: 25f0 473b 92e0 f63d 1152 00bb 1293 c73e
00000180: d429 f3bd 092a 613e f546 2f3d 9681 cc3c
00000190: 1913 fa3d 5e84 b83e f6cc 19bc cfc6 70bd
000001a0: b16d 083e 1a1c 8d3d 27eb e2bd 3a12 7dbd
000001b0: 7549 c33e f1d6 273e a9bf 0d3e 42b1 09be
000001c0: 659d 78be 9bde 2a3e 4a33 83be 3f38 583e
000001d0: 7ba0 ac3d 7a84 063e b16a 55bd 06dc 853b
-0.1369155 0.68400013 0.04186848 0.0080104275 -0.039178036 -0.26743507 -0.23599227 0.072909646
0.13699122 0.10472151 0.03430723 -0.077149995 -0.01591208 -0.21579257 -0.21240626 0.2015259
-0.07330689 -0.3517262 -0.033896778 0.4145268 0.18263674 -0.15083797 -0.0077355676 0.0013967663
0.09120352 0.017699102 0.42030492 0.1473322 0.04537635 -0.08173218 -0.21034934 0.018730761
0.31159323 0.22932811 0.13994673 -0.025527276 -0.12457207 0.06615686 -0.06715797 0.002771408
-0.077631585 0.7363293 0.31722453 0.09908142 0.13831376 -0.038442403 0.27086547 -0.2748786
0.20379408 0.33407512 -0.03326244 -0.06909081 0.12234686 0.0051508043 -0.11540457 0.04453054
-0.06390954 0.41902372 -0.09736569 0.2042845 0.10826709 0.16738789 0.03116598 0.08194577
0.08089374 -0.022718009 0.06802868 0.07013176 -0.18443696 -0.054933354 0.1984733 -0.050935462
-0.013688204 0.00796851 0.15166096 0.070679106 0.07680891 -0.10849933 -0.10139177 -0.2910317
-0.3258482 -0.4403108 -0.18002151 0.30603346 0.17111349 0.1339558 0.0267267 -0.0565527
0.08032926 -0.01366027 -0.23741634 0.023874018 0.0030508128 0.12054552 -0.0019580165 0.38979393
-0.118732125 0.21988691 0.04279228 0.024964135 0.12210674 0.36038488 -0.009387245 -0.05878335
0.13323094 0.068901256 -0.11080008 -0.06178496 0.3814198 0.16390587 0.13842644 -0.13446525
-0.24278791 0.1668648 -0.25625068 0.21115206 0.08429047 0.13136473 -0.052103702 0.0040850667

fc2.weight f4 [84, 120]
00000000: 060f 223e 2c18 4fbc 2a34 62be 9c05 10be
00000010: 2537 84be 483b 12bd 268d cd3d fbfa a53d
00000020: 0d72 673d 1e31 5fbe d92a 81bc e1aa 2a3d
00000030: 1007 1abd 7021 4e3d 3db2 1cbc 9c0a 963b
00000040: f3f8 28be 93ea 8ebe d303 21be c287 45be
00000050: 387f b43d ebeb dbbe 3cb6 8e3d 3316 203d
00000060: f498 5fbd d723 a9bd 9986 7b3d c534 8cbd
00000070: 2bb9 63bd 150c 283e 7b13 f8bd 45fe 0ebd
00000080: f053 07be 2b2b e8bd ade2 173d b41e 0fbd
00000090: 7e8b aebc 5232 0fbe 51f0 0e3e c66a bd3c
000000a0: 250e 0cbe 78d5 ee3d 781e 063a d9d2 1ebe
000000b0: 713b 01be d83f 91be ea71 24be af7c 9cbe
000000c0: b326 29be a6dd c33c bfd1 633d 40da 96bd
000000d0: 2988 6bbc 9608 ca3c 7f3c 03bc b517 40bd
000000e0: e31e 2b3d 5936 0f3d d4c1 f2bc 4cbd 29bd
000000f0: 61ae c83d 90c3 5dbd 76eb 3d3e f054 943d
00000100: 2694 0d3e be04 bbbc 757f 3ebe 9b9b 1bbd
00000110: e824 6cbd 306a a73d f51c cf3d f8a6 243e
00000120: b604 bd3d 51ca 3fbe 4826 9abc 882c 02bd
00000130: 3842 903d dad8 9d3c 6f12 8cbe 68ec 333d
00000140: 4e8b 0abe 6296 bdbd 070c 4cbd 0d79 afbc
00000150: 8a29 293e e9fa 353e 4d9f 683d fdbd 35be
00000160: 9fd1 1f3e 54ac 9c3d a230 7dbe 117c 71bd
00000170: 6239 5bbd 2b8f cdbc 67e8 d3bd 17d2 883d
00000180: 0cec 4a3e 007e 24be 0741 383d 0abb 193e
00000190: 4939 f6bd a6bc 113e f324 22be 3d0f 4abd
000001a0: 82b6 3b3d f6ff b73c ffcb 45be 2f34 953d
000001b0: 91a6 d03d dfa8 d43d cb0d 283d 3264 7bbd
000001c0: 589b 10be aa59 55bd 2d78 4dbd e511 b83d
000001d0: 9ba2 82be 611e b7bd e4ef e73b 5a74 8f3d
000001e0: 0a19 28bd e99c 21be badc be3d 8a5b 84bb
000001f0: d686 d23d cb53 ab3c 89e1 4cbc 60b1 c5bd
00000200: 3999 3abe e046 88bd 9c4d 533d ed91 063e
00000210: 3981 a63d 5613 9c3d 04b4 babd c15e 89bd
00000220: fe9d 223c e26d 393e 8153 12bd d716 c03d
00000230: 537d 2d3d 3ff6 ebbc 245a cc3c 72b1 053d
00000240: 7293 c1bc 1cdf f3be 4f76 fcbd 2d29 503d
00000250: a79e 063e 2061 153e 8fd8 6f3d d732 d33d
00000260: a87f b2be 81c5 89be c8c2 8ebd 26ec c1bc
00000270: e2d5 4f3d 7af9 f0bd a457 56be 4e45 f3bb
00000280: d58f 99bb fb8a b6bd 67e6 d9bc 16bf 06be
00000290: d382 55be faf6 a9bd ed2a c5bd 391d 5f3e
000002a0: b6e6 0a3e 76ce 2ebe 2da9 00bd 5a2a 0f3e
000002b0: 737d 1d3d e8fc 7bbd fb4c 2a3d 9f5b 1d3d
000002c0: a9da 4fbe 5832 efbd 66b9 9f3c f3f5 82bd
000002d0: e227 803e e809 83be 7760 bfbd 69cc abbd
000002e0: 109d 43bc 1655 803d 7ada 24bd 291f f9bd
000002f0: 4ffc 833e 66e6 a33d d727 b9bc 0c36 0f3d
00000300: 46b3 443d 5191 90be ed7a 0cbe 0e8e 453e
00000310: 397f 103d 362d 973b 705e 903e bb58 2c3e
00000320: 50d4 94be 3063 9e3d 4b29 59bb efcb c4bd
00000330: c77c 9ebd 58e6 86bc 23dc f13c 5f77 123e
00000340: 61a3 3e3e 80c3 3ebe de46 5e3e 573e 81bd
00000350: b3cc 73be eda1 dbbd f6ed ba3b 32a4 01be
00000360: 0a73 d73c 7a85 1b3e 5a19 7e3c 475d 77bd
00000370: af17 8c3d 953c 50bd b245 ddbd 2602 bfbd
00000380: 7ddd eebd 314a b2bd 7d18 153d 4969 213e
00000390: d50b 65bd 8ff6 34bc 7d62 61bd 1f15 953d
000003a0: f21a da3c dc79 c2bc 26de 153e ac28 b03d
000003b0: a35e 4dbe 78f9 10be 1e06 8bbd f246 a03d
000003c0: fca1 78be c574 18be 10e5 c43d ec3e 463e
000003d0: 1be0 323d 89ae b23d 57ad c8bc ff6f ccbd
000003e0: 431f 083e cdd3 6abe ccd7 033d f6c3 a8bd
000003f0: 8bf1 42bd 9255 bf3d 1367 5bbb 8c00 813b
0.15826043 -0.01264004 -0.22090212 -0.1406464 -0.25823322 -0.035701066 0.100366876 0.08104511
0.05650525 -0.2179608 -0.015767502 0.04166687 -0.03760439 0.050324857 -0.00956398 0.0045789015
-0.16501217 -0.2791334 -0.15724115 -0.19290069 0.088133276 -0.4295343 0.06968352 0.03908367
-0.054589227 -0.08258789 0.06140766 -0.068460025 -0.05559651 0.16410859 -0.121130906 -0.03491046
-0.13215613 -0.11336359 0.03708141 -0.03494139 -0.02130675 -0.1398404 0.13958861 0.023122203
-0.1367727 0.1166181 0.00051162345 -0.1551012 -0.12620331 -0.2836902 -0.1605908 -0.30563876
-0.16518669 0.023909401 0.05561995 -0.07365847 -0.014375725 0.024662297 -0.008010029 -0.04689761
0.041777503 0.03496394 -0.02963344 -0.041440293 0.09798885 -0.05414158 0.18546852 0.07242763
0.13826045 -0.02282941 -0.18603308 -0.037990194 -0.057652384 0.081745505 0.10112945 0.16079319
0.09229414 -0.18729521 -0.018817082 -0.03178075 0.0704388 0.019268442 -0.27357814 0.043926626
-0.13529703 -0.09257199 -0.049816158 -0.021420026 0.16519752 0.17771496 0.056792546 -0.17748256
0.15607308 0.076500565 -0.24725583 -0.05895621 -0.05352152 -0.025092682 -0.103470616 0.066806965
0.19816607 -0.1606369 0.04498389 0.15012756 -0.12022645 0.1423212 -0.15834408 -0.04933094
0.04582835 0.022460919 -0.193161 0.07285344 0.1018802 0.10383772 0.04102878 -0.06137485
-0.14121759 -0.052087463 -0.050163437 0.08987788 -0.25514683 -0.08941341 0.0070781577 0.07004614
-0.041039504 -0.15782513 0.09319444 -0.0040392326 0.10279624 0.020913979 -0.012504944 -0.09652972
-0.18222512 -0.06654143 0.051587686 0.13141604 0.08130116 0.076208755 -0.091163665 -0.06707526
0.009925364 0.18108323 -0.035724167 0.09379356 0.042355847 -0.028803943 0.024945326 0.03263993
-0.023629878 -0.47631156 -0.12327253 0.05082052 0.13146459 0.14587831 0.058556136 0.10312431
-0.3486302 -0.26908496 -0.06970745 -0.023672175 0.050741084 -0.11766334 -0.2093187 -0.0074240332
-0.0046863356 -0.08913227 -0.026599122 -0.13158831 -0.20850687 -0.0829906 -0.09627328 0.21788491
0.13564572 -0.17070946 -0.03141134 0.13981 0.038449716 -0.061520487 0.04157732 0.038417455
-0.20298256 -0.11679524 0.019497585 -0.06394567 0.25030428 -0.25593495 -0.09344571 -0.083885975
-0.011939302 0.06266229 -0.040247418 -0.121641465 0.25778434 0.080029294 -0.022602005 0.034963652
0.04802253 -0.28235868 -0.13718767 0.19292471 0.03527758 0.004613544 0.2819705 0.16830723
-0.29068232 0.07733762 -0.0033136185 -0.0960921 -0.07738643 -0.016467258 0.029523915 0.14303349
0.18617012 -0.18629265 0.21706721 -0.063107185 -0.23808555 -0.10724244 0.0057046367 -0.12660292
0.026299972 0.15187636 0.015508974 -0.06039169 0.06840455 -0.050839026 -0.10804309 -0.09326582
-0.11663339 -0.08705557 0.036400307 0.1576282 -0.055919487 -0.011045112 -0.055025566 0.07279419
0.026624177 -0.023739748 0.14635524 0.086015075 -0.20055632 -0.14157665 -0.06788276 0.07826032
-0.24280542 -0.14888294 0.09614003 0.1935994 0.043670755 0.08724696 -0.024496717 -0.09982299
0.13293175 -0.22932358 0.03218822 -0.082405016 -0.047593635 0.09342493 -0.0033478185 0.003936833

fc2.bias f4 [84]
00000000: e54b 963f 7f40 47be 095f 9abd 5f61 aa3e
00000010: 96d8 e73e fb78 6a3d 5924 533e 8112 833e
00000020: 7ff8 203e 7fe5 ffbc d2aa 6e3e 5836 d2bc
00000030: e7b6 4bbd 5eb7 c13e 4f78 9b3e ce11 09bd
00000040: 33fe 873e 903d 9f3f b696 693f 3826 99be
00000050: 93aa e53d 003a 69be a6ba 4d3e 4fee 283d
00000060: afc3 17bd 1143 393f e26a 7bbc 10ba 173f
00000070: 129d 2b3f 43bc a0bb c7ee 0dbd f06e 8ebe
00000080: bd3e 853e cee6 203e 456b bf3e 5a17 c53e
00000090: 76ab df39 96a7 48be 37e0 fe3d 52ce b63d
000000a0: 0170 ce3b 1e20 a2bd 633e 683b 3c67 f4bc
000000b0: 749d 063c ec74 583d 361f f9bc a0be b43e
000000c0: 8e01 593e d060 80bc de78 38bd 024b 473e
000000d0: 36ee 01bd f576 9f3d 59e0 cb3e 39b6 0bbe
000000e0: b9bd 1c3e 527a cbbe 499f 02be a12d f73c
000000f0: 6d22 a83e b9d3 4a3e b642 973e f373 2d3d
00000100: d6df 7d3e e2d7 133e 186c aebd 3afd a03d
00000110: 1be7 be3d 5dec 083f e386 0e3e 6009 f33e
00000120: 24ac 1f3f 12e6 c33e c7d7 3b3e 71d0 81be
00000130: 5886 48be ed4d 8b3e 0395 3eba 7e8d 3cbb
00000140: b833 353f 5a3e aabd b2d8 823e c515 083f
1.1741911 -0.19458197 -0.07537658 0.33277413 0.4528243 0.057244282 0.20619334 0.25600055
0.15719794 -0.031237362 0.2330735 -0.025660679 -0.049734976 0.3783521 0.30365226 -0.033464245
0.26561126 1.2440662 0.9124559 -0.2991197 0.11214175 -0.22776031 0.20090732 0.041242894
-0.037051853 0.7236796 -0.015345307 0.59268284 0.67036545 -0.004905255 -0.034651544 -0.27819014
0.26024428 0.15713045 0.37386528 0.38494378 0.00042661623 -0.19595179 0.12445109 0.08926071
0.006299973 -0.07916282 0.0035437576 -0.029834382 0.008216251 0.05284588 -0.03041039 0.35301685
0.21192 -0.015671164 -0.045037143 0.19462207 -0.031721316 0.07786361 0.398196 -0.13643731
0.15306748 -0.3974176 -0.12756075 0.030173125 0.32838765 0.19807328 0.29543084 0.042346906
0.24792418 0.14437822 -0.08516711 0.07860799 0.093214236 0.5348566 0.13918643 0.4746809
0.6237204 0.38261467 0.18344031 -0.2535434 -0.19582498 0.2720789 -0.0007270129 -0.002877086
0.7078204 -0.08312674 0.2555595 0.5315822

fc3.weight f4 [10, 84]
00000000: cba0 0cbf 3769 7b3c 9ea6 79be 686d f6bd
00000010: a0f7 9bbd 2a5f 693d 0de7 2ebe 4e61 c6be
00000020: 2692 2e3d 23bd 633e 1382 1cbe ba55 3abe
00000030: 259f e33e 51b7 983d e339 6e3e 163d 02bc
00000040: 8fcc 19be 589b 35be 9e52 b0be b021 123e
00000050: 0844 ca3c 1921 8f3e 630b 433d 0fa8 edbb
00000060: ba90 573e 0bf5 073d 8509 283e 5695 293e
00000070: 31d5 59be c58f 03be d336 853e 41b1 2b3e
00000080: e942 23be a91c 92be a7e8 e2be f90e 4fbd
00000090: 0987 c33d 1646 143e 7884 a1bd 48f4 8dbd
000000a0: 45ed 8d3e f236 a73d 96e8 dcbc 364c 323d
000000b0: dedc b7bd 96a0 46bd ff67 04bd 5639 ad3d
000000c0: c225 633e 97f3 c73d 57ea 813d 63d9 7f3e
000000d0: bf95 0bbe c545 bfbd 9df8 5a3c c6b4 cc3d
000000e0: 1829 26be 62a7 f33d e96f 15bc c4bb 903c
000000f0: 5fb1 063e de16 69be 07d3 e2bd 0f89 a7bc
00000100: 548c 123e 5d2e b93d 52bd 273c 42a2 e73c
00000110: 0023 00be d7d4 d43d 3d13 a23d 491e 493e
00000120: 218d 893e 0694 c83d 1881 833e 68d9 013d
00000130: faa1 d93d 1ec9 01be c72d 4b3e 4d51 043e
00000140: 1737 653c fbf9 593e ccce 26bd 2c8b 09be
00000150: cdf2 5fbd ac12 5b3e 56dd 5f3e 8c70 78be
00000160: 893b 2d3d bdb6 093e e9de 6a3e a270 16be
00000170: 9ec7 7b3d c945 053e a535 4a3e 1eaf b93c
00000180: e771 053c 1ed1 a8be 84d6 1b3d 29c4 303e
00000190: 9f56 653e 62dc 00bd b967 f7be bc62 77be
000001a0: f1f1 75bd 4418 c4bd 817e e8bd 97cc 74be
000001b0: ad6b ac3d dffa 77be 3406 4ebe 5a60 34be
000001c0: 5675 07be b327 fe3d c5f2 c53e 3cc9 903e
000001d0: 1f12 8f3e 640f b4bd 305b fe3d 77cf 7cbe
000001e0: d0ff b6bc 63d9 cb3d e19f d63d 223f c5bc
000001f0: e524 efbd fc2d 6bbd d6d4 7d3e 54c8 f5bd
00000200: 7f25 18be baeb 9e3e 2ab9 24bc 3832 2e3c
00000210: 8461 a5bd 6718 953e 6b3a 803d de43 1dbe
00000220: 5438 793e fca7 4f3d cc76 c5be be3d 9c3e
00000230: 65b5 3ebe e0b0 d23d 9f14 e83d 3324 e0bc
00000240: d08f 6bbe ae7c 4abe 42e5 10be 34d4 5b3e
00000250: 66f3 5b3e 055b ca3e c994 70be 83f2 8bbe
00000260: 37b7 41bd d263 4cbd e844 823d 9698 68be
00000270: 383d c23d 8315 a1be 8918 693d 1bd1 ba3d
00000280: 042d 29be 430a 7a3d cddf aa3e 74de 45bd
00000290: 0070 95be 7453 d83d 834a eabc db9a ebbe
000002a0: 186b d63d dbb5 643c 7f0f a23d 97e4 b83e
000002b0: e434 e1bd 17c1 8d3e fe34 143e 8631 4fbe
000002c0: 8230 e2be 9093 5f3e 8db3 60be 5677 9a3e
000002d0: dcf3 7f3b 7081 b23d 57a8 d3bd 5711 263e
000002e0: 70ff 9dbd a0be 7d3e 7f20 3b3e 3240 193e
000002f0: 8e18 e73d e815 783e 5878 ad3d 911d 02bd
00000300: ba2a 8f3d 70a7 663d 47f9 273e 34dd 0fbc
00000310: 5b93 b33e 6ac5 22be f5fd 23be 4da9 c03d
00000320: 9c84 ab3d 333e 273e cc93 b13d 496a 04be
00000330: 7b9b aebd 42d5 7a3e 2bab 863d b4e3 4c3d
00000340: 83b6 383e dca8 04be e0c5 5dbe dc0c 8fbd
00000350: 4600 1fbe e381 8c3b 446c b33c 6a82 343d
00000360: cbd3 e8bc 05bb 99be ff37 3abc 0619 51be
00000370: a444 2f3e 635e e4bd 17ac 583e 4688 09be
00000380: 2055 9fbb 50cc 2a3e 7061 0fbe 3dfe 853d
00000390: 50b1 2fbe 06f1 e73d f4e7 a43d 9645 ecbd
000003a0: e4a6 abbd 724e cebc 66c5 913e 932f 433d
000003b0: fc8b 9cbe 48b3 773e a3ef 7c3e bbec 0c3e
000003c0: 3c14 1bbe cc75 05bd 7cd1 c7be fc24 cb3d
000003d0: 4d30 a7bd 0c6a 08be 0380 68be 8725 4a3e
000003e0: 4801 933e 113e 81bd d560 e93d 9b17 153e
000003f0: 17ea 933e 80a9 93bd bbe5 fe3d 9dce 12be
-0.5493285 0.015344909 -0.24379966 -0.12032586 -0.0761559 0.05697552 -0.17080326 -0.38746113
0.042619847 0.22240119 -0.15283994 -0.18196765 0.44457355 0.0745684 0.2326427 -0.007949134
-0.15019439 -0.1773504 -0.34438032 0.14270663 0.024690643 0.2795494 0.04761828 -0.0072527
0.21051303 0.033192676 0.16409881 0.16560873 -0.21272732 -0.12847812 0.2601839 0.16766836
-0.15943493 -0.2853749 -0.44318125 -0.05055139 0.0954724 0.1447986 -0.078865945 -0.069313586
0.27720085 0.08164777 -0.026966374 0.04352971 -0.08977674 -0.04849299 -0.03232574 0.084582016
0.22182372 0.09763258 0.06343525 0.2498527 -0.13631342 -0.09339479 0.013364938 0.09995417
-0.16226614 0.1189716 -0.00912092 0.017667659 0.13153599 -0.2276263 -0.110754065 -0.020451097
0.14311343 0.09042046 0.010238009 0.028275613 -0.12513351 0.103921585 0.07913826 0.19640459
0.26865485 0.09793858 0.25684428 0.031701475 0.10626598 -0.12674376 0.19841681 0.12921639
0.013990185 0.21286766 -0.04072456 -0.13431996 -0.054674912 0.21393842 0.21861777 -0.24261683
0.042293105 0.13448615 0.22936596 -0.14691404 0.061469667 0.13014902 0.19747026 0.02266651
0.008144832 -0.32972044 0.038046375 0.17262329 0.22396325 -0.031460173 -0.48321322 -0.24158758
-0.060045186 -0.09574941 -0.11352254 -0.2390617 0.08418975 -0.24216793 -0.20119554 -0.1761488
-0.13228354 0.12409916 0.3866178 0.2827853 0.27943513 -0.08791998 0.124197364 -0.24688517
-0.022338778 0.099535726 0.10479713 -0.024077956 -0.11676959 -0.0574169 0.24788222 -0.120011
-0.14858054 0.3103922 -0.010053912 0.01063209 -0.0807524 0.2912018 0.06261142 -0.1535792
0.24337894 0.05069731 -0.38567197 0.30515856 -0.18623884 0.102876425 0.11332058 -0.027361011
-0.23004079 -0.19774124 -0.14149955 0.21467668 0.21479568 0.39522567 -0.23494257 -0.2733346
-0.047293868 -0.049899884 0.06360799 -0.22714457 0.09484333 -0.31461725 0.056908164 0.09121915
-0.16521078 0.061044943 0.3337387 -0.04830785 -0.29187012 0.105627924 -0.028599983 -0.46016583
0.10469645 0.013959373 0.07913112 0.361119 -0.10996416 0.27686378 0.1447334 -0.20233735
-0.44177634 0.21833634 -0.21943493 0.3016917 0.0039055264 0.087160945 -0.10334843 0.16217552
-0.077147365 0.24779749 0.18274115 0.14965895 0.1128398 0.24227107 0.084702194 -0.031766478
0.06990571 0.056312025 0.16403686 -0.008780766 0.3507336 -0.1589562 -0.16014846 0.094072916
0.083749026 0.16332321 0.08670768 -0.1293117 -0.08525749 0.24495414 0.065756164 0.050021842
0.18038373 -0.1295504 -0.21657515 -0.069848746 -0.15527448 0.0042879446 0.021902211 0.044069685
-0.028421303 -0.30025497 -0.01136589 -0.20419702 0.17116028 -0.11150815 0.21159397 -0.1343089
-0.0048624426 0.16679502 -0.14002013 0.06542633 -0.17157483 0.113252684 0.08052054 -0.1153671
-0.08381441 -0.02518389 0.28470916 0.047652792 -0.3057555 0.24189484 0.24700789 0.1376218
-0.15144438 -0.032583043 -0.3902701 0.099191636 -0.081635095 -0.13321704 -0.22705083 0.19740878
0.28711915 -0.06310666 0.11395422 0.14559786 0.28889534 -0.07210064 0.12446161 -0.14336629

fc3.bias f4 [10]
00000000: ccde 46bf 27de 3cbf 90fb 15be d7fd 413f
00000010: 7839 8c3f fdd7 3abe 60e4 ce3e 01df bdbe
00000020: bc25 a93e bf8e b6be
-0.7768371 -0.7377648 -0.14646745 0.75777954 1.0955038 -0.18246455 0.4040861 -0.370842
0.33036602 -0.35655782
