bootcamp_nets.pth (torch, 250887 bytes, 10 tensors)

conv1.weight f4 [6, 3, 5, 5]
00000000: 1cda 52bd 6f73 31bd 052c 213d 29d3 8d3e
00000010: cb70 8a3e 643d 41be c5d5 ccbd 1630 5f3e
00000020: b043 993e 3887 b53e 8b88 0fbd 4bd5 5ebd
00000030: c020 713d 7c4d be3e 96f7 a53e 856c 8ebc
00000040: f35e 39bd a653 4d3d 3812 ac3e acdd 003f
00000050: 1ac6 b53d 247c a33c cd29 483e 35bd 4b3e
00000060: e8b0 8a3e b6d2 14be 32e9 79be 119f 943d
00000070: e1d8 083d d720 973d 31c9 23be e1ce a4be
00000080: 05da e1bc 1600 6b3e c088 593e 1832 82be
00000090: bed1 8fbe 7f47 09be cb04 863e ed16 343e
000000a0: 516c 52be 1065 9bbe beb6 80b9 0aed 5e3e
000000b0: e590 ae3e d4c1 803c f076 75be bb37 a4bd
000000c0: 936f 4e3e d732 b73e 636b e1be 45eb 60be
000000d0: d0d0 2cbe 6bb5 ecbc f577 08be 6c3e b7be
000000e0: dee0 d0be 1090 b9bd b481 1cbe 7c9b 213d
000000f0: 77d3 b4be 4ff8 f1be c818 dfbd b1e0 c43d
00000100: 3a81 80bd f058 89be 7206 afbe 5c84 9bbe
00000110: 9f16 52bd 1aad c23d bd8e 85be 6d10 b0be
00000120: 942d 65be 7bf7 8fbd 81fa 2d3b 061d c43e
00000130: a829 b43e cfbf b53e 854e 933e fa9b 3b3e
00000140: a49c 743e 8576 d43e a396 cb3e 063c 813e
00000150: eb22 cd3e da64 613e d268 bb3e 3145 b63e
00000160: 348d 993e d53d a83e ff2d 653e 09ad 0d3e
00000170: 4ecb 733e 780e 243e c55a 053e 46a6 5e3e
00000180: fca0 ed3d 20ab 823e 8320 613e e6e1 3a3e
00000190: 0a7f 3bbe 99f3 6cbe 4d59 8fbe e36e a4bd
000001a0: 72e2 5dbd 0575 75be dc33 9ebe b230 4ebe
000001b0: ff4a 4cbe 02e6 65be 1aa7 8abd e09a 3cbe
000001c0: a27b 55be 1a25 33be 5104 81be 02c5 7cbe
000001d0: a568 8dbe 7434 86be 10e1 74be 5e37 91be
000001e0: d814 acbe 50b3 85be 035b a0be 0a4e adbe
000001f0: c572 67bd 4d48 d1bd cc5d b6bd b7cf b43d
00000200: 891b d63c 6edb df3d f6d4 5e3c 588b 95bc
00000210: 45bd 963c 6b9b abbc db6c 08be 40d2 b4bd
00000220: 3008 f7bb 6c12 e0bd 339d ebbd fceb 9d3d
00000230: 4c86 c2bd 78d8 2bbe 394a 72be 7c3b e0bd
00000240: 48ba 563c 2d1e 41be 403a 61be 2b3a 3cbe
00000250: cba4 b53b 0337 d13c 1264 97be d99f b4be
00000260: d012 d7be 6247 a0be 7d91 10be 1f10 40be
00000270: 53e1 9abe 416e 84be 55ef afbe bd58 c1be
00000280: 1e8c 8d3d 0db3 5a3d 5540 423e 516a 513e
00000290: ef45 1b3e 532a 3c3e acc1 e63e 8cb9 dd3e
000002a0: 1678 c63e e1cb 773e 9a96 813d d8c3 5e3e
000002b0: faf4 973d c857 953d 4304 6c3d d532 88be
000002c0: 6696 9ebe 46e5 c5be a1d7 83be 5928 1bbe
000002d0: 160e c5be bce3 e5be 66aa dabe c164 dcbe
000002e0: 107a 8cbe 735a 55bd c177 e93d 2960 2a3e
000002f0: ea1a 393e 742b 0a3e cb9a 073e 7689 cb3e
00000300: 2a85 e73e b637 aa3e d562 793e c4d0 483e
00000310: eaad f83c bf5b 8a3d 61cc f13d ace4 5f3d
00000320: 135b 50be 2483 84be 9450 65be 784e 3ebe
00000330: 614e e5bd c49c efbd 9eaa 3dbe 796d d1be
00000340: 9f72 c1be 597c 60be 3eba 96bd 641a 4f3e
00000350: c7d7 603e 284b 3c3e 0bc5 25bd 9cc4 583e
00000360: a5ff 673e 9679 8b3e 8337 623e 3b59 203e
00000370: dd9c 443e 3f0f 8b3c bc5d c23d 5765 b83d
00000380: 1e4a 363e cd9b 63bd 3130 7c3d 1738 fabd
00000390: 7225 2f3d d426 efbd 4e91 fe3d 7d31 cf3d
000003a0: a734 903d 4378 04bc 304e 14be 90f3 2e3e
000003b0: 4282 c53d 447e 863e a688 723e a988 fcbc
000003c0: e44d b33e d19b 0f3e 67dd 983e 0636 073e
000003d0: 6d26 1b3e 1101 eb3e 79d6 943e ce3a 8d3e
000003e0: 86e2 203e a7c8 d03d a144 683e 65b8 833e
000003f0: b4d5 393e f6f5 2e3e a677 bf3d 7e23 433e
-0.051477537 -0.043322977 0.03934862 0.27700165 0.2703918 -0.18871075 -0.10001711 0.21795687
0.29934454 0.35454726 -0.035042327 -0.05440263 0.058869123 0.3716849 0.32415456 -0.01738573
-0.045256566 0.0501286 0.3360765 0.50338244 0.088756755 0.019956656 0.19547196 0.19896396
0.27088094 -0.14533505 -0.24405363 0.07256902 0.033409957 0.073793106 -0.15994717 -0.32189086
-0.02756978 0.22949252 0.21243572 -0.25428843 -0.28089708 -0.1340618 0.26175532 0.1758687
-0.20549132 -0.30350542 -0.00024550216 0.2177011 0.3409492 0.015717424 -0.23971152 -0.08018442
0.2015975 0.35780975 -0.44027242 -0.21964748 -0.1687653 -0.0288951 -0.1332701 -0.35789812
-0.4079656 -0.09060681 -0.15283853 0.039454922 -0.35317585 -0.47259757 -0.108933985 0.09613169
-0.06274648 -0.26825666 -0.34184605 -0.3037442 -0.051291104 0.09505673 -0.26085463 -0.34387532
-0.22380668 -0.07029625 0.0026547017 0.38303393 0.3518803 0.354979 0.28770843 0.18321219
0.23887879 0.41496673 0.39763364 0.25241107 0.40065703 0.22011128 0.3660341 0.35599664
0.29990542 0.32859674 0.22380827 0.13835539 0.23808023 0.16021144 0.13022907 0.21743116
0.11602971 0.25521183 0.21985058 0.18250236 -0.1831018 -0.231398 -0.2799782 -0.080289625
-0.054171033 -0.2397042 -0.3089894 -0.20135763 -0.19950484 -0.22451022 -0.06770153 -0.18418455
-0.20847943 -0.17494622 -0.25198606 -0.24684528 -0.276189 -0.26211894 -0.2391398 -0.28362554
-0.33609653 -0.26113367 -0.31319436 -0.33848602 -0.056505937 -0.102188684 -0.08904609 0.08828681
0.026136177 0.10930525 0.0136005785 -0.01825492 0.018400798 -0.020948133 -0.13322775 -0.088291645
-0.007538818 -0.10941014 -0.11504593 0.07711026 -0.09498271 -0.16781795 -0.23661126 -0.10948846
0.013105936 -0.18859167 -0.21994877 -0.18381564 0.0055433265 0.025538927 -0.29568535 -0.35278204
-0.4200654 -0.3130446 -0.14118 -0.1875615 -0.30250034 -0.25865367 -0.34362283 -0.37763014
0.06911491 0.053393412 0.18969853 0.20450713 0.15163396 0.1837552 0.45069635 0.43305624
0.38763493 0.24198867 0.06327553 0.21754396 0.074197724 0.072921336 0.05762125 -0.26601282
-0.3097412 -0.38651484 -0.2575045 -0.1515211 -0.3848731 -0.4490031 -0.4270813 -0.4304562
-0.27436876 -0.052088212 0.11399794 0.16638245 0.18076673 0.13493139 0.13242643 0.39753312
0.45218784 0.3324563 0.24354108 0.19610888 0.030356366 0.067557804 0.1180656 0.054661438
-0.20347242 -0.25881302 -0.2239402 -0.18584621 -0.1119659 -0.116998225 -0.18522117 -0.40903834
-0.3778276 -0.21922435 -0.07359742 0.20224911 0.21957313 0.18388045 -0.040471118 0.2116875
0.22656114 0.272412 0.22091489 0.15659039 0.19200464 0.016975043 0.09490535 0.09003704
0.17801711 -0.055568505 0.061569396 -0.122177295 0.04276032 -0.11677328 0.124300584 0.10116861
0.07041293 -0.008085313 -0.14482951 0.17085099 0.09643985 0.26268208 0.2368494 -0.030826883
0.35020363 0.14024283 0.29856417 0.13204202 0.15151377 0.4589925 0.2906988 0.27583927
0.15711412 0.101945214 0.2268243 0.2572662 0.18147928 0.17086014 0.09348993 0.19056508

conv1.bias f4 [6]
00000000: ab64 b23e 5b62 16be 8b23 103c afda c2be
00000010: 2b63 b33c 6fe9 81bf
0.3484243 -0.14685957 0.008797537 -0.38057467 0.021897873 -1.0149363

conv2.weight f4 [16, 6, 5, 5]
00000000: 2231 88bc dcca cbbd 1829 f7bc 5f36 09be
00000010: 8dda e9bd efaa 463e 2930 74bd 4061 8fbc
00000020: 3634 82bd 85ba 83bc 457b 143e 91b4 aebd
00000030: 8337 62bd 9b24 1cbd 39b7 21bb 4f60 81bd
00000040: 4d36 34bc 32eb dbbd 74ab ec3c f04a d03d
00000050: cb59 6abd 829f 093d c606 d83b 97d6 4cbc
00000060: f3d2 753e 25a0 56bd d7f7 a9bd f03e c9bc
00000070: 230f c5bd 705e 15bd 1af9 c4bd 6fc3 863c
00000080: 1f6b e6bd 8a06 73bd afd2 ea3c a7c8 56bb
00000090: 886a 03bc 418f 833c 2509 a63c 9bb3 cabc
000000a0: f1a0 61bc 973d ce3d f01d 95bc e9b6 b73d
000000b0: 4fc5 abbd 85e2 f5bc d368 b93c 8316 ca3c
000000c0: eaeb 48bd 47a7 86bd 030b a33d c62e 8f3d
000000d0: 5b67 81bc 5a19 6ebd c4bd 2f3d 1290 96bc
000000e0: 764b 703d 63a9 323d e8ee cabd 9f58 ebbc
000000f0: 6ffd ea3d 4792 b93d 30ef 1dbc 59e6 f43d
00000100: 05ea 4b3e 1443 15be b2af 00be cb1a 993c
00000110: e1c2 0abe 25ee 6d3d 47f4 753e 01ca 983e
00000120: 4a11 993e d5a2 4b3e 3290 9f3c 2192 e13c
00000130: f9d2 c83d 0c30 ef3d 70ef fa3d 7f36 033e
00000140: 0d92 f53d 80d6 60bd c42e 473d 4ba4 c23c
00000150: 1ffa c63d edf4 1b3d 7ef8 dbbd 5278 b7bd
00000160: 6feb 8e3c 153f 73bd ba16 8bbd f688 46be
00000170: a9d0 22be 087c 21be d214 f9bd 9861 20bd
00000180: 8c9f 30be 6be3 cebd 6750 a8bd b2cc 15be
00000190: 17f4 1ebd b08f 12b9 41e9 afb9 4e06 eebc
000001a0: 5bd6 27bd 32c0 6a3d 9cb3 3f3d f1bc 863d
000001b0: 195a 1abd 69e4 d7bc f309 80bd d2fd 263d
000001c0: 7413 923d 461a 06bd 9009 fdbb 8b02 1cbd
000001d0: 95b9 883c c104 803d abfe 9dbd ba40 a5bd
000001e0: 36e0 b7bb c5fc 913d 2574 96bd a8a1 1f3d
000001f0: e570 f03c e8e9 a13e b7b1 c73e 3414 bc3e
00000200: 2d2c d13e 9df5 c13e d208 9bbd 9dba 123d
00000210: 28f1 bb3d eeb0 813d 0623 39bd 3c0d 3dbe
00000220: 5695 37be 73f4 b1bd e50a 06be e3d1 8bbe
00000230: 865d 47be 41ef 52be 7abd 27be 2b05 20be
00000240: 62f6 83be 8799 7abe afff c0bd 739f cabd
00000250: d926 bebd b642 61bd 7d6d ce3d df72 a4bd
00000260: f240 07be 3357 c13d 3ac3 173e 089f ce3d
00000270: 41c3 08bd b479 09be dd2f 14bd 5753 233e
00000280: 91a4 343e f259 95bd 73e5 41be 4b5d a93d
00000290: 0672 d33d 468f 503e 6253 0a3d 7915 f9bd
000002a0: 8ff8 bc3d fb31 2a3e 5029 3b3e 3f9f acbd
000002b0: 95db 86bd fa22 27bd 4941 033e a0f1 66bc
000002c0: 08be 98bd ce00 a43d d347 24bd 3fcf 91bc
000002d0: 0304 4f3d 42b4 abbd a2d8 613d 4f44 5c3d
000002e0: b966 4d3d 1c7a 7c3c 7548 c43b 425e db3c
000002f0: 5dc6 33bd dd07 bebb f234 27bd e0c5 51bd
00000300: d59f d6bd 11bb 043a 0941 523d e93b e03a
00000310: 6394 9ebd dc13 3f3d d3f8 10bc ba92 0abd
00000320: dabd 053d d11a 8c3d 91c8 f7bc e18b 813d
00000330: db98 4dbd c301 893d 9c3b 023d d24a e23c
00000340: c215 09bd a5ad 24bd adab 1abc 7358 b33d
00000350: b781 183c b804 8ebb 6818 c2bd 526f cabc
00000360: 5f30 7dbd 1445 383d 59f6 6dbd 8957 99bd
00000370: 5b2d 34bb 6a27 dabc 1eea 15bc 6a6e 4bbd
00000380: 97f6 fa3c ebaf b6bd b015 6b3d 35c8 14bd
00000390: c054 cabc 4d9a c2bc 009a 4abd fc17 dbbb
000003a0: 0a50 0cbd 6bda d0bd 94a3 b03b c89c 0ebe
000003b0: f76f ee3c a099 51bb f01c 8bbd 59c8 d9bc
000003c0: 635e 1ebe 2c7e d93c 4c46 643c 0f54 c8bc
000003d0: 5cf1 c1bd 0812 1bbd 4ea1 1b3d a26e 2f3d
000003e0: 75d2 a9bd 860c f6bd 9af1 1ebd 63bf 8bbc
000003f0: b85a 93bb 68d2 823c a3fa c7bb 0c24 b33c
-0.01662499 -0.09950802 -0.030170962 -0.13399647 -0.114186384 0.19401143 -0.05961624 -0.017502427
-0.06357615 -0.01608015 0.14500149 -0.08530534 -0.05522872 -0.038120847 -0.002467586 -0.063171975
-0.010999274 -0.10738219 0.028890349 0.10170543 -0.05721454 0.033599384 0.0065926043 -0.012502334
0.24006252 -0.05239882 -0.08299225 -0.024566144 -0.09622028 -0.036467016 -0.09617825 0.016450612
-0.112509005 -0.059332408 0.028664915 -0.0032773407 -0.0080210045 0.01605952 0.020268032 -0.024743846
-0.013771282 0.10070341 -0.018202752 0.08970434 -0.08387243 -0.03001524 0.022632992 0.024668938
-0.04905311 -0.06574874 0.07961085 0.06991343 -0.015796354 -0.058129646 0.042905584 -0.018379245
0.058665715 0.04361857 -0.09908849 -0.028728781 0.1147412 0.09061103 -0.009639546 0.11957998
0.1991349 -0.1457637 -0.12567022 0.018689534 -0.13550903 0.05808844 0.24018966 0.29841617
0.29896003 0.19886334 0.019477937 0.0275355 0.09805865 0.11679086 0.122527 0.12813757
0.119907476 -0.054892063 0.048628584 0.023759982 0.097156756 0.038075376 -0.107407555 -0.08958496
0.017446248 -0.05938633 -0.06791444 -0.19388184 -0.1589991 -0.1576997 -0.12162174 -0.039155573
-0.17248362 -0.1010197 -0.082184605 -0.14628866 -0.038807 -0.00013977173 -0.0003355239 -0.02905574
-0.04097591 0.057312198 0.04680215 0.065790065 -0.03768358 -0.026354032 -0.06251898 0.040769406
0.07132617 -0.0327399 -0.007722087 -0.038088363 0.016690055 0.06250907 -0.0771459 -0.08068986
-0.005611445 0.0712829 -0.073463716 0.038972527 0.029350707 0.3162377 0.39002773 0.36734164
0.40854016 0.378827 -0.07570042 0.0358225 0.09176856 0.06332575 -0.045199417 -0.1846208
-0.17928061 -0.08689203 -0.13090093 -0.27308568 -0.1946927 -0.2059908 -0.16380873 -0.15626971
-0.25773913 -0.24472629 -0.09423768 -0.09893694 -0.09284753 -0.05499526 0.10079477 -0.080297224
-0.13208368 0.0944046 0.14820567 0.100889266 -0.033389334 -0.13425332 -0.03617846 0.1594976
0.17640902 -0.07292546 -0.18935184 0.08269747 0.103244826 0.20367154 0.033770926 -0.12162299
0.09227096 0.16620629 0.18277478 -0.08428811 -0.06584851 -0.04080484 0.12817873 -0.014095694
-0.074581206 0.08007966 -0.04010756 -0.017799018 0.050540935 -0.08383991 0.055138238 0.05377608
0.050146792 0.0154099725 0.005990083 0.026778344 -0.043890346 -0.005799277 -0.040821977 -0.0512141
-0.10479704 0.00050632755 0.051331554 0.0017107698 -0.07743146 0.0466498 -0.008848387 -0.033831336
0.03265176 0.06841052 -0.030247005 0.06325508 -0.050194602 0.06689789 0.03179513 0.027623568
-0.033468015 -0.040204663 -0.009440345 0.08757105 0.00930827 -0.0043340586 -0.094773114 -0.024711285
-0.06181371 0.044987753 -0.058096264 -0.07487399 -0.0027492854 -0.026630122 -0.009150056 -0.049665846
0.030635161 -0.089202724 0.05739373 -0.036323745 -0.024698615 -0.023755217 -0.049463272 -0.006686209
-0.03425602 -0.1019791 0.005390594 -0.13926995 0.029106123 -0.0031982437 -0.06792629 -0.026584791
-0.15465693 0.026549421 0.013932776 -0.024454145 -0.09469864 -0.037858993 0.03799563 0.042830117
-0.082920946 -0.120141074 -0.038804628 -0.017059034 -0.0044968985 0.01596947 -0.0061028763 0.021867774

conv2.bias f4 [16]
00000000: 7d94 a1be 4000 84bc d2e1 e13b 2c39 1bbe
00000010: a875 e33d a638 373e 2736 2e3c 8c63 ea3c
00000020: 173f 44bd e601 24bb aeb3 49be 3c82 823e
00000030: 6345 333f ab5a 2c3e 2123 70bd 930e 26be
-0.315586 -0.0161134 0.006893375 -0.15158528 0.111064255 0.17892703 0.010633028 0.02861192
-0.04791173 -0.0025025546 -0.19697449 0.25489986 0.7002775 0.16831462 -0.05862725 -0.16216497

fc1.weight f4 [120, 400]
00000000: 803d d13d c897 9d3c 3e1e 2fbc bd8b 513d
00000010: 1542 a23c 1bbb 4abd 02ae 8c3b c18b ad3c
00000020: 19a5 3a3d 6f48 833d 657b e2bd 1528 053d
00000030: 7027 4c3d dfc5 e337 adbe acbc 073a 0bbe
00000040: 14e1 39bd b46a 4abb 9cd5 1e3d 6484 fbbd
00000050: d5a1 a4bd a7c0 c6bd 261b 30be 9f42 0dbe
00000060: 9346 02be 7549 4abd fa4c 00bd 058b 693c
00000070: ca02 2fbd c1e0 e5bc 2380 12bc 068b fe3c
00000080: f8d1 5cbc 9307 2bbd 599e 6a3c 67ed 6bbd
00000090: 8720 883b 5d99 80bb e099 1e3d c4c7 683c
000000a0: c8ea 203c ac8c fa3c 0c4c 37bc 789a 8a3c
000000b0: 4106 043c 0484 abbc baa7 703d 464b 143d
000000c0: f086 21bc 8027 04bd f38e 483d b741 623d
000000d0: e31d 973a 78c2 96bb f4a0 5abd 954e 96bc
000000e0: 9c28 3cbc a926 013c 9a1a 81bc 177c ff3c
000000f0: 884b d7bc 91d8 733d a0c2 bfbc 9219 0b3d
00000100: 3434 0cbd 06f7 91bc 1c80 26bd 0e6a 1c3d
00000110: 052d 23bd b11e 38bd a9ae a33c bab8 d43c
00000120: 125a 2fbd 3049 9b3c c27a 73bb 49a3 11be
00000130: 4c92 53bd 1c61 86bd d0ec 23bd 9474 ec3c
00000140: 86e7 d1bd 8ee0 7bbd 7877 713d 581c 1fbd
00000150: e04f 463d 0fcd 0cbe 83f5 b9bd 04d2 d63d
00000160: 0919 713d 3b78 903d 02f5 81bd 396d a1bd
00000170: 2fc4 fd3d 8254 883d 814f 0ebc fe3c 7bbd
00000180: 51de c1bd ab5c cdbc 0166 a4bd 073c e5bd
00000190: effa 103c 1bdc 503c 1974 3abb 35e9 dbbc
000001a0: 8974 c0bc f6a3 4f3d ab51 c43b 1ed4 163c
000001b0: eed7 e2bc fd8b 6d3d 2b5d 90bc 364f ffba
000001c0: 31b4 0c3c d01f ea3a cf2e 07bd c0f9 913c
000001d0: 9f98 07bc 00ce 9bbc 6faa fabc 1d14 f83c
000001e0: c606 423d 8e3e 283d 99e8 bdbb 54b7 4b3c
000001f0: 4992 f13c 57ac 6f3c 791b 043d 1814 99bc
00000200: 3d7e 51bb f310 143c dde4 72bd ef9e b53b
00000210: c850 6c3d e440 a53d c26a 57bd d9d6 d7bd
00000220: c96b d1b9 0eb3 353d 9cbe 93bb 02bd 88bd
00000230: bc6a 1dbc 38f0 61bd e3b8 213c a699 f4bb
00000240: e776 cabd 2595 26be afa0 02be 8a6d c3bd
00000250: e882 b4bd 5994 c6bd 77b5 31bc f29f b03c
00000260: 31fc ec3c 2b82 5b3d c10d 87bb 900a 023d
00000270: ef42 903c 6ed9 1abd 41c3 3abc f9e0 1e3d
00000280: 09ee bd3b beca f3bc ad01 b3bc 38c0 6abc
00000290: 58fa 3d3b 43d3 213d 54ec a5bc 34ec a0bc
000002a0: d99c 5fbd 1c76 943d e6ed 963c 01e2 b53d
000002b0: 082a a9bb db1d 913d d952 723d 2730 823d
000002c0: 2089 edbc 846e 623c a948 0dbd 2326 c9bd
000002d0: 93cb ad3c 6575 2dbd c8bc 31bc fda5 bebc
000002e0: be5d b8bd 212e 9bbd 179f b2bd afb8 a93b
000002f0: 8a32 c63c 1e87 f6bc 7378 d2bd 417e 43ba
00000300: 426c c03c 0a12 2f3d dca9 a33c c817 82bd
00000310: 5a01 16bc 4a79 de3d d481 403d 9875 9a3b
00000320: 9038 2fbd 74d5 973c e8be bf3b 358f 373d
00000330: f419 f33b ac4d 2f3d 2a20 23bd d1f0 b1bc
00000340: 6026 7ebc b146 7dbb 808b 21bd c5a3 273c
00000350: d0d0 abbc 5f17 ecbc b70f 233d 9fc4 4dbd
00000360: 779b 4a3d 6a4c 92bc a4a4 40bd 15f9 16bc
00000370: 117c dd3b 72b4 0ebd c9ea afbc ce78 f53c
00000380: 5e8e 46bd 0173 3e3c f1eb a8bd 1f28 4ebd
00000390: ac7c 34bd d951 dbbc 42e8 9ebc 6b19 18bd
000003a0: 815d 3bbd 4936 efbc 3ebb 523d 63e0 e93d
000003b0: 9290 6f3c 10d4 d6bc 64bc 9c3c 4bb8 013d
000003c0: 4baf 093e 62d0 013d d008 083c d17d cfbb
000003d0: 80b2 513d 89a7 23bd eaa5 933c 9329 a63c
000003e0: 1e27 7cbc 69dd c23c 6a57 cc3c 061c aebc
000003f0: f9be 23bd 2694 93bc e22b 9cbc c4d0 a13d
0.10216808 0.019237414 -0.010688363 0.051158655 0.019806901 -0.049494844 0.0042932043 0.021184804
0.045567606 0.064103 -0.11058692 0.03250893 0.049842298 2.715265e-05 -0.021087015 -0.13596354
-0.045380667 -0.0030886354 0.038777933 -0.12281111 -0.080386795 -0.09704714 -0.17197856 -0.13794945
-0.12722234 -0.04938646 -0.03132341 0.014254336 -0.04272727 -0.028061273 -0.008941683 0.03107215
-0.013477795 -0.04175527 0.01431998 -0.05759945 0.004154268 -0.0039245323 0.038720965 0.014207784
0.009821601 0.030584656 -0.011187565 0.01691936 0.008058132 -0.020936973 0.058753707 0.0362046
-0.009858832 -0.032264233 0.048964452 0.05523845 0.0011529293 -0.004600819 -0.053376153 -0.018348018
-0.011484291 0.007882752 -0.015759755 0.0311871 -0.026281133 0.059532706 -0.023408234 0.033959933
-0.034229472 -0.017817985 -0.04064952 0.03818708 -0.039837856 -0.044951145 0.019980745 0.02596699
-0.042810507 0.018955797 -0.0037152027 -0.14222445 -0.05165319 -0.06561491 -0.040020764 0.028864183
-0.10249238 -0.06149345 0.058951825 -0.03884539 0.04841602 -0.13750099 -0.09080031 0.10489276
0.058861766 0.07054182 -0.0634556 -0.07882161 0.12390935 0.066567436 -0.008685947 -0.061337464
-0.094662316 -0.025068602 -0.08027268 -0.1119309 0.00884889 0.01274779 -0.0028450547 -0.0268446
-0.023493068 0.050693475 0.005991181 0.009205846 -0.027690854 0.05799483 -0.017622551 -0.0019478563
0.008587883 0.0017862264 -0.033003625 0.017819285 -0.008276134 -0.019019127 -0.030598847 0.030283028
0.04736974 0.04107528 -0.00579555 0.012433846 0.0294887 0.014628491 0.032252762 -0.01868634
-0.0031966113 0.009037244 -0.059300292 0.005542628 0.057694227 0.080690175 -0.052592047 -0.10539026
-0.00039943893 0.044360213 -0.0045088064 -0.066766754 -0.009607967 -0.05516073 0.009870741 -0.0074646054
-0.0988596 -0.16267832 -0.12756608 -0.09542377 -0.08814031 -0.09696264 -0.010846487 0.021560643
0.028928848 0.053590935 -0.0041215126 0.031748354 0.017610041 -0.037805013 -0.011399091 0.03878877
0.0057961983 -0.029759761 -0.021851385 -0.014328055 0.0028988328 0.039508116 -0.020254292 -0.01964388
-0.05459294 0.0724909 0.018423986 0.088809974 -0.005162481 0.070857726 0.05916104 0.063568406
-0.02899605 0.013820294 -0.034493122 -0.09821727 0.021215236 -0.042348284 -0.010848232 -0.023272509
-0.09002255 -0.07577158 -0.0872175 0.0051794867 0.02419402 -0.030093726 -0.1027688 -0.0007457473
0.023489121 0.042741813 0.019978456 -0.06352192 -0.009155596 0.10862978 0.046998814 0.0047137253
-0.04277855 0.0185344 0.005851615 0.044814307 0.0074188653 0.042798683 -0.039825596 -0.021721276
-0.015512079 -0.0038646872 -0.03943968 0.010231917 -0.020973593 -0.028819738 0.03980991 -0.05023634
0.04946467 -0.017858703 -0.047032014 -0.009214659 0.0067591746 -0.034840055 -0.021474259 0.02996483
-0.048475616 0.011624099 -0.08248127 -0.05033123 -0.04406421 -0.026772426 -0.019397859 -0.037133615
-0.04574347 -0.02920069 0.0514481 0.114197515 0.014621871 -0.026224166 0.0191328 0.031669896
0.13445775 0.03169287 0.008302882 -0.006332137 0.05119562 -0.039954696 0.01802345 0.020283496
-0.015390186 0.023787217 0.024944026 -0.021253597 -0.039977048 -0.018014979 -0.019063894 0.07901147

fc1.bias f4 [120]
00000000: 3085 363e 6448 773d dd36 d2bd 2e12 a5bd
00000010: 47ea 84bd 6804 5d3c 3f11 5bbd 8b9f 8dbb
00000020: 3815 46bd d219 adbc 6cc6 22bd 76ed 24bd
00000030: 78ee cbbc 6a02 a2bd d973 96bc 7cb1 593d
00000040: 6438 ad3d 758d d1bc 16e7 69bd 8b7a b63d
00000050: c4c9 a63c 129e e7bc 6321 e4bd 9968 89bd
00000060: d312 91bd d147 733d 6f45 b03c ba58 bd3c
00000070: 833a 6fbb 043b cb3b 634e f9bc a291 233e
00000080: d90a c53c d8ae 9c3d f7a8 23be d4fe 4d3e
00000090: 8515 79bd 5ce5 a23d 5b85 8ebd 8eeb c3bd
000000a0: 7e5d 253d c1d2 1c3e 49b4 1f3e fadd 44bd
000000b0: 7a9c 5abd beee 633c 4e67 1c3c 9afb 03bd
000000c0: a219 0fbd 1658 d6bb af89 d6bc 9c85 4c3d
000000d0: 6f9d 023a c004 da3e 7dd0 fc3d 6e6e 053e
000000e0: 544b 843d 7cc4 80bd f74d 29bd 3479 4e3d
000000f0: 4f51 02bd ea02 5d3d 9021 003e 259e 51bc
00000100: ed56 de3d 69c8 82bd 338f 12be 0dc4 8d3c
00000110: 22d6 063e abcd 8dbc fd0e a43d db48 773d
00000120: 0022 2ebd f56d 66bc ee94 7f3d 3902 f6bb
00000130: 1c29 073d ca5d ad39 9443 573d a680 483d
00000140: 936a 0ebe 7b1a 22bb c6cf 16bd 970d f2bd
00000150: 91e8 6bbc 50cd bc3c 97a9 84bc e49a 19bd
00000160: a930 99bd d7e4 113e 7a46 fb3d d013 4d3d
00000170: ee26 683c 002c 573a 90dd c43d 3dd8 8f3d
00000180: c844 843d f9ca 0f3e 59b4 79bd ae81 4a3d
00000190: 241a b5bd 7631 4cbd f870 d83d 8e32 59bd
000001a0: 2b64 6cbd a3d6 003e ef33 2d3b 39a6 06be
000001b0: 9d92 aa3d 15ce 143e 81c3 113d 27cb 193e
000001c0: 749f 823d 7d88 f43d 98c7 093e fb09 613c
000001d0: f96e 0c3e 5fbe 863e 8a5a 0fbc 3ba4 ad3d
0.17824244 0.06037177 -0.102643706 -0.08060108 -0.06489997 0.01348982 -0.053483244 -0.0043219975
-0.04836008 -0.021130476 -0.03974001 -0.040265523 -0.024893984 -0.07910617 -0.018365787 0.053147778
0.08458021 -0.025580147 -0.057105146 0.08910092 0.020359881 -0.028273616 -0.111391805 -0.067094035
-0.070836686 0.05939466 0.021517484 0.023113597 -0.0036503382 0.0062021036 -0.030432886 0.15973523
0.024053024 0.07650536 -0.15982424 0.2011674 -0.06081154 0.07953903 -0.06959029 -0.09566413
0.040372364 0.15314771 0.15596117 -0.048063256 -0.053371884 0.013911901 0.009546114 -0.032222368
-0.034936555 -0.0065412624 -0.0261887 0.049932107 0.0004982566 0.4258175 0.123444535 0.13030407
0.0645968 -0.062874764 -0.04133412 0.050408557 -0.031815823 0.053957857 0.12512803 -0.012794052
0.108564235 -0.063858815 -0.14312439 0.017305398 0.13167623 -0.017309984 0.08010671 0.060372215
-0.042512894 -0.014064302 0.06239789 -0.007507589 0.03299819 0.0003306701 0.052554682 0.048950814
-0.13907842 -0.0024735022 -0.036819242 -0.11818998 -0.01439871 0.02304712 -0.016194148 -0.03750123
-0.07479984 0.14247452 0.12269302 0.050067723 0.014169438 0.00082081556 0.09612572 0.07023666
0.064584315 0.14042272 -0.06096301 0.04944008 -0.088428766 -0.049851857 0.10568422 -0.05302673
-0.057712715 0.12581877 0.002642866 -0.13149346 0.083287455 0.14531739 0.035586838 0.15018903
0.063780695 0.119400956 0.13455045 0.01373529 0.13714208 0.26317117 -0.008749614 0.0847859

fc2.weight f4 [84, 120]
00000000: bb21 d6bd 4393 4abd b82d bfbc 8d4f 103d
00000010: 7b54 f2bc 5675 febc eb1c e4bc 63d8 743d
00000020: 19e7 0bbc 876c 72bd 8367 81bd e4b4 e03b
00000030: 4411 913d 8dfe 493d eb6c 04bd 3c83 033c
00000040: 3545 acbd 478b aabd 1d65 cabc 258e c0bd
00000050: cd48 8a3d d5c0 adbd 67f9 54bd 1ffd 8b3d
00000060: 3b15 fa3c c4cd 6d3d d86d 86bd 22b2 493d
00000070: 1fca 05bd d79a f5bc 06ca 6d3d 1af9 693b
00000080: 1b10 4f3d 8965 ecbc 6837 473d 7449 33bd
00000090: f10a a5bd c321 1fbd aaef 70bd 0dd0 a1bb
000000a0: 5509 a33d 0dca 82bd bf75 a9bd bab7 ec3c
000000b0: 3ec0 23bb 6392 353d c2aa a0bd d6e8 bc3a
000000c0: 71cb 63bd 41bf a0bd dfed e0bd a6a6 433d
000000d0: 02fe 313d db45 043d a505 89bd 7b6d ad3b
000000e0: 83ca 4dbd 6cd8 743d ceca 373d 6265 633d
000000f0: a432 99bb 70a9 923c c407 7fbb 0fde 24bd
00000100: 01b7 afbd e376 ef3c 74de 2fbd 2303 84bd
00000110: 1e0d ba3c 1c45 973d 20ff 1abd e3bc 16bd
00000120: cf4f 493d 3c17 6a3c f9d3 243d 32f5 e1ba
00000130: 6480 18bd 8508 18bd d73b c43a 2b23 84bd
00000140: d0b6 83bd d367 98bc f595 083c d06d a53c
00000150: 6d03 d3bc 578a 403d 9fd0 2d3d ba21 823d
00000160: 7e2c f3bc 968e bcbc 38ce 87bd c29b b53c
00000170: 0a1e 753a fbdb a2bc 4760 afbd d664 00bd
00000180: c077 82bd bbd4 153b b37a 9e3d 71c2 a53d
00000190: 6113 1cbd 09b3 5a3b 9062 653d bc81 7abd
000001a0: 0ac6 b73c b5d1 bebd 3ecf b8bd d59e a3bc
000001b0: 236b 8d3d 220d 8a3d 3649 23bd 6ce1 57bc
000001c0: d92d 4fbd 56f1 a03b 25df 0b3c 612f 6e3d
000001d0: 615c bf3c 77f2 403d ffb8 aabd e9a3 88bb
000001e0: 7b30 c4bd 474c 4ebd db0b afbd a6ef 833d
000001f0: d22d 7c3d 3631 6c3d 9a2a 853b d8bd 3cbd
00000200: 0152 0f3d 7dd6 92bc 9056 32bd ec72 56bd
00000210: 4847 f53b 31cb a93c 73c8 233d a8d9 f53d
00000220: af68 613c 1fab 9d3d da4a f03c 429e 8e3c
00000230: 18a3 f63c b110 64bd 511b dcbc 037b d83c
00000240: fb4a 353d fa8e 9bbd 852e 5bbd 85b6 17bc
00000250: 3950 f1bd 2c10 3bbc 9391 8c3d f2f8 8a3d
00000260: a812 babd f8cb c5bd 07f8 b2bd 953d b33b
00000270: 2bcb 9f3d 41a2 40bd cb79 f1bc 31c2 96bd
00000280: 6929 6cbc bba3 d13c 6487 e93c ee3a e33b
00000290: f3ea c3b9 3bf6 02bc d012 b0bc ebf2 663d
000002a0: 5429 56bc a001 50bd ccd5 1c3d 3ea9 9d3c
000002b0: 4efe c23d 9f35 983d 4482 64bc 10ef 92bd
000002c0: bef7 1d3d 6c0e a1bc 1ca9 1d3d f500 463c
000002d0: c7a7 adbd 9213 65bc 1642 cebd 66ea fabc
000002e0: 91a1 ccbd d3ac cabd bfea 483d 3761 6f3d
000002f0: 6ea5 8dbd d6cc 8ebd c7cd e73d aa13 bd3d
00000300: 19e2 e33d 97c0 a43c f764 793d fae4 0e3c
00000310: f7e3 79bd 7640 08bd c9b9 0ebe a91b 4d3c
00000320: 6207 3e3d bc74 4d3d 85f6 0dbd 887d c3bb
00000330: 73b6 a43d 199c 8d3c 45d2 d93d 1457 30bd
00000340: 07e4 a53d 60ce 85bb e6a5 933d 66c8 d03c
00000350: cb24 383d a8ea 74bd a37c 0c3c 3aa7 823d
00000360: c81e 14bc c65a 7bbc f71d f43c c8fc 24bd
00000370: dbd1 d03d 4c27 5abd 6a2d 90bd 707b 39bd
00000380: ad7c a13d f54f 6cbd f453 9f3d cc8a c4bc
00000390: e0ab acbd 9a9f d7bd b656 4bbc efc8 21bc
000003a0: ef90 713c bf18 abbd 384d 623d 3b95 80bd
000003b0: bcce 0ebd ed95 e73c da8b 32bd c219 51bd
000003c0: 7a61 a53c e2da 553d bd9f a33d eee3 9fbd
000003d0: f622 5bbc 8d01 ae3c 2782 abbc 15c0 efbc
000003e0: b284 b0bd 0297 a83d 3305 6cbd a440 583d
000003f0: 6d70 823d 0333 f3bc 97af 9a3d c7f4 adbc
-0.10455652 -0.049456846 -0.02333723 0.035232116 -0.029581299 -0.03106181 -0.02784582 0.059776675
-0.008538985 -0.05918553 -0.063185714 0.0068575013 0.07083371 0.049315024 -0.032330435 0.008026894
-0.08411638 -0.08327346 -0.024706418 -0.09402112 0.06752167 -0.084840454 -0.05199566 0.068353884
0.030527702 0.05805756 -0.0656392 0.049242146 -0.03266346 -0.02998106 0.058053993 0.0035701455
0.05055247 -0.02885701 0.048636824 -0.043771222 -0.080587275 -0.038850557 -0.05882231 -0.0049381317
0.07960764 -0.063861944 -0.082744114 0.028896201 -0.0024986411 0.04432906 -0.078450695 0.0014412652
-0.05561394 -0.07848979 -0.1098287 0.04776635 0.04345513 0.032293182 -0.0669053 0.005292592
-0.05024196 0.05977671 0.044871144 0.055516608 -0.0046752263 0.01790306 -0.003891454 -0.040250834
-0.08579827 0.029231494 -0.042936757 -0.06445911 0.022711333 0.073862284 -0.037840962 -0.03680123
0.049148377 0.014287766 0.040241215 -0.0017239212 -0.037231818 -0.0371175 0.0014971447 -0.0645202
-0.06431353 -0.018604195 0.008336534 0.020193964 -0.02575847 0.04700693 0.042435285 0.06354089
-0.029684301 -0.023017209 -0.0663113 0.022168998 0.00093504845 -0.019880285 -0.08563285 -0.031346165
-0.06370497 0.0022862393 0.07738247 0.080937274 -0.03810442 0.0033370873 0.0560022 -0.06115888
0.0224333 -0.09317342 -0.09023903 -0.019973198 0.069052 0.06740786 -0.03986474 -0.013176303
-0.050580833 0.004911582 0.0085370885 0.058150653 0.02335948 0.047106232 -0.083360665 -0.0041699302
-0.095795594 -0.050365712 -0.08547183 0.06442194 0.061567135 0.05766412 0.0040639164 -0.046079487
0.034990314 -0.017924542 -0.043539584 -0.05235569 0.007485304 0.020726772 0.039986085 0.12004405
0.013757869 0.076986544 0.029332567 0.017409448 0.030107066 -0.05567998 -0.026868494 0.026425844
0.04426096 -0.0759563 -0.05351116 -0.009259825 -0.117828794 -0.01141743 0.068637036 0.06785764
-0.0908559 -0.096580446 -0.08738714 0.0054699876 0.07802423 -0.047029737 -0.02947702 -0.07361258
-0.01441417 0.025590768 0.028506942 0.006934515 -0.0003736835 -0.007993276 -0.021493345 0.05638401
-0.013071377 -0.0507828 0.03828983 0.01924574 0.09521161 0.074321024 -0.013947073 -0.07174504
0.038566343 -0.019660197 0.038491353 0.012085189 -0.084792666 -0.013981717 -0.10071199 -0.030629348
-0.09991754 -0.09896245 0.049051996 0.05844232 -0.06916319 -0.06972663 0.11318546 0.09232266
0.11127109 0.020111365 0.060887303 0.008721584 -0.06100842 -0.0332646 -0.13938059 0.012518802
0.04639376 0.050160155 -0.034658927 -0.005965892 0.08042612 0.017286347 0.10635809 -0.043051794
0.081001334 -0.0040834397 0.07209377 0.025486182 0.044956964 -0.0597941 0.008574638 0.06379552
-0.009040542 -0.015341466 0.029799445 -0.040280133 0.10196277 -0.053260133 -0.07039912 -0.045283735
0.07885108 -0.05769344 0.07779685 -0.023991965 -0.0843122 -0.105284885 -0.01241081 -0.009874566
0.0147440275 -0.08354329 0.055249423 -0.062784635 -0.034865126 0.028269732 -0.043590404 -0.051049955
0.020188082 0.052210696 0.07989452 -0.07807146 -0.013375035 0.021240974 -0.020936085 -0.029266397
-0.086190596 0.082319275 -0.057622146 0.05279602 0.063691 -0.02968741 0.07553022 -0.021234883

fc2.bias f4 [84]
00000000: 2b89 e4bc bac0 0dbe 7be3 a33d 78fd bc3c
00000010: 0b13 033d c266 023c 1ea4 f3bc e45c 6b3d
00000020: faee 7abd 523f d13e 6bd7 5dbd b5c7 3e3e
00000030: f1ee 6ebc 9e06 b1bc c599 e03e ec06 9abd
00000040: 7069 e33d cb1b 843d a7dc f9bc 7755 20bd
00000050: 2a61 493e e6a5 ea3b 3a24 0c3e 21f0 043d
00000060: e2ed b1bc 7cde 683d 5f6d 863e d38d 70bd
00000070: 41f7 863d e060 ac3a b98b d9bd ab2f 6fbd
00000080: b13d ec3c b4b3 2c3e 158c 0f3f 8440 bbbc
00000090: 9896 0f3e 618f b23e 84c1 7abc fc27 9fbd
000000a0: 013e cbbd 3826 b63e 497a 41bd 8416 8bbe
000000b0: 820f 80bd d268 07bd 8c4e 823e 2301 22bd
000000c0: 635b 353d 06d5 21be eaa8 22bc 55b7 803c
000000d0: 9c1d de3e ca8b f33d 03cd 2e3e 2fec 373d
000000e0: 700a a5bb 009f 873e 8023 f6bd 4ad4 8bbd
000000f0: 64db bcbd e9c3 9c3d f793 42bb 5914 b63e
00000100: 5085 463d cb91 a53c f787 153e 934b 8dbc
00000110: fd8c 1dbd a3b0 96bd fef9 f93c 7f16 57bc
00000120: fac9 34bb abcc 0ebc 1e54 efbd 7b28 b3bd
00000130: 76e6 7f3e c702 0a3d 350d a63c 2c3a 303e
00000140: 3b87 c6bc d109 87bd 4e0e bc3e 4fc2 3dbd
-0.027897438 -0.1384305 0.08002373 0.023070082 0.032000583 0.00795907 -0.029741343 0.057461634
-0.061263062 0.40868622 -0.054160517 0.1863087 -0.014583335 -0.0216096 0.43867317 -0.075208515
0.11104095 0.064506136 -0.030500723 -0.039144006 0.19665971 0.00716089 0.13685694 0.032455567
-0.021719877 0.056852803 0.2625532 -0.058729004 0.06590129 0.001315143 -0.10622353 -0.05839507
0.02883801 0.16865426 0.56073123 -0.022857912 0.1402229 0.34875014 -0.015304927 -0.07771298
-0.09923936 0.35576034 -0.04723576 -0.27165616 -0.06252958 -0.03305895 0.25450552 -0.039551865
0.044276606 -0.15803918 -0.009927968 0.01571242 0.43381965 0.11891897 0.17070393 0.044902977
-0.0050366446 0.26488495 -0.1201849 -0.068276 -0.09221533 0.076545544 -0.0029690245 0.355624
0.04846698 0.020211121 0.14602648 -0.01724795 -0.038464535 -0.073579095 0.030514713 -0.013127922
-0.0027586208 -0.008715789 -0.11685966 -0.087479554 0.24990258 0.033694055 0.02026997 0.17209691
-0.024234405 -0.06593669 0.36729664 -0.046327885

fc3.weight f4 [10, 84]
00000000: eb97 1abd 4c0a 063c e94a 8fbc a33e cabd
00000010: 0cb1 953c b7a4 5fbd a831 1fbd 0b9d a7bd
00000020: 3d8a fdbd 1b01 fbbd 2947 46bd b10d 44bd
00000030: cee8 84bd dcb5 843d 853a 18be 81c7 a13d
00000040: 95b4 e13d 2ccc 3ebe b58c 88bd 794f 1abe
00000050: 4fc2 d63d a495 303e 6418 0abd b5c2 893e
00000060: 82e7 86bb f483 b7bd 27fb 6d3e 6b41 353e
00000070: cf07 1b3e 5208 6a3c b0e6 cd3d 7f8c a03d
00000080: 35c0 13bd 607c 7b3e 399d 84be fc5b 913b
00000090: 6eb3 18bd 82b8 053e 6f0a 323e cda4 b6bd
000000a0: e170 f9bc 255c 08be ef25 8c3d 8792 e1bd
000000b0: 6418 6dbd ad8b ac3e 42df 08be 4498 ea3d
000000c0: 7932 f93d fcc6 943d 0771 86bb 10eb 32be
000000d0: 3f13 38be 079c cc3d 8b28 b1bd 794d 803c
000000e0: dc82 913d 7995 9bbd 289d 383e d21c 12bd
000000f0: 937a e5bd b685 923d a19f 863d f173 50be
00000100: 00fb f4bd 21de 0ebe 54c6 643e 3677 a43d
00000110: 0fa1 a33c e0a9 283e 1b2e f6bd 2657 3c3d
00000120: 0744 3d3b d4c5 4f3e ac12 223e d3bb 033e
00000130: 5244 a2bc ee7a acb9 330b ed3d 0277 2d3e
00000140: 79f3 53bd b32a 493e 21de 253d 16bd 323e
00000150: 136e 68bd 7822 0d3e 9ed9 09bc 6591 1c3e
00000160: 6fb5 3d3d f833 ff3d b531 e93d 2e23 aa3e
00000170: bdc9 023d aa41 5fbd c31b cc3d 5fa0 a2be
00000180: f1b5 c03b 489d 92bd 8ac9 7cbe e298 9a3d
00000190: bdf4 bdbd 128b dabd c3da 283d a76f 123e
000001a0: a07f 013e 7a9e 26be bb7e 33be 857a 38bd
000001b0: b413 343d 90a1 373d ed8e 23be 8aa7 19bc
000001c0: a707 f0bd 52ce 6c3d 1ef0 9e3e 43fd febd
000001d0: 792e 79bd 120d 3a3e 7110 3dbe 9d25 1cbe
000001e0: 13af 0bbe 7104 96be f804 e03d 59b5 c1bc
000001f0: b8a4 bf3d eb07 63be 7435 b4bc 00a6 2d3e
00000200: ade2 9ebd b442 ea3b aea2 b5bd f625 163e
00000210: 93b6 673d a439 8c3e 42aa b63d 81ba afbb
00000220: 1293 95be e796 03bd 3d9d ffbc 9938 aa3d
00000230: 8960 fb3d 109c 3dbd 3bfc 68bd c7ac 5c3e
00000240: f6da b43d fe21 6c3d fb38 4c3e 112f 45be
00000250: 272f 83be 59d3 0e3e 71d2 f5bd 7310 e8bc
00000260: 7ef1 ee38 dfef ad3c aa61 5bbd afea ce3d
00000270: f266 f1bd bbe9 7c3e d756 f8bd 5adb 97bd
00000280: aec4 c2be 90eb f2bc 6366 593c 2020 2a3e
00000290: f392 abbd 3a3c 033e 021f 853d 893c 03be
000002a0: 6f2e 7ebd 6837 0abd ff07 463c ad6d a5bd
000002b0: 8368 3e3d 9a76 83bd 1931 afbc 6c67 aebc
000002c0: 8715 1ebe 5d54 973e 5fdc f1bd 8611 413e
000002d0: e866 133c 4a13 ad3c 6c71 e33d 21f7 9e3d
000002e0: 76d4 023e 275d 183e b2fb ad3d 10e3 68bc
000002f0: 1ad8 9abd 70f7 75bb b8be 3c3e fdfc 083d
00000300: 4674 1a3e 9bb5 33be ccec c43d 35bf 603d
00000310: 2f06 0dbc f382 a83c b223 8ebd 592c d73d
00000320: 11fe 39be 681f 80bd 7aa5 32bd 5dc7 213e
00000330: 5074 963c ffdc 843d 0698 153e 9e7a 02bb
00000340: e5e8 e63d 293e c53c 67f7 3d3d bcca bdbc
00000350: c2a3 3f3d 2716 ba3d 06de 713d 6114 bebd
00000360: 9f1e 97bd 85be 833d 33b0 a13d 857e c0bc
00000370: 10bb 7e3e 10ab a9bd 3d48 dabd 20f6 ee3d
00000380: d231 d9bb 6dda 6c39 cf76 3d3d 5363 14be
00000390: 2718 3a3d deeb 7ebd 7a5e 12be 5c78 323e
000003a0: b767 7d3d 0d5c 36be fd48 153e 5c23 ee3d
000003b0: c2ac 293d 97e2 d1bd 5dc2 05bd 869c be3a
000003c0: 0875 9fbd fdd7 e83c 4013 253e d3f2 31be
000003d0: de07 763e 47bb aebd 13f7 033c 7c43 5fbc
000003e0: b216 85bd 8bf5 c83d 6a4f a83e d19a 2d3e
000003f0: 0e85 b0ba 121e d23c d313 b7bd 4f74 7fbc
-0.037742537 0.008181166 -0.017491775 -0.09875228 0.0182729 -0.054600444 -0.038865715 -0.081842504
-0.123798825 -0.1225607 -0.048407707 -0.04786462 -0.064897165 0.064799994 -0.14866073 0.078993805
0.110207714 -0.18632573 -0.06667463 -0.15069379 0.1048628 0.17244583 -0.033714667 0.26906362
-0.0041169534 -0.08960715 0.23240338 0.17700736 0.15139697 0.01428421 0.10053766 0.078392975
-0.036071975 0.24559164 -0.259012 0.004436014 -0.037280492 0.13058665 0.17386793 -0.08918152
-0.030449333 -0.133164 0.06843173 -0.11014276 -0.05788459 0.33700314 -0.13366416 0.114548236
0.1216783 0.07264516 -0.0041028294 -0.17472482 -0.17976092 0.09990697 -0.08650311 0.015661942
0.071050376 -0.07596869 0.180287 -0.035672016 -0.1120502 0.071544096 0.065734155 -0.20356728
-0.11961937 -0.13951923 0.22341281 0.0803055 0.01997426 0.16471052 -0.12020513 0.04598155
0.0028879659 0.20290309 0.15827435 0.12864618 -0.019807968 -0.00032897986 0.11574402 0.16939929
-0.051745865 0.19645195 0.04049504 0.17454943 -0.0567456 0.1378268 -0.0084137 0.15289839
0.046315607 0.12461084 0.11386434 0.33229965 0.031930674 -0.05450598 0.09966233 -0.31762978
0.005881064 -0.07158905 -0.24686256 0.07548691 -0.09275196 -0.10671057 0.041224252 0.14300404
0.12646341 -0.16271392 -0.17528813 -0.04503872 0.043964103 0.044831812 -0.1597249 -0.009378323
-0.117202096 0.05781395 0.3104257 -0.124506496 -0.060835335 0.18169048 -0.18463303 -0.15248723
-0.13641004 -0.29300264 0.10938448 -0.023646044 0.093575895 -0.22170989 -0.021998145 0.16957855
-0.07758079 0.007149065 -0.08868919 0.14662918 0.0565706 0.27387726 0.08919193 -0.005362809
-0.29213768 -0.032126334 -0.031202907 0.083115764 0.12274272 -0.04629141 -0.05688117 0.21550284
0.08830826 0.057649605 0.19943611 -0.19256236 -0.25621912 0.1394781 -0.12003029 -0.028328156
0.00011393706 0.021232544 -0.053559937 0.10103356 -0.117872134 0.24698536 -0.121259384 -0.07414885
-0.3804068 -0.02965334 0.01326904 0.16613817 -0.08377638 0.12815943 0.06500055 -0.12816061
-0.062056 -0.033744246 0.012086867 -0.080775596 0.04648639 -0.06419106 -0.021385716 -0.02128955
-0.154379 0.29556552 -0.118096106 0.18854341 0.008996703 0.021127362 0.11105618 0.0776198
0.1277636 0.14879285 0.08495273 -0.014214292 -0.07560749 -0.0037531517 0.18432128 0.033444393
0.15083417 -0.17549746 0.09615478 0.05486985 -0.008607431 0.020570254 -0.06940402 0.105065055
-0.18163325 -0.0625599 -0.043614842 0.15798707 0.018366009 0.06487464 0.14608774 -0.0019909511
0.1127489 0.024077492 0.04637852 -0.02316796 0.04678703 0.090862565 0.05904963 -0.09281231
-0.073788874 0.06432823 0.078949355 -0.02349783 0.24876046 -0.08284581 -0.106583096 0.11668038
-0.0066282535 0.00022588084 0.046255883 -0.14491014 0.04543319 -0.06223666 -0.14293852 0.17428726
0.06186649 -0.17808552 0.14578624 0.11627838 0.04142452 -0.10248297 -0.032656062 0.0014542497
-0.07785994 0.028423304 0.16120625 -0.17377786 0.24026439 -0.08531814 0.008054513 -0.013626929
-0.064984694 0.098124586 0.32873088 0.16953589 -0.0013467388 0.025649104 -0.08939328 -0.015591695

fc3.bias f4 [10]
00000000: e8d2 a9be c196 dbbe 8ea6 c23d bcde 973e
00000010: 491a 013f d535 ddbd 2125 ef3e 60c8 88be
00000020: a281 593e e12e 32be
-0.3316872 -0.42888454 0.09504424 0.2966212 0.5043073 -0.10801283 0.46708015 -0.26715374
0.21240857 -0.17400695
