cifar_net.pth (torch, 251015 bytes, 10 tensors)

firConvLayer.weight f4 [6, 3, 5, 5]
0	0x3ebe33d9	0.37148932
1	0x3edf9480	0.43667984
2	0x3db3442f	0.08753239
3	0xbd857929	-0.0651725
4	0x3e07b64c	0.13253134
5	0x3f086821	0.5328389
6	0xbe157a73	-0.14597492
7	0xbed5430c	-0.41652715
8	0xbd8599eb	-0.06523498
9	0x3e910154	0.28321326
10	0x3de836c0	0.11338568
11	0xbf2f6f2e	-0.6852902
12	0xbe9557d6	-0.29168576
13	0x3dd23435	0.10263864
14	0x3ea7def1	0.32787278
15	0xbeb80dc2	-0.35947996
16	0xbeb677d5	-0.356383
17	0x3c9d1318	0.019174144
18	0x3e9e85a0	0.30961323
19	0x3e23ca94	0.15995246
20	0xbe467f7d	-0.1938457
21	0x3d3b63d2	0.045749493
22	0x3e5a734e	0.21333048
23	0x3bc76dae	0.006086073
24	0xbdab9509	-0.083780356
25	0x3cf74beb	0.030187568
26	0x3cfe896f	0.031071393
27	0xbebb58bc	-0.36591136
28	0xbee82936	-0.4534394
29	0xbeb0d10f	-0.345345
30	0x3edc5618	0.43034434
31	0xbf021c78	-0.5082469
32	0xbf210206	-0.6289371
33	0xbec7b4ba	-0.3900507
34	0x3d243dfb	0.04009817
35	0xbcfe1243	-0.031014567
36	0xbf1ebbac	-0.62005115
37	0xbe4dee54	-0.20110446
38	0x3da43d5a	0.080195144
39	0x3e49ef5d	0.19720216
40	0xbecab1d5	-0.395888
41	0xbe8cf95e	-0.27534002
42	0x3e2367e9	0.15957607
43	0x3e2c6719	0.16836204
44	0x3ddf4cb5	0.109033026
45	0xbe7459b2	-0.23862341
46	0x3d2e4451	0.04254562
47	0x3e8c55a0	0.27409077
48	0x3e071e4a	0.13195148
49	0xbd362ab9	-0.044474337
50	0x3e8f80b6	0.28027886
51	0x3ea59648	0.32341218
52	0xbdf7cfd8	-0.1210019
53	0xbe975baf	-0.29562137
54	0xbd9be934	-0.07612839
55	0x3eb1ccf9	0.34726694
56	0xbea00c92	-0.3125959
57	0xbee1a7a4	-0.44073212
58	0xbe0ce477	-0.13759027
59	0x3e53578b	0.20638864
60	0x3cdedbc3	0.0272044
61	0xbf1ca25c	-0.6118524
62	0xbe8d2849	-0.27569798
63	0x3e3fc67a	0.18728057
64	0x3e62e5f5	0.22158034
65	0xbea88950	-0.3291726
66	0xbe96a62b	-0.2942365
67	0x3e51c047	0.20483504
68	0x3eb3ef2c	0.3514341
69	0x3e91b4ec	0.28458345
70	0x3cc58b3c	0.024114244
71	0x3e793c8c	0.24339503
72	0x3efcb4a7	0.49356577
73	0x3db56b3c	0.08858344
74	0x3cacacd2	0.0210785
75	0x3ebe5e45	0.37181297
76	0x3f1d3fd8	0.6142554
77	0x3f1e24fd	0.6177519
78	0x3ef34c66	0.47519225
79	0x3e8db871	0.2767978
80	0x3ee41a67	0.44551393
81	0x3ef8510b	0.4849933
82	0x3edffb46	0.43746394
83	0x3eb509d4	0.3535906
84	0x3ee1c0ff	0.44092557
85	0x3e5c12d8	0.21491563
86	0x3db9b890	0.09068406
87	0x3da02f64	0.07821539
88	0x3c952c31	0.018209549
89	0x3e735ff8	0.23767078
90	0xbe166ac3	-0.14689164
91	0xbe91f10c	-0.28504217
92	0xbe9416be	-0.289236
93	0xbed9dc88	-0.42551064
94	0xbd9fb181	-0.07797528
95	0xbedbd00e	-0.4293217
96	0xbea37aa0	-0.31929493
97	0xbeee3dc0	-0.46531487
98	0xbf181bc1	-0.5941735
99	0xbf308557	-0.6895346
100	0xbe108c1c	-0.14115947
101	0xbdab9e1b	-0.083797656
102	0x3dc733f1	0.09726704
103	0x3d9aaaf3	0.07552137
104	0x3ca259ee	0.019818272
105	0xbd7a6e97	-0.061140623
106	0xbea1e77c	-0.3162192
107	0xbdcf9ee7	-0.1013773
108	0xbe0d3c57	-0.13792549
109	0x3cb4162f	0.021983234
110	0xbe8f583e	-0.2799701
111	0xbeb86f26	-0.360223
112	0xbf111d52	-0.56685364
113	0xbed5aa14	-0.41731322
114	0x3caae298	0.020860001
115	0xbe32c0b6	-0.17456326
116	0xbe5e8fe6	-0.2173458
117	0xbe9c9fb6	-0.305906
118	0xbebaa6d5	-0.36455408
119	0xbdd22b9f	-0.10262226
120	0xbdbab3d0	-0.09116328
121	0x3cef7a80	0.029233217
122	0x3d9dba9f	0.07701611
123	0xbdb3ce92	-0.087796345
124	0xbe3d4837	-0.18484579
125	0x3d276e86	0.040876888
126	0xbcc39935	-0.023876766
127	0x3d02363e	0.03179001
128	0x3e041cdc	0.12901634
129	0x3d97030f	0.0737363
130	0x3b516a46	0.0031954213
131	0xbdcb5a6b	-0.09929355
132	0xbd3b942b	-0.0457956
133	0xbcca7925	-0.02471597
134	0xbda8083a	-0.08204694
135	0xbd06db52	-0.032924004
136	0xbe9ae517	-0.30252907
137	0xbeb5cc4f	-0.35507438
138	0xbeb04489	-0.34427288
139	0x3cda282f	0.02663049
140	0x3e87a489	0.26492718
141	0x3da8a134	0.08233872
142	0x3e7135d8	0.23555696
143	0x3dc16d65	0.094446935
144	0x3e2f4880	0.171175
145	0x3e7193fb	0.23591606
146	0x3ec9ce0e	0.3941502
147	0x3f0db0e0	0.55348015
148	0x3ee54cce	0.4478516
149	0x3e293622	0.16524556
150	0x3d8b5413	0.06803145
151	0xbd9b6b75	-0.07588855
152	0x3e49e66d	0.19716807
153	0x3f1b9d32	0.60786736
154	0xbec43380	-0.3832054
155	0xbd99e2ac	-0.07513937
156	0xbc9ef0a0	-0.019401848
157	0xbe013a70	-0.12619948
158	0xbcf186f5	-0.029483298
159	0xbf22d649	-0.63608223
160	0xbed05f4d	-0.4069771
161	0xbf32c84a	-0.69836867
162	0xbf90f25c	-1.1323962
163	0xbf66f70c	-0.90220714
164	0xbebfbbc1	-0.37447932
165	0x3ed0e0a9	0.40796402
166	0x3e904f4e	0.28185505
167	0x3ec0a5fb	0.37626633
168	0x3f27268a	0.6529318
169	0x3f05780c	0.521363
170	0x3d4646c5	0.048407335
171	0xbe32b4be	-0.1745176
172	0x3ec950f6	0.3931958
173	0x3dfa39d9	0.12218065
174	0xbdb0fea2	-0.08642317
175	0x3ebcc4c4	0.3686887
176	0x3d9c9440	0.07645464
177	0x3f053412	0.5203258
178	0x3f4a476d	0.7901524
179	0xbea962e5	-0.33083263
180	0x3e682862	0.22671655
181	0x3e10148d	0.1407034
182	0x3e8cf86e	0.27533287
183	0x3e95d346	0.2926275
184	0xbec1c706	-0.37847155
185	0xbe3ab9f6	-0.18235001
186	0xbeb87195	-0.36024156
187	0xbf521984	-0.82070184
188	0xbf101b16	-0.5629133
189	0xbea3df7d	-0.32006446
190	0x3f01e8c9	0.50745827
191	0x3eeba429	0.46023682
192	0x3f2986dc	0.66221404
193	0x3f1168e2	0.56800663
194	0x3edff8ec	0.437446
195	0xbe25d22f	-0.1619346
196	0xbeb78c7e	-0.35849375
197	0x3dc5f35d	0.096655585
198	0xbe423405	-0.18965156
199	0xbef0847c	-0.46976078
200	0x3ce01736	0.027354818
201	0xbe9bf3e6	-0.30459517
202	0xbe2d3aa7	-0.16916905
203	0x3f0a2b95	0.5397275
204	0xbe5270a0	-0.20550776
205	0x3d866c59	0.065636344
206	0x3e02006d	0.12695475
207	0x3df347fd	0.11878965
208	0x3e3a214f	0.18176769
209	0xbe0aec57	-0.13566719
210	0xbeb6bc5e	-0.35690588
211	0xbeb0a72a	-0.34502536
212	0xbf49ff09	-0.7890478
213	0xbf17f716	-0.593614
214	0x3d559a8a	0.052149333
215	0x3e9f9c86	0.31174105
216	0x3ef1b9a8	0.47211957
217	0x3f01b0d5	0.5066045
218	0x3efa2ec8	0.48863816
219	0x3f0c27f2	0.5474845
220	0xbe4e8f5d	-0.20171876
221	0xbec42319	-0.38308027
222	0xbe23cd50	-0.15996289
223	0xbe46e254	-0.19422275
224	0xbee2496c	-0.4419664
225	0xbe9f7a20	-0.3114786
226	0xbeef44ee	-0.46732277
227	0xbe9fae11	-0.3118749
228	0xbdb0ef1b	-0.08639356
229	0xbdcfc5ce	-0.1014515
230	0x3e09b9f6	0.13449845
231	0xbe4284da	-0.18995991
232	0xbeead4e5	-0.4586555
233	0xbed9b759	-0.42522696
234	0xbe3d38c9	-0.18478693
235	0x3e497468	0.19673312
236	0x3ea3a3cb	0.31960902
237	0x3e65ee52	0.22454193
238	0x3a8d6d83	0.0010790083
239	0xbcbd8144	-0.023132928
240	0x3d7df4ac	0.062000915
241	0x3ea2da70	0.3180728
242	0x3ea7e68b	0.32793078
243	0x3e8f11a6	0.27943152
244	0x3db88dfa	0.09011455
245	0x3d93ea73	0.07222452
246	0x3e3f5661	0.18685295
247	0x3e076204	0.13220984
248	0x3e9db890	0.30804873
249	0x3e44c3b0	0.19215274
250	0xbe40eb0c	-0.18839663
251	0xbeb682ca	-0.3564666
252	0xbe437ea8	-0.19091284
253	0x3da39a39	0.079884
254	0x3e90560d	0.28190652
255	0x3d98a293	0.074528836

firConvLayer.bias f4 [6]
0	0xbf1d3b5b	-0.61418694
1	0xbf0dbbbc	-0.55364585
2	0xbe88efb7	-0.26745388
3	0xbea3e668	-0.32011724
4	0x3e9a9f77	0.30199787
5	0xbe6e64c1	-0.23280622

sndConvLayer.weight f4 [16, 6, 5, 5]
0	0xbe8b935f	-0.27260873
1	0xbe9afb63	-0.30269918
2	0xbe998dcc	-0.29990995
3	0xbe87fd64	-0.2656051
4	0xbe65565c	-0.22396225
5	0xbe406983	-0.1879025
6	0xbea14375	-0.31496778
7	0xbe984853	-0.2974268
8	0xbea1df72	-0.31615788
9	0xbe8c15e5	-0.27360454
10	0xbdfb9b99	-0.12285537
11	0xbe5caa20	-0.21549273
12	0xbe7aab3f	-0.24479388
13	0xbe800830	-0.25006247
14	0xbe481cbe	-0.19542214
15	0xbda5f56a	-0.0810345
16	0xbd9ba81f	-0.07600426
17	0xbdd64309	-0.10462005
18	0xbe75cabf	-0.24003123
19	0xbe839c9e	-0.25705427
20	0xbe451d66	-0.19249496
21	0xbdcfd59b	-0.10148164
22	0xbe49dda4	-0.19713455
23	0xbe94f36d	-0.2909197
24	0xbe9280a0	-0.28613758
25	0x3ededbb8	0.43527007
26	0x3e7cc6dd	0.24685235
27	0x3c16ead4	0.009211261
28	0xbd74df15	-0.05978306
29	0xbd938cde	-0.07204603
30	0x3c876c07	0.016531004
31	0x3db2bed7	0.08727806
32	0x3d901379	0.07034964
33	0x3d86090e	0.06544696
34	0x3d717273	0.058947038
35	0x3e6ac432	0.22926405
36	0x3dac6f8d	0.08419714
37	0xbd284d6d	-0.041089464
38	0x3e08d558	0.13362634
39	0x3d52c1f7	0.05145451
40	0x3e2eb436	0.17060933
41	0x3dff6597	0.124705486
42	0xbdc4af64	-0.096037656
43	0xbe4c0094	-0.19922096
44	0xbdb40012	-0.08789076
45	0xbdb336e5	-0.08750705
46	0x3dbce09f	0.092225306
47	0x3e35a12a	0.1773726
48	0x3cc20efe	0.02368879
49	0x3a0d8d1e	0.0005399751
50	0x3e8ef8e6	0.2792427
51	0x3e186886	0.14883623
52	0x3d02991c	0.031884298
53	0xbd93c518	-0.07215327
54	0xbe694085	-0.22778518
55	0x3dcc9e54	0.09991136
56	0x3d856b46	0.065146014
57	0x3d8b7e7b	0.068112336
58	0xbd4a4087	-0.049377944
59	0xbdd03888	-0.101670325
60	0x3d71409a	0.0588995
61	0x3cd3149d	0.025766665
62	0x3de23540	0.11045313
63	0x3d5448f3	0.051827382
64	0xbe1cd606	-0.15316018
65	0x3e28bf6c	0.16479272
66	0x3dcd4683	0.10023215
67	0xbc2be424	-0.010491405
68	0x3c75c277	0.014999977
69	0x3dbe0533	0.092783354
70	0xbd77dcf0	-0.060513437
71	0x3dabb797	0.08384626
72	0x3d774792	0.06037099
73	0x3cf79ad0	0.030225188
74	0x3e265964	0.16245037
75	0xbe366a51	-0.17813994
76	0xbe48dcc1	-0.19615461
77	0xbe0dc7f4	-0.13845807
78	0xbde6b7f4	-0.11265555
79	0xbe798a5e	-0.24369189
80	0x3e1eec05	0.15519722
81	0x3e11c970	0.14236999
82	0xbd32d32a	-0.043658413
83	0x3d4044b0	0.046940506
84	0x3a83c1f2	0.0010052307
85	0xb9e2e37e	-0.00043275574
86	0x3dfe925d	0.1243026
87	0x3dc8f3cd	0.09812126
88	0xbdb0fdc8	-0.08642155
89	0xbe2f695d	-0.17130037
90	0xbdc69070	-0.09695518
91	0xbdf93e52	-0.1217009
92	0x3e3994d0	0.18123174
93	0x3debcd55	0.11513773
94	0x3dba3b26	0.09093313
95	0xbd0a4413	-0.033756327
96	0xbe14b068	-0.14520419
97	0x3a849758	0.0010115905
98	0x3e09ba65	0.1345001
99	0x3e189d9e	0.14903876
100	0x39dca918	0.00042087655
101	0x3e9470b7	0.28992245
102	0x3e445a22	0.19175008
103	0x3e09f458	0.13472116
104	0x3e367ff0	0.17822242
105	0xbe2bfe4d	-0.16796227
106	0xbd1567e0	-0.036476016
107	0x3d6fd9ae	0.058557205
108	0x3d63e9a6	0.055642746
109	0x3d83063a	0.06397672
110	0xbd2ed127	-0.042679932
111	0xbd9b7259	-0.075901695
112	0xbd97a3b6	-0.07404272
113	0xbdbfabb9	-0.09358925
114	0xbcb662bd	-0.022263879
115	0xbe0826dc	-0.13296074
116	0xbdbd183d	-0.09233139
117	0xbd62f7ae	-0.055411987
118	0x3c206c4b	0.009791444
119	0xbc68b3d1	-0.014203028
120	0xbe0d9375	-0.13825782
121	0xbba585fc	-0.0050513726
122	0xbdd8ce4c	-0.10586223
123	0x3d842532	0.06452407
124	0x3e1fa06d	0.15588541
125	0x3e5a4615	0.21315797
126	0xbdaded03	-0.08492472
127	0xbe4ead47	-0.20183288
128	0xbeca87f8	-0.3955686
129	0xbec49e94	-0.38402236
130	0x3e2df08e	0.16986296
131	0x3e99fc64	0.3007537
132	0x3e218ce9	0.15776409
133	0xbdb9ef4d	-0.09078846
134	0xbe9e5ddb	-0.3093098
135	0x3d7d1133	0.06178398
136	0x3bbd3b06	0.0057748584
137	0x3e72c406	0.2370759
138	0x3e7870b5	0.24261744
139	0xbe634d8a	-0.22197548
140	0x3de4c9ee	0.111713275
141	0xbb6d3e38	-0.0036200415
142	0xbc73ae94	-0.014873166
143	0x3dd956f7	0.1061229
144	0x3db5a678	0.08869642
145	0x3e3964fd	0.1810493
146	0xbb2159ec	-0.0024620248
147	0x3e0cae9d	0.13738485
148	0xbdbaba5f	-0.09117579
149	0xbe88852d	-0.26664105
150	0xbed354f4	-0.41275752
151	0xbe499832	-0.19686964
152	0xbdf2e4d3	-0.11860051
153	0xbe0c4be1	-0.1370082
154	0x3df62608	0.12018973
155	0xbea27bc7	-0.3173506
156	0xbeabeec4	-0.335806
157	0xbe9b5367	-0.30337068
158	0xbdb3ed0c	-0.087854475
159	0x3c708b91	0.014681713
160	0xbeb1de13	-0.34739742
161	0xbeba9483	-0.3644143
162	0xbe8a2411	-0.2698064
163	0xbd6fda9d	-0.058558095
164	0xbd1856dc	-0.03719221
165	0xbea18601	-0.3154755
166	0xbe9626e0	-0.29326534
167	0xbe8b25d4	-0.27177298
168	0xbde4eec1	-0.11178351
169	0x389b9eec	7.4205775e-05
170	0xbd8674a3	-0.065652154
171	0xbe8e95f7	-0.2784879
172	0x3d5fc94a	0.054635324
173	0x3e4ce172	0.20007876
174	0x3e425459	0.18977489
175	0xbe9aaf88	-0.30212045
176	0xbe98607f	-0.2976112
177	0xbe7ab552	-0.2448323
178	0xbd14847a	-0.036259152
179	0x3d88764c	0.06663188
180	0xbea88383	-0.32912835
181	0xbe9ed44e	-0.3102135
182	0xbe5e2f2b	-0.2169768
183	0xbe6199f6	-0.22031388
184	0xbdb6b9ec	-0.089221805
185	0xbe91b15e	-0.28455633
186	0xbe8f0dfb	-0.27940354
187	0xbe802b65	-0.25033107
188	0xbe6b9190	-0.23004746
189	0x3d5873f4	0.052844957
190	0xbec17d65	-0.3779098
191	0xbea09e8a	-0.31370956
192	0xbe8001d3	-0.25001392
193	0xbd0fcacf	-0.035105523
194	0x3e2f73fd	0.1713409
195	0xbea48577	-0.32133076
196	0xbe900834	-0.28131258
197	0xbd119982	-0.035546787
198	0x3bba699e	0.00568886
199	0x3d31f0d4	0.043442562
200	0xbe138d44	-0.14409357
201	0xbe605c3a	-0.21910182
202	0xbddeffca	-0.10888632
203	0x3c3c092a	0.011476794
204	0xbe11594f	-0.14194225
205	0xbe368b5d	-0.178266
206	0xbe650ad4	-0.22367412
207	0xbe655852	-0.22396973
208	0x3d933efd	0.071897484
209	0x3d8501da	0.06494494
210	0xbdf1551b	-0.11783811
211	0xbe3c4c1c	-0.18388408
212	0xbd81fad1	-0.063466676
213	0x3d07d848	0.033165246
214	0x3d4df675	0.050283868
215	0xbda5198b	-0.080615126
216	0xbc1ad642	-0.009450497
217	0x3bca09cc	0.0061657187
218	0x3e00ed58	0.1259054
219	0x3e00ec87	0.12590228
220	0xbdb312d8	-0.087438285
221	0x3d04d738	0.03243181
222	0x3de3f44b	0.111305796
223	0x3e74b2ff	0.23896407
224	0x3e15a48c	0.14613551
225	0xbdfd6fbb	-0.123748265
226	0x3d46703e	0.048446886
227	0x3b86b068	0.0041103847
228	0xbcd2b97d	-0.025723213
229	0x3dc0a2d2	0.094060555
230	0xbe09bd3e	-0.13451096
231	0x3d8d68a3	0.069047235
232	0x3dd15e1f	0.1022303
233	0x3e19f115	0.15033372
234	0x3d52c896	0.051460825
235	0xbdea5f1e	-0.114439234
236	0xbd619301	-0.055071834
237	0xbd1f5ab9	-0.03890488
238	0x3d62fa0e	0.055414252
239	0x3cac3614	0.02102188
240	0xbd8f7b7a	-0.07005973
241	0xbdc03e9d	-0.093869425
242	0xbdd9fc29	-0.10643799
243	0xbafe1632	-0.0019385277
244	0x3bf1bdc5	0.0073773586
245	0xbe76410c	-0.24048251
246	0xbd8d9131	-0.06912459
247	0xbe10833e	-0.14112565
248	0xbd453c1e	-0.048153035
249	0xbd7f7fe4	-0.062377825
250	0x3cecd74e	0.028911259
251	0xbda71adc	-0.0815942
252	0xbe45bc67	-0.19310151
253	0xbd537843	-0.051628362
254	0x3c8de551	0.01732126
255	0x3d82a4d5	0.063790955

sndConvLayer.bias f4 [16]
0	0x3de71bf0	0.112846255
1	0x3f83a758	1.0285444
2	0xbe908692	-0.2822767
3	0x3f5f1c41	0.8715249
4	0x3e8363de	0.2566213
5	0xbf885ec7	-1.0653924
6	0xbf211fcd	-0.6293915
7	0x3dad8f13	0.08474555
8	0xbcac8ca2	-0.021063153
9	0x3e867b36	0.26265877
10	0xbf6f024c	-0.9336288
11	0xbf21d20e	-0.63211143
12	0x3f14c04b	0.58105916
13	0xbe45e099	-0.19323958
14	0x3f54a940	0.83070755
15	0x3e50974b	0.20370214

firFullyConnected.weight f4 [120, 400]
0	0x3dfe6865	0.124222554
1	0xbd191e6f	-0.03738254
2	0xbe13845a	-0.14405957
3	0xbe0c3cb3	-0.1369503
4	0xbda5a633	-0.080883406
5	0x3d9341e7	0.07190304
6	0xbd631211	-0.05543715
7	0xbc8fdf84	-0.017562635
8	0xbcdad137	-0.02671109
9	0xbe143301	-0.14472581
10	0x3deed395	0.1166145
11	0x3d1555a3	0.036458623
12	0x3d8fa831	0.07014502
13	0xbd64a824	-0.055824414
14	0x3c60bd61	0.013717026
15	0x3b390251	0.002823014
16	0x3d7d5794	0.0618511
17	0x3c55cee3	0.013049814
18	0x396279c4	0.00021598401
19	0xbcb54c79	-0.022131192
20	0x3d31cadb	0.04340635
21	0x3d2353d0	0.03987485
22	0x3d4fb8dc	0.050713405
23	0xbc8c9c92	-0.017164502
24	0x3d178021	0.036987428
25	0x3d631267	0.05543747
26	0x3ce8b2b9	0.028405534
27	0xbbff6327	-0.0077938023
28	0x3d33d97c	0.04390858
29	0xbd1b9aa3	-0.03798927
30	0x3e35bee6	0.17748603
31	0x3ddf635c	0.10907623
32	0x3d0fae3b	0.03507827
33	0xbc40550f	-0.01173903
34	0xbc0fb7b4	-0.008771826
35	0x3d6279e2	0.055292018
36	0x3c7f3e2d	0.015578789
37	0xbda417af	-0.0801233
38	0xbdddaf41	-0.10824443
39	0xbc849bcf	-0.016187577
40	0xbd6373d8	-0.0555304
41	0xbd8c5a15	-0.06853119
42	0xbe1be848	-0.15225327
43	0xbdd7ab3a	-0.10530706
44	0xbd9dc533	-0.077036284
45	0x3c99a96b	0.018757543
46	0x3d1e54cf	0.0386551
47	0x3d5ec6ce	0.054388814
48	0x3cbbc4d5	0.022921005
49	0xbd925ee9	-0.07147009
50	0x3d939150	0.072054505
51	0x3d83885c	0.06422493
52	0x3dc9812b	0.0983909
53	0x3c28a2eb	0.010292749
54	0x3cf77700	0.03020811
55	0xbb5d15c2	-0.0033734892
56	0xbd0cb99a	-0.03435669
57	0xbdd65c58	-0.10466832
58	0x3caebab7	0.021329267
59	0x3d9cd297	0.07657354
60	0xbde41097	-0.11135977
61	0xbda02514	-0.07819572
62	0xbe290700	-0.16506577
63	0xbdfb7292	-0.12277712
64	0xbdb61cf1	-0.08892239
65	0xbcfbad50	-0.03072229
66	0xbe449e53	-0.19201021
67	0xbe014c57	-0.12626778
68	0xbe16b565	-0.14717634
69	0xbde2caf4	-0.110738665
70	0xbdb9fc92	-0.09081377
71	0x3c9366c0	0.017993331
72	0xbde48eb4	-0.11160031
73	0xbdf37874	-0.11888209
74	0xbd673690	-0.05644852
75	0x3e1090df	0.14117764
76	0x3c5390ac	0.01291291
77	0xbcdf96b4	-0.02729354
78	0x3c739745	0.014867608
79	0x3e184323	0.1486936
80	0xbcd1a5a0	-0.025591671
81	0xbdc6c8c8	-0.09706265
82	0xbe05b712	-0.13058117
83	0xbd897398	-0.06711501
84	0x3e01e445	0.12684734
85	0x3c8ad439	0.016946899
86	0xbe0a3126	-0.13495311
87	0xbdc3d271	-0.09561623
88	0xbe26aa94	-0.16276008
89	0xbd837879	-0.06419463
90	0xbce18d2c	-0.027533136
91	0xbb434914	-0.0029798197
92	0x3d718c16	0.058971487
93	0xbc90c35f	-0.017671285
94	0xbcadbb9a	-0.02120762
95	0x3d863bc6	0.0655437
96	0x3d43750a	0.04771904
97	0xbd977770	-0.07395828
98	0x3cde2a92	0.027119908
99	0x3e042a3d	0.12906738
100	0xbdd14967	-0.102190785
101	0xbbbbe27b	-0.0057337857
102	0x3d4ccff9	0.050003026
103	0x3c67cd99	0.014148139
104	0x3d7d2642	0.061804064
105	0x3d86d124	0.06582859
106	0x3d520a54	0.05127938
107	0x3d932fc4	0.07186845
108	0x3d1df459	0.038563106
109	0x3db0d117	0.08633631
110	0x3e3524fa	0.17689887
111	0x3e117f44	0.14208704
112	0x3d09ec59	0.033672664
113	0x3ccc705f	0.024955926
114	0x3dc5a81c	0.09651205
115	0x3df51f1a	0.11968823
116	0x3d930b8e	0.07179938
117	0x3de22164	0.11041525
118	0x3d7e328e	0.06205993
119	0x3d8f6cce	0.07003175
120	0x3dae56cc	0.08512649
121	0x3d259dd9	0.04043374
122	0x3d9fbaa1	0.077992685
123	0x3d4ccde6	0.050001048
124	0xbd0c786a	-0.034294523
125	0xbcaeb55e	-0.021326717
126	0xbc81d2ab	-0.015847525
127	0xbd63276b	-0.055457514
128	0x3ce3d74d	0.027812624
129	0xbcab2324	-0.02089078
130	0x3cdc67fe	0.026905056
131	0xbd4b75b2	-0.04967279
132	0xbbf482ef	-0.0074618976
133	0x3c2e2d52	0.010630922
134	0x3c908daf	0.017645685
135	0x3d580690	0.052740633
136	0xbc7c23d5	-0.015389402
137	0x3c20e1cf	0.009819462
138	0xbb3552ff	-0.0027667878
139	0xbcb54f0b	-0.022132417
140	0xbdadaec5	-0.084806
141	0xbc89e5e6	-0.016833257
142	0xbcdedc3f	-0.02720463
143	0x3d3c4685	0.04596569
144	0xbd979f27	-0.07403403
145	0x3e06fbc1	0.13181974
146	0x3cc9126d	0.024544919
147	0x3d68be2d	0.05682199
148	0x3e29ea7e	0.16593358
149	0xbd609c0d	-0.05483632
150	0x3b53638a	0.0032255375
151	0xbc8707b7	-0.01648317
152	0xbe38578d	-0.18002148
153	0xbe22339e	-0.15840003
154	0xbbfbd635	-0.0076854476
155	0xbdf39a0b	-0.11894616
156	0xbda7629d	-0.08173106
157	0xbe040786	-0.12893495
158	0xbe156470	-0.14589095
159	0xbd0b15ee	-0.03395646
160	0xbdc7bfde	-0.09753393
161	0xbdaa2917	-0.083086185
162	0xbd96581a	-0.07341023
163	0xbd5d1b27	-0.053980973
164	0xbcafb0a3	-0.021446532
165	0xbc817191	-0.015801223
166	0x3e2079af	0.15671419
167	0x3dd6d3b6	0.104895994
168	0xbc8d925e	-0.017281707
169	0x3b4a01f1	0.003082391
170	0x3d4396dd	0.047751296
171	0x3ca4ac48	0.020101681
172	0xbc0c1ee4	-0.008552287
173	0x3c9e8f2a	0.019355375
174	0xbd107c31	-0.03527469
175	0xbc5c90ae	-0.013462229
176	0x3d64d567	0.05586758
177	0x3cdf877f	0.02728629
178	0x3c829416	0.015939754
179	0x3c39317e	0.011303304
180	0x3e000b9b	0.12504427
181	0xbced982b	-0.029003223
182	0x3d7e2d79	0.062055085
183	0x3d113ae6	0.03545656
184	0xbcfd54a9	-0.030924158
185	0x3c0a6071	0.008445845
186	0x3d1eedcb	0.038800996
187	0x3d5775af	0.052602466
188	0x3dfb39be	0.12266873
189	0x3d9336ec	0.0718821
190	0xbd1f6930	-0.038918674
191	0xbddd0fe4	-0.107940465
192	0x3ab0473d	0.0013448965
193	0xbdb21393	-0.0869514
194	0x3daad85e	0.0834205
195	0x3a802705	0.0009777254
196	0xbc5bf4c1	-0.013425053
197	0xbd2de98e	-0.042459063
198	0x3daf9ec6	0.085752055
199	0x3d5100ad	0.051026035
200	0xbe05f2a9	-0.13080849
201	0xbdd4c88b	-0.10389813
202	0xbd74e7c5	-0.059791345
203	0xbdf00faf	-0.117217414
204	0xbe3875a5	-0.18013628
205	0xbb106409	-0.0022032282
206	0xbd94b51d	-0.07261107
207	0x3d1111b5	0.035417277
208	0xbd4b3c80	-0.049618244
209	0xbde82163	-0.11334493
210	0x3d27dbbf	0.04098105
211	0xbd83b312	-0.06430639
212	0xbcaa355b	-0.020777395
213	0xbd2f7657	-0.042837467
214	0xbc803c16	-0.015653651
215	0x3e3f0442	0.18653968
216	0x3da65093	0.08120837
217	0x3ccd65b0	0.025072902
218	0xbe2e137e	-0.16999623
219	0xbc96140d	-0.018320108
220	0xbc7c3d29	-0.015395441
221	0x3d82caf8	0.063863695
222	0xbb74cf86	-0.003735514
223	0xbc3ceb90	-0.011530772
224	0xbddee515	-0.10883538
225	0xbdc6ec5c	-0.09713051
226	0xbd4b2442	-0.049595125
227	0xbc63c8db	-0.013902868
228	0xbdba622c	-0.09100756
229	0xbc9d4a74	-0.019200541
230	0xbd7e3986	-0.062066577
231	0x391c6bd4	0.00014917488
232	0x3d4e4c81	0.05036593
233	0x3d56c815	0.052436907
234	0x3d8b15ef	0.06791293
235	0xbd0e41a5	-0.034730572
236	0x3c7fa67d	0.015603659
237	0xbd6ceee6	-0.05784502
238	0xbd0dc60a	-0.034612693
239	0xbd6ae780	-0.05734968
240	0x3db1802a	0.086670235
241	0xbc19d955	-0.009390195
242	0x3de6cb0a	0.112691954
243	0x3de23d55	0.110468544
244	0x3dad904f	0.0847479
245	0x3dbe06e3	0.09278657
246	0x3d45f870	0.04833263
247	0x3d0bf300	0.03416729
248	0x3d70a2ec	0.058749124
249	0x3d4a00b1	0.049317066
250	0xbd1b2ad4	-0.03788264
251	0xbdb2bbd0	-0.08727229
252	0xbc9d2098	-0.019180581
253	0xbe0b51a5	-0.13605364
254	0xbd18c5e9	-0.037298117
255	0xbce47c69	-0.027891355

firFullyConnected.bias f4 [120]
0	0xbe1129d9	-0.1417612
1	0x3cc8789c	0.024471574
2	0xbe822fb2	-0.25427014
3	0xbe023206	-0.12714395
4	0x3ddb0f2e	0.10696255
5	0xbce13518	-0.027491137
6	0x3ab24bc1	0.0013602899
7	0x3e1747fb	0.14773552
8	0xbd9253ba	-0.07144876
9	0x3cb0e7c8	0.021594897
10	0x3e0c63a6	0.13709888
11	0xbd669062	-0.056290038
12	0x3d697e13	0.057005
13	0x3d5d68a2	0.054054864
14	0x3ea9d12c	0.33167398
15	0xbd2d70df	-0.04234397
16	0xbdad5e87	-0.08465295
17	0xbde47b89	-0.11156375
18	0xbe827b72	-0.25484806
19	0x3e69f7f0	0.22848487
20	0x3d3e90c3	0.046524774
21	0xbbfa91ae	-0.007646761
22	0x3cd536a5	0.026027033
23	0xbe094875	-0.13406546
24	0x3db0761a	0.08616276
25	0xbdf8f57b	-0.12156197
26	0x3e136a91	0.1439612
27	0x3e588f84	0.21148497
28	0xbc42a5ad	-0.0118803205
29	0xbdc351bc	-0.09537074
30	0xbd130591	-0.03589398
31	0x3d607846	0.0548022
32	0xbbbf1b6e	-0.0058321273
33	0x3d88b080	0.0667429
34	0x3cd00d4e	0.02539697
35	0xbd5893ec	-0.052875444
36	0xbd68fe0c	-0.056882903
37	0x3d80cd19	0.06289119
38	0x3e81a904	0.2532426
39	0x3d718d03	0.05897237
40	0x3c9a61cc	0.018845461
41	0x3db6eec8	0.08932263
42	0x3c1042e7	0.008805013
43	0x3e97e3b7	0.2966592
44	0x3cefe030	0.029281706
45	0x3e036ecd	0.12835236
46	0xb9bd06bf	-0.00036053915
47	0xbcecd04b	-0.028907916
48	0x3d262544	0.040562883
49	0xbcc87032	-0.024467561
50	0x3e0de804	0.13858038
51	0xbd6ba01a	-0.05752573
52	0xbc7b99a4	-0.015356455
53	0x3d85e8de	0.065385565
54	0x3d04ee09	0.03245357
55	0xbcae25a0	-0.021258175
56	0xbca24206	-0.019806873
57	0x3c314c0b	0.010821353
58	0x3c816237	0.015793903
59	0xbd36fd9b	-0.04467545
60	0x3e12ef9c	0.14349216
61	0xbd3d0f51	-0.046157185
62	0x3e74c352	0.23902634
63	0x3ca5051e	0.020144042
64	0x3e0f0346	0.13966092
65	0x3d83fdf6	0.064449236
66	0xbc521e52	-0.012824612
67	0xbcf1c21d	-0.029511506
68	0x3e946ca3	0.28989133
69	0xbda04d53	-0.078272484
70	0x3dfabe4c	0.122433275
71	0xbcd4c38d	-0.025972152
72	0xbb985811	-0.00464917
73	0x3c6aa6d9	0.014322006
74	0xbbfce6de	-0.007717951
75	0xbd973f08	-0.07385069
76	0xbe97e89f	-0.29669663
77	0xbe0e1dca	-0.13878551
78	0x3dc539ea	0.09630187
79	0xbd576770	-0.05258888
80	0xbbe4cb52	-0.0069822455
81	0xbe1d4a23	-0.15360312
82	0x3e076273	0.13221149
83	0x3d009ae2	0.031397708
84	0x3ccb0b56	0.024785679
85	0x3df16c11	0.1178819
86	0x3b96c339	0.004600909
87	0xbd335244	-0.043779626
88	0x3da907aa	0.08253415
89	0x3cba5982	0.022747759
90	0xbb2f05ea	-0.0026706406
91	0x3dc6f818	0.09715289
92	0x3bb65ccb	0.005565261
93	0xbe037306	-0.12836847
94	0xbd67048b	-0.056400817
95	0x3e5d73ea	0.21626249
96	0x3d58fed1	0.052977387
97	0xbd56503d	-0.052322615
98	0xbd9ac056	-0.075562164
99	0x3d74713e	0.05967831
100	0x3d2c616a	0.04208509
101	0x3c2aaadf	0.010416715
102	0x3cb27752	0.021785412
103	0xbcca6420	-0.024705946
104	0x3e4f573a	0.20248118
105	0xbdec4fae	-0.11538635
106	0x3ce92b1f	0.028462945
107	0x3be68029	0.007034321
108	0x3d768d71	0.060193483
109	0x3d97f253	0.074192666
110	0x3e07dd92	0.13268116
111	0x3e424b1b	0.18973963
112	0x3eb2e609	0.34941128
113	0x3db0b6f9	0.08628649
114	0x3dd798c3	0.10527184
115	0x3d9db2fb	0.077001534
116	0xbdb48b97	-0.08815687
117	0x3e053921	0.13010074
118	0x3d2cadce	0.04215794
119	0x3cd7129d	0.026253993

sndFullyConnected.weight f4 [84, 120]
0	0x3d60ace1	0.05485237
1	0x3d788128	0.060670048
2	0x3cadb209	0.021203058
3	0xbde97c07	-0.114006095
4	0xbdcc44fb	-0.099740945
5	0x3c46c569	0.012132027
6	0xbd0db115	-0.034592707
7	0xbc4c46a6	-0.012468016
8	0xbcf6f6a8	-0.030146912
9	0x3ca11aec	0.019666158
10	0x3d5651d8	0.052324146
11	0xbd0d13b3	-0.034442615
12	0xbda83b9a	-0.08214493
13	0x3dba38e6	0.09092884
14	0x3baa7aa5	0.0052026086
15	0xbd0d272a	-0.034461178
16	0xbd9bdffc	-0.07611081
17	0xbc94fa14	-0.018185653
18	0xbdb954fa	-0.09049411
19	0x3c849b12	0.016187225
20	0x3e181393	0.14851217
21	0xbd1a9dec	-0.037748262
22	0xbd9fd044	-0.078033954
23	0xbd1fe448	-0.039036065
24	0x3dbff092	0.09372057
25	0x3dac8351	0.08423484
26	0xbce5af6f	-0.028037755
27	0x3de1593d	0.11003349
28	0xbdef2572	-0.11677064
29	0xbdfb1996	-0.122607395
30	0x3d84dc07	0.064872794
31	0xbd2ba6f1	-0.041907255
32	0xbd87aa0b	-0.0662423
33	0xbdf18ad5	-0.11794058
34	0x3d5aca35	0.053415496
35	0xbb8024c8	-0.0039106347
36	0x3c99687f	0.018726585
37	0x3d334b17	0.043772783
38	0x3d62c302	0.055361755
39	0x3d1e787b	0.038689118
40	0xbd01d372	-0.03169579
41	0xbb03cd9e	-0.002011157
42	0xbba4bf47	-0.005027685
43	0x3cd21d69	0.02564879
44	0xbd4c9d66	-0.049954794
45	0xbc55121a	-0.013004804
46	0xbd3fb25c	-0.046800956
47	0x3ba89cbb	0.005145637
48	0x3dd774d4	0.1052033
49	0xbd9b16dc	-0.075727195
50	0xbd02ea0d	-0.03196149
51	0xbd4d97b2	-0.050193496
52	0xbc985466	-0.018594932
53	0x3d8e9be5	0.06963328
54	0xbdbf9147	-0.09353881
55	0x3c47507c	0.012165185
56	0x3dd36933	0.103227995
57	0xbe1b0a9c	-0.15140766
58	0xbc646cc0	-0.013941944
59	0xbe07a262	-0.13245538
60	0xbd52ed28	-0.0514957
61	0xbd36ec23	-0.04465879
62	0x3bd60531	0.0065313806
63	0x3cc7fd14	0.02441267
64	0x3df85107	0.1212483
65	0xbd03b91a	-0.03215895
66	0xbb07e2b2	-0.0020734486
67	0xbda7decd	-0.08196793
68	0xbc3d0500	-0.011536837
69	0x3bfda28c	0.0077403244
70	0x3d97153f	0.07377099
71	0x3c992af0	0.018697232
72	0xbe4f0261	-0.20215751
73	0x3d663415	0.056202013
74	0xbd8250c0	-0.06363058
75	0x3c4c1c20	0.012457877
76	0x3ca17c6e	0.019712653
77	0xbc6b41bc	-0.014358934
78	0x3e196a1e	0.14981887
79	0xbcd3bdc9	-0.025847333
80	0x3c23720b	0.00997592
81	0xbb220743	-0.0024723567
82	0xbd97157a	-0.07377143
83	0x3d478ff8	0.048721284
84	0xbb9d585c	-0.004801793
85	0xbd95a9de	-0.0730779
86	0xbd9c0700	-0.07618523
87	0x3c86a668	0.01643677
88	0xbd589de3	-0.052884948
89	0x3a9ba825	0.0011875672
90	0xbd43de5f	-0.04781949
91	0x3dad918a	0.08475025
92	0xbd93ae5b	-0.0721099
93	0xbd66bccb	-0.05633239
94	0xbcb8f163	-0.02257604
95	0x3decfe57	0.11571949
96	0xbd4b566a	-0.049642958
97	0x3d86dfd9	0.06585664
98	0xbdc154f9	-0.094400354
99	0xbd5cb671	-0.053884927
100	0x3ddf74aa	0.10910924
101	0xbd00ded1	-0.031462494
102	0xbdbffa55	-0.09373919
103	0x3ce2eef8	0.02770184
104	0x3dcbb71f	0.09947037
105	0x3e0198c6	0.12655935
106	0x3df28307	0.11841398
107	0xbd31cb77	-0.04340693
108	0x3d1b0b2a	0.037852444
109	0x3e41afd8	0.18914735
110	0x3da46841	0.08027697
111	0x3d9f073f	0.07765054
112	0x3e43397a	0.19064894
113	0xbc3558be	-0.011068521
114	0x3cc70fc5	0.024299512
115	0xbdb93941	-0.090441234
116	0xbdadd5d5	-0.08488051
117	0x3d6d3965	0.057916064
118	0xbd3d7ae4	-0.046259776
119	0xbcfaa615	-0.030596772
120	0x3d3e5f60	0.046477675
121	0xbd95dd90	-0.0731765
122	0xbce889dc	-0.028386049
123	0x3c2f69a6	0.010706341
124	0x3c7d66ee	0.015466435
125	0xbd9eecc9	-0.07760007
126	0x3d93ae03	0.072109245
127	0xbda43c69	-0.08019335
128	0x3dc61fcd	0.09674034
129	0x3c9fe5e5	0.019518802
130	0xbd960adc	-0.0732629
131	0x3e2f6b54	0.17130786
132	0x3d34c770	0.04413551
133	0x3ba721dc	0.005100472
134	0x3cb19561	0.021677675
135	0xbc1b32be	-0.009472547
136	0xbdf0c038	-0.11755413
137	0x3d4ad55a	0.049519874
138	0xbe6dd388	-0.23225224
139	0xbde3405c	-0.1109626
140	0xbda15fdf	-0.07879614
141	0xbd3b3d34	-0.045712665
142	0x3e3198f7	0.17343508
143	0xbc5a26a5	-0.013314878
144	0x3d83bbe5	0.064323224
145	0xbda63d63	-0.08117177
146	0xbdbd5f34	-0.09246674
147	0x3cbad6ee	0.022807565
148	0xbcf9835c	-0.030458145
149	0xbde2f23d	-0.110813595
150	0x3b93044c	0.004486596
151	0xbc9a96f5	-0.01887081
152	0x3c0bbefb	0.00852942
153	0xbd758b31	-0.059947196
154	0xbd75a934	-0.059975818
155	0x3d43eb74	0.047831967
156	0x3d570ee9	0.052504454
157	0xbdaf433b	-0.08557745
158	0xbc7ac325	-0.015305315
159	0x3c4704c4	0.012147132
160	0xbca52c28	-0.020162657
161	0xbd354ce0	-0.044262767
162	0x3d1c7601	0.038198475
163	0xbdf80e06	-0.1211205
164	0x3caf82db	0.021424701
165	0xbbe2e6b5	-0.006924475
166	0x3d807356	0.062719986
167	0xbd356bfb	-0.04429243
168	0xbdccd3a6	-0.10001306
169	0xbcbf3a51	-0.023343237
170	0xbcd21b6e	-0.025647845
171	0x3bb8a67a	0.00563508
172	0xbcdb4c0e	-0.026769664
173	0x3d74f0ec	0.059800074
174	0xbd7f78c2	-0.062371023
175	0xbd761510	-0.06007868
176	0xbc7ec6e7	-0.015550352
177	0xbdcc772b	-0.09983667
178	0xbdab650e	-0.08368884
179	0x3c929858	0.017894909
180	0x3e11f271	0.1425264
181	0xbd6bf1c8	-0.057603627
182	0xbdab3638	-0.08359951
183	0x3c9695c8	0.018381968
184	0xbe1ed6f1	-0.15511681
185	0x3ccfe6c4	0.025378592
186	0xbb7b342a	-0.0038330653
187	0x3d850726	0.06495504
188	0x3e045e20	0.12926531
189	0x3d9dad15	0.076990284
190	0x3ce556e6	0.027995538
191	0xbd1b836e	-0.037967138
192	0xbd2d8370	-0.042361677
193	0xbd7f07df	-0.062263366
194	0x3c10e7f1	0.008844362
195	0xbc6809e3	-0.014162513
196	0xbb8956e9	-0.0041912687
197	0xbd9206bc	-0.07130191
198	0x3c3654bb	0.0111286
199	0xbd804856	-0.06263797
200	0xbcfe8ed0	-0.031073958
201	0x3e321e87	0.17394458
202	0x3c389a76	0.011267295
203	0xbc9c8663	-0.01910705
204	0xbd515f79	-0.05111644
205	0xbcdff7ec	-0.027339898
206	0x3d7dbf20	0.06194985
207	0xbd01f0c4	-0.031723753
208	0xbd197896	-0.037468515
209	0xbe2f149a	-0.17097703
210	0x3d7c8b4f	0.061656293
211	0xbd7c2f1e	-0.061568372
212	0xbd8e0c39	-0.06935925
213	0x3d88dccd	0.066827394
214	0x3e0cd47b	0.1375293
215	0xbe240e1a	-0.16021004
216	0xbc01c2e8	-0.007920004
217	0xbd2bbec0	-0.04192996
218	0x3e186487	0.14882098
219	0x3c79bce4	0.015242789
220	0xba63fd18	-0.00086970767
221	0x3e0e2574	0.13881475
222	0x3d670549	0.056401525
223	0x3d95ecb3	0.073205374
224	0xbd331210	-0.043718398
225	0xbd3576db	-0.044302803
226	0xbd2c5186	-0.042069934
227	0x3ce6e0d1	0.028183373
228	0xbda7046d	-0.08155141
229	0x3d28b149	0.041184697
230	0x3e04ae2a	0.12957063
231	0xbd9bc5f5	-0.07606117
232	0xbb83cf77	-0.0040225345
233	0x3db5ef05	0.0888348
234	0xbbe1a376	-0.006885941
235	0xbd7bd0d1	-0.06147844
236	0x3ae88648	0.0017740214
237	0xbda5832f	-0.08081662
238	0x3d4f382f	0.05059069
239	0xbd00d47c	-0.03145264
240	0xbe0c9202	-0.13727573
241	0xbdb3738f	-0.087622754
242	0x3c1de5ee	0.009637339
243	0xbe19a5aa	-0.15004602
244	0xbbe2972d	-0.006914994
245	0xbd89cfee	-0.067291126
246	0xbd17487f	-0.036934372
247	0x3ca18809	0.019718187
248	0xbca6ed67	-0.020376874
249	0xbe13ad65	-0.14421614
250	0x3d24ac04	0.04020311
251	0xbccc6dc2	-0.02495468
252	0xbcd89d03	-0.026442057
253	0xbaeb5d0f	-0.0017956811
254	0x3e1a2e9e	0.15056846
255	0x3e74c607	0.23903666

sndFullyConnected.bias f4 [84]
0	0x3ea756a0	0.32683277
1	0xbdf60431	-0.12012518
2	0x3ec037ce	0.37542576
3	0x3e23bc2f	0.15989755
4	0xbda236d5	-0.07920615
5	0x3d77c72b	0.060492676
6	0x3e95d7a8	0.29266095
7	0x3ce273da	0.027643133
8	0x3e538cb0	0.20659137
9	0xbc859cce	-0.016310122
10	0xbc4f07b2	-0.012636112
11	0x3ca2c412	0.019868884
12	0x3e08f2c8	0.13373864
13	0xbd8fecdc	-0.07027599
14	0xbd0bc460	-0.034122825
15	0xbddaeb6e	-0.10689436
16	0x3e433062	0.19061425
17	0x3d439fdc	0.047759876
18	0x3d1f9fff	0.038970944
19	0x3e59b9f3	0.2126234
20	0x3e83ba5f	0.25728127
21	0x3e9075e1	0.28214934
22	0x3e3f487e	0.18679997
23	0x3eff848d	0.49905816
24	0xbe2c0248	-0.16797745
25	0x3f133438	0.57501554
26	0x3ea52b8d	0.3225979
27	0x3dad7bd3	0.08470883
28	0xbbc9d75e	-0.006159707
29	0xbca8db8d	-0.020612502
30	0xbc3cfb34	-0.011534501
31	0x3d43d724	0.047812596
32	0x3eaae7c5	0.3337995
33	0xbc8579dc	-0.016293459
34	0x3e3bf8b9	0.18356599
35	0x3e8241b5	0.25440755
36	0x3e3ab49c	0.1823296
37	0xbd425f29	-0.047454033
38	0x3c03bddf	0.008040874
39	0x3dfaf7fe	0.12254332
40	0x3ccd8d4b	0.025091788
41	0x3da9a5c3	0.0828357
42	0x3c19d2b3	0.0093886135
43	0xbd47561e	-0.048666112
44	0x3e5d081d	0.21585126
45	0x3e390f41	0.18072225
46	0xbdfb57e8	-0.12272626
47	0xbd81e084	-0.06341651
48	0x3ef51089	0.47864178
49	0x3ec7b40b	0.3900455
50	0x3e9dd08f	0.3082318
51	0x3e8d36df	0.27580926
52	0xbd8fa496	-0.07013814
53	0x3f02f9c8	0.51162386
54	0x3e84f7a8	0.25970197
55	0x3d285911	0.041100565
56	0x3f36bbcd	0.7138031
57	0x3d59ccd5	0.05317386
58	0xbdb50f85	-0.08840851
59	0xbdaafe5a	-0.08349295
60	0xbe0c0ade	-0.1367602
61	0x3e0e21e5	0.13880117
62	0x3e63c8fd	0.2224464
63	0x3e655e23	0.22399192
64	0xbc0a335d	-0.0084350975
65	0x3e3c58de	0.18393275
66	0xbd306f41	-0.04307485
67	0xbda171ce	-0.07883035
68	0x3a2d46c8	0.00066099735
69	0x3da9e635	0.08295862
70	0xbd358fb8	-0.044326514
71	0xbdf1f137	-0.11813586
72	0x3d4e9c6b	0.05044214
73	0x3d77c862	0.060493834
74	0xbdf05597	-0.11735075
75	0x3d8bba40	0.06822634
76	0x3e057695	0.13033517
77	0x3d86e3d8	0.065864265
78	0x3c1bb265	0.009502982
79	0x3dbe2417	0.09284227
80	0x3c31413f	0.010818779
81	0x3d4985c3	0.04919983
82	0xbd8dbba0	-0.06920552
83	0xbe1f6e99	-0.15569533

output.weight f4 [10, 84]
0	0x3d18449a	0.0371748
1	0xbd33fe40	-0.043943644
2	0xbdde00a5	-0.10839967
3	0xbe36171d	-0.17782255
4	0x3e263a63	0.1623321
5	0x3e5bf6ec	0.21480912
6	0xbe90233e	-0.28151888
7	0xbde0993b	-0.109667264
8	0x3e9ea210	0.3098302
9	0xbe1c9d29	-0.15294327
10	0x3c0c7e4f	0.008575036
11	0xbe0bd252	-0.1365445
12	0x3d20ae92	0.039228983
13	0x3e11ac28	0.14225829
14	0xbd874c3e	-0.06606339
15	0xbd178e67	-0.03700104
16	0x3e8e21d9	0.277602
17	0xbe1e39e0	-0.15451765
18	0xbc9dc6b3	-0.019259786
19	0x3e27d191	0.16388537
20	0x3e3afdc6	0.1826087
21	0xbe0591db	-0.1304392
22	0xbd92ad7b	-0.07161995
23	0x3e44e48f	0.19227813
24	0x3e5705ae	0.2099826
25	0xbe064bb6	-0.13114819
26	0x3e338442	0.17530921
27	0x3d24b286	0.040209316
28	0x3d23b508	0.039967567
29	0x3e569474	0.20955068
30	0x3dbc888f	0.09205734
31	0x3e7d2711	0.24721934
32	0xbea48220	-0.32130527
33	0xbd87220b	-0.0659829
34	0xbe8088af	-0.2510428
35	0xbd795c12	-0.06087882
36	0x3de0c613	0.1097528
37	0x3e042ab8	0.12906921
38	0x3cd2b5fe	0.025721546
39	0x3e2de120	0.1698041
40	0xbe27bfc3	-0.16381745
41	0x3d959150	0.07303107
42	0xbd1d6fca	-0.03843669
43	0x3dba19c0	0.09086943
44	0x3d0864e4	0.03329934
45	0x3d45432d	0.048159767
46	0x3e424b23	0.18973975
47	0xbd024c9c	-0.03181134
48	0xbdf96a26	-0.12178449
49	0xbe674ab0	-0.22587085
50	0x3e8bccad	0.27304593
51	0x3d1d00a6	0.038330697
52	0x3d2e7d96	0.042600237
53	0x3caef483	0.021356827
54	0x3d684f81	0.056716446
55	0x3dd45553	0.10367837
56	0xbec42767	-0.38311312
57	0xbc9fe9c8	-0.019520655
58	0xbde5fc87	-0.112298064
59	0x3e071aa0	0.1319375
60	0x3e30580e	0.1722109
61	0x3e07af23	0.13250403
62	0xbe0fb90f	-0.14035438
63	0x3e05aa15	0.13053162
64	0x3d7b8920	0.06141007
65	0x3dfc9622	0.12333323
66	0x3da933ea	0.08261855
67	0x3ea921b8	0.33033538
68	0x3cb117f0	0.02161786
69	0xbd388cf1	-0.045056287
70	0x3d84600a	0.064636305
71	0x3e85f431	0.26162866
72	0xbddce75b	-0.10786315
73	0x3d4e1c16	0.050319754
74	0x3da35864	0.079758435
75	0xbc3e903f	-0.011631071
76	0xbe869833	-0.26287994
77	0xbe0105d2	-0.12599877
78	0x3dc89a3c	0.09795043
79	0x3e43a78b	0.19106881
80	0xbcc01c68	-0.023451045
81	0xbe05fa15	-0.1308368
82	0xbdae8a8b	-0.08522519
83	0x3e6ddb24	0.23228127
84	0xbdcbe31b	-0.09955426
85	0x3e3703a3	0.17872481
86	0xbd31b196	-0.04338225
87	0xbe72cb6a	-0.23710409
88	0xbd741695	-0.05959185
89	0xbc25ae79	-0.010112398
90	0x3e4ed934	0.20200044
91	0x3cad6e13	0.021170652
92	0x3e7fa223	0.24964194
93	0xbcab9f5d	-0.020950014
94	0x3e143437	0.14473043
95	0x3e27a5be	0.1637182
96	0xbe91a3b4	-0.28445208
97	0x3e949dc5	0.2902662
98	0x3ea9b963	0.3314925
99	0x3e37f558	0.17964685
100	0x3e9c1b52	0.30489594
101	0x3e0d0d86	0.1377469
102	0xbe05b04d	-0.13055535
103	0xbdff0fb6	-0.124541685
104	0xbdefd64a	-0.11710794
105	0xbe345de1	-0.17613937
106	0x3de5ef50	0.11227286
107	0xbe92f85f	-0.28705117
108	0x3a8061e6	0.0009794801
109	0xbe6a908b	-0.22906701
110	0xbe24390f	-0.16037391
111	0x3c01c815	0.007921238
112	0xbd5e8214	-0.05432327
113	0x3d741233	0.05958767
114	0x3c9087f7	0.017642958
115	0x3e8c059b	0.27348027
116	0xbe451976	-0.19247994
117	0x3cb58c91	0.022161754
118	0xbe487545	-0.19575985
119	0xbd6715c4	-0.05641724
120	0xbcb4f481	-0.022089245
121	0x3c2b9824	0.010473285
122	0xbbf161c9	-0.007366393
123	0xbd917ecc	-0.07104263
124	0x3e1f3a86	0.15549669
125	0x3dc12b8b	0.09432133
126	0x3de1c1b6	0.110232756
127	0x3e81bf70	0.25341368
128	0xbe7b265e	-0.24526355
129	0xbe87cd95	-0.26524034
130	0x3c1173dc	0.008877721
131	0x3e397d42	0.18114188
132	0xbcc3e68d	-0.023913646
133	0xbe358d31	-0.17729641
134	0x3e5296be	0.20565316
135	0xbcb7f08b	-0.022453567
136	0xbdb9348b	-0.09043225
137	0xbddd0793	-0.1079246
138	0x3e723fc0	0.23657131
139	0xbdf5a738	-0.11994785
140	0xbe0aece1	-0.13566925
141	0x3e7ee3a2	0.24891523
142	0x3e33777f	0.17526053
143	0x3de0e586	0.10981278
144	0xbdf547dd	-0.119765975
145	0x3d6b60d8	0.057465404
146	0x3bc89eea	0.0061224597
147	0x3b9cd87a	0.004786548
148	0xbdc12a40	-0.09431887
149	0x3e1d2d1f	0.15349244
150	0x3d7d370b	0.06182007
151	0x3df7e558	0.12104291
152	0x3d781123	0.060563218
153	0xbe82f07b	-0.25574097
154	0x3d0d8457	0.034550037
155	0xbe1124c1	-0.14174177
156	0x3d6ea8c6	0.058266424
157	0xbdfac5fb	-0.12244793
158	0x3e94e83d	0.29083434
159	0x3e920f3c	0.28527248
160	0xbd500d92	-0.05079419
161	0x3d7ddd82	0.061978824
162	0xbdc39933	-0.09550705
163	0xbde5e6ee	-0.11225687
164	0x3c837290	0.016045839
165	0x3dff0076	0.1245126
166	0x3dbb4b6b	0.09145244
167	0x3dbff0f0	0.09372127
168	0x3df742ee	0.12073313
169	0x3deb3ef1	0.114866145
170	0x3dbe000b	0.09277352
171	0x3e741084	0.23834425
172	0x3de37d22	0.111078516
173	0xbcc46e30	-0.023978323
174	0x3d8916ab	0.06693777
175	0x3da212d2	0.07913746
176	0xbdef56b2	-0.11686458
177	0x3daf47bd	0.08558605
178	0x3cfb04bd	0.030641908
179	0xbdfd683c	-0.12373397
180	0x3dcbf267	0.09958344
181	0xbe37e02c	-0.17956609
182	0xbe0c026f	-0.13672803
183	0xbd63d364	-0.05562152
184	0xbcb8ceaf	-0.022559492
185	0xbe0116f7	-0.12606417
186	0xbdb6f176	-0.08932774
187	0xbd31b383	-0.043384086
188	0x3d53ee86	0.051741146
189	0x3e1793cd	0.14802475
190	0x3dd604fc	0.104501694
191	0x3e473c4b	0.19456594
192	0x3de1bc0e	0.11022197
193	0xbd0bca90	-0.034128726
194	0x3e3703d6	0.17872557
195	0x3d9727da	0.07380648
196	0x3e208ea9	0.1567942
197	0xbdad5a3b	-0.08464476
198	0xbcdd90d6	-0.027046602
199	0x3ccb38d6	0.024807375
200	0x3dc1223e	0.09430359
201	0x3d83cef8	0.064359605
202	0xbdec3f60	-0.11535525
203	0x3d7babe4	0.061443225
204	0x3d1c9f98	0.038238138
205	0xbddbd605	-0.1073418
206	0xbc2a320a	-0.010387907
207	0x3c856b0b	0.016286394
208	0x3d284d20	0.041089177
209	0xbd8defac	-0.069304794
210	0x3b03d9de	0.0020118873
211	0xbdbec077	-0.093140535
212	0x3e5dffaf	0.21679567
213	0x3ecad422	0.3961497
214	0x3e305848	0.17221177
215	0x3d6e9c6e	0.05825465
216	0xbdfdd845	-0.12394766
217	0x3e8de778	0.2771566
218	0xbd9d7d3f	-0.076899044
219	0xbcc06312	-0.02348474
220	0xbb18b3a9	-0.0023300445
221	0x3dc63b48	0.09679276
222	0xbdb615a6	-0.08890848
223	0x3e890fa1	0.26769736
224	0x3e5a4c0c	0.21318072
225	0x3d4b9ec6	0.049711965
226	0x3c24ba27	0.010054148
227	0x3d8071e2	0.062717214
228	0x3e6ccfea	0.23126188
229	0x3d9e32cb	0.07724532
230	0xbe3d2b58	-0.18473566
231	0x3e305516	0.17219958
232	0x3e1bb310	0.15205026
233	0xbd19bfa1	-0.037536267
234	0x3e34f001	0.17669679
235	0x3e4188cc	0.1889984
236	0xbdd432fc	-0.10361287
237	0x3e3694a1	0.17830135
238	0x3c81ae02	0.015830044
239	0x3dc2729f	0.094945185
240	0xbd0570a2	-0.03257812
241	0x3de2c883	0.11073401
242	0x3e7a1a6f	0.24424146
243	0xbe34a7bf	-0.17642115
244	0xbe1406a5	-0.1445566
245	0xbe01798e	-0.12644026
246	0x3dd451db	0.10367175
247	0xbca6df27	-0.02037008
248	0xbd93b1cd	-0.07211647
249	0x3c27a64e	0.010232521
250	0xbd1586c9	-0.036505494
251	0x3ccd14b4	0.025034286
252	0x3e2c582a	0.16830507
253	0xbd4fc699	-0.050726507
254	0xbdc04e7d	-0.093899705
255	0x3d3b042a	0.045658268

output.bias f4 [10]
0	0xbec020c0	-0.37524986
1	0xbf2c10ad	-0.67212945
2	0xbe590718	-0.21194112
3	0x3f245408	0.6419072
4	0x3f452e55	0.7702382
5	0xbdc353b6	-0.09537451
6	0xbbfcd3ef	-0.007715694
7	0xbe4ab52a	-0.19795671
8	0x3ecb1b2d	0.3966917
9	0xbe0928bc	-0.13394445
