cifar_net.pth (torch, 251167 bytes, 10 tensors)

conv1.weight f4 [6, 3, 5, 5]
00000000: e257 9cbe f3af ad3e f233 523e d7b6 02be
00000010: 7d45 95be a9e0 4bbd facc 9c3e b095 4a3f
00000020: f403 573f 8403 3b3e c2da b7be beb6 a1bf
00000030: c5ba cebf f07b 79bf a56e f83c ce8d b13e
00000040: c962 4d3e b281 903b 7ad0 603d 2204 f13e
00000050: f756 113d 8f99 a43d d4c6 073f f53c 5f3e
00000060: 9092 9b3d 355c c2bd 3371 053f a61f f93e
00000070: 155f c43e d04c 5ebc 788a 8e3e f694 453f
00000080: b141 913f 6bc1 8f3f 29f2 a63e 1de2 e9bc
00000090: 1c65 65bf 2059 b5bf 7958 86bf 4ea4 39be
000000a0: 9181 8c3e f44b 353e 3f9e 64be 4c06 cebe
000000b0: 12ce e33d c040 32be fc77 06be 855f 903e
000000c0: aec9 73be ad48 18bf f990 eebe 68a7 5dbd
000000d0: d9d8 dfbd 868b 27be a37a babe 8b9c 6f3e
000000e0: 7707 323f ed3d 773f 79d6 363f 5ae8 6bbd
000000f0: 4c8c 51be 0c1c 27bf cd81 9cbf b3d7 5bbf
00000100: d6dc ddbd 74c0 243e 8f6d e33d 32db a83d
00000110: 54da f6bb 6fb2 dc3e b86a c9bd 230a 933d
00000120: cc10 1c3f f0fc ca3e 2f25 a93c 6e79 b7be
00000130: 82e0 4cbe e6f3 fc3d 7685 af3e 771d 923d
00000140: 9390 3bbe f6a2 9ebe 8f83 e6bd a465 ac3e
00000150: d334 883e 3ac1 19bf 014b ebbc 390f fc3e
00000160: b402 ddbe 8ae5 903e ee13 77be 4f7a 973f
00000170: 04c6 b13e fae5 d8bf 63a0 1f3f d034 953e
00000180: db15 973e da1a 0fbf 963f 8ebf b9e8 613f
00000190: 87c2 973e a94c 893d 0ce2 94bd dae0 7abd
000001a0: a5bb cfbd 2542 e43e c988 383e 7a3c d2be
000001b0: 5f0f 78bd 92ff 3c3d 126e 85bd a782 063f
000001c0: d031 d73e f3ff 6ebf 9ac7 15be 48b9 0dbd
000001d0: 1f0c ad3f 8676 4abd e3b2 edbf 16a5 783e
000001e0: 0103 e93e fee2 093f 1367 20bf 79aa 6ebf
000001f0: d2a2 313f ada1 b0be 38a9 c93c 7fc3 4abd
00000200: af32 063c 6820 82bd 905a 51bc eb0f 5a3c
00000210: ca35 a6be 94a4 cd3d 94ff e33d 976d fabe
00000220: 6067 da3e f56b f13e faaf 13bf 8106 bd3d
00000230: 447d e1be 09a8 a13f 9a67 c23e 4a26 bbbf
00000240: dd9d e93e fa57 f1bc 8cb4 943e a343 3abe
00000250: b99c 3ebf 3a4b 593f ff2f 61bd 1f26 cb3e
00000260: c41a 0b3f b5c5 2c3e c2dd ef3d 36b6 0e3f
00000270: 4407 3a3f 47ed 703f c0cf d43e 077d a83d
00000280: 9822 1b3f 775b 3a3f e252 2b3f dea5 e73e
00000290: 22e3 453e fe3e 03be 7e5d fabd 2fa8 09be
000002a0: 82cb 98be 240a c13c c4d0 ffbe cc60 6dbf
000002b0: ba10 3abf 225c 40bf d381 63be 7667 0fbf
000002c0: 9dd5 80be 86ba a1bd d62a 02bd ce5a ef3d
000002d0: 44f9 9abe 9c50 7fbe 37c1 dcbe e29b e7be
000002e0: f786 c2be 6224 2abe 1d51 c2be 1a50 19bf
000002f0: 57da 30bf 0b3f 84be f171 2bbe 7e6b 11bf
00000300: 17ea 3fbf ce55 28bf b4a3 21be 8209 88bd
00000310: a6cf 03bf a206 ccbe 530d 62be f45d 823e
00000320: d0c6 e4bd a898 9abd 559f e33d a255 823d
00000330: 42d7 503e 1a00 f83d fff9 5ebe d46a 60bd
00000340: 46ef c5bd f0cc 59be 862d a83e cb26 3b3e
00000350: 79ab d839 1a49 96bd ca03 77be d9a2 9f3e
00000360: 4613 313e 7289 9dbd 2322 acbd 154c 943e
00000370: ac29 9d3e 53d4 eb3c 8007 843e fafd 923e
00000380: e95a 133f 4094 393e 04af c5bb c1bf 6bbe
00000390: 1c88 34be 5d75 95be 549e b53e 4a7e 853e
000003a0: 717f 11bd 7f82 99be fdfc e2bd 4281 543e
000003b0: 0dba aa3e ccfb 073e 2fa3 a8bd 8471 003e
000003c0: ba89 713d 9617 413e eb15 b03e 0f1a 873e
000003d0: 3752 d53d b07d 9bbd 8276 fc3d e055 4c3e
000003e0: e598 953e bd47 2b3e 578d 5f3d d3a4 ebbd
000003f0: a17b 2ebe 5569 0bbd 3bf2 2b3d e36a 0cbc
-0.305358 0.339233 0.20527628 -0.1276506 -0.29154578 -0.0497748 0.30625135 0.79134655
0.83990407 0.1826306 -0.35909086 -1.2633893 -1.6150748 -0.9745474 0.030326197 0.346785
0.20057215 0.004409992 0.05488632 0.47073466 0.035483327 0.080371015 0.5303776 0.21800597
0.07596314 -0.09490243 0.52125853 0.48656958 0.38353792 -0.013568118 0.27840018 0.7718042
1.1348172 1.1230901 0.3260663 -0.028550202 -0.89607406 -1.4167824 -1.049575 -0.18129084
0.274426 0.17704755 -0.22325991 -0.4023918 0.11123289 -0.17407513 -0.13131708 0.28197876
-0.23807403 -0.59485894 -0.4659498 -0.05411473 -0.10930032 -0.16361818 -0.3642169 0.2339956
0.6954264 0.96578866 0.7142101 -0.057594635 -0.20463675 -0.6527717 -1.2227112 -0.85876006
-0.10833137 0.1608904 0.11104881 0.08244933 -0.007533351 0.43104884 -0.09834808 0.07179668
0.6096313 0.396461 0.020647613 -0.3583483 -0.20007518 0.123512074 0.3428151 0.07134526
-0.1831687 -0.30983704 -0.112555616 0.33671296 0.26602802 -0.60060465 -0.028722288 0.49230364
-0.43166125 0.28300124 -0.24128696 1.1834201 0.34721386 -1.6945183 0.62354106 0.29141855
0.29508862 -0.5590035 -1.1113155 0.8824573 0.296406 0.06704075 -0.072696775 -0.06124959
-0.10143212 0.44581714 0.1802093 -0.41061765 -0.060561534 0.04614217 -0.06515135 0.5254311
0.4203019 -0.933593 -0.14626923 -0.034600526 1.3519324 -0.04942944 -1.8570217 0.24281725
0.45510104 0.5386199 -0.6265728 -0.9322887 0.6938907 -0.3449835 0.024616823 -0.049502846
0.008190795 -0.06353837 -0.012777939 0.013309459 -0.32462913 0.100411564 0.11132732 -0.48911735
0.42656994 0.47152677 -0.57690394 0.09229756 -0.44040883 1.2629405 0.37969667 -1.462106
0.45628253 -0.029460896 0.29043996 -0.18189864 -0.7445789 0.8488041 -0.054977413 0.39677522
0.54337716 0.16872294 0.11712219 0.5574678 0.72667336 0.94112056 0.4156475 0.08226972
0.6059966 0.72795814 0.66923344 0.45243734 0.19324926 -0.12816998 -0.122248635 -0.13443063
-0.29842764 0.023564406 -0.49963963 -0.92725825 -0.7268177 -0.75140584 -0.22217493 -0.56017244
-0.25162974 -0.07896905 -0.031779133 0.116872415 -0.302683 -0.24933094 -0.4311616 -0.45236117
-0.37993595 -0.16615441 -0.3795251 -0.5988785 -0.6908316 -0.25829348 -0.16742684 -0.56804645
-0.7496657 -0.6575593 -0.15785104 -0.066424385 -0.5148872 -0.3984881 -0.22075395 0.25462306
-0.11170733 -0.07548648 0.111143745 0.063639894 0.20394614 0.12109394 -0.21775053 -0.05478938
-0.096647784 -0.21269584 0.32847232 0.18276517 0.00041326488 -0.07338162 -0.24122539 0.3117893
0.17292508 -0.07692231 -0.084049486 0.28964296 0.30695856 0.028787768 0.25786972 0.28709394
0.5756059 0.18122959 -0.0060328264 -0.23022367 -0.17630047 -0.29191104 0.35472357 0.26072913
-0.03552193 -0.29982373 -0.1108341 0.20752433 0.3334507 0.13279647 -0.0823425 0.12543303
0.058969237 0.18856654 0.34391722 0.2638707 0.10416072 -0.07592332 0.12327291 0.19954634
0.29218212 0.16726585 0.05457815 -0.11506047 -0.17039348 -0.034036 0.041979056 -0.008570406

conv1.bias f4 [6]
00000000: 212f 0abf 4a47 8cbe 0146 4fbf f69d 903b
00000010: 9c08 f6be 809a 003f
-0.53978163 -0.2739814 -0.8096619 0.0044133617 -0.48053443 0.5023575

conv2.weight f4 [16, 6, 5, 5]
00000000: 203f 9cbe 3e7d c33d f183 acbd c384 d43d
00000010: 2709 7f3d 145e 05bb fbd8 093e 4283 8c3d
00000020: c39e 6f3d e0a0 acbd 9b44 13bd 3107 233e
00000030: 2395 24bd 7f72 973e 9061 e03e f8d5 a43e
00000040: 05e5 c93e 5d19 c93e 6846 a53e 43d1 37bd
00000050: ab94 4f3c cf10 0b3f 7e99 023f b0b4 133e
00000060: cf72 c83e a2aa aa3d b316 ebbb 8e4d 73be
00000070: 1da8 e4bd 3f90 15be 370f 803c 136e cfbe
00000080: bf2e eabe f81d b9be 2475 793d 0471 a9bc
00000090: 554f 9ebe 248f fdbe adfe e3be 2bc4 8cbd
000000a0: 0ecd ac3e cdef 2f3e 6161 91bd f1fa c0be
000000b0: 1910 f8bb cc38 983e 47bd 0e3e dac2 b83e
000000c0: 1b9a d3bd 0d8e fbbc 8ee2 b83d 323d bdbd
000000d0: 7793 633e 312b b53e 2d72 a73e e82b 90be
000000e0: bbc4 a9be eea0 09bd 15a0 9a3d 3d62 4c3e
000000f0: bea3 efbe 417c 64be 6e2f 91be 02fa 25be
00000100: ca68 79be 0286 02be 8202 6c3e 4d1f a93e
00000110: f0e5 c63e 3680 943d a0e1 6dbe c307 ccbd
00000120: ddd4 393d 7c5c ee3d c6f3 4c3b b7eb 243e
00000130: 3e15 e83d 3d42 03bd f792 d6bd e060 e83d
00000140: a92d cd3e d053 58bd 2a4f 1dbd 6e7d 61be
00000150: 82da 17be ce0a ca3c f1de adbc 2b9b efbd
00000160: adf2 4bbe 0530 633d 59e3 e1be 99cf 6fbe
00000170: 5f25 3bbe c2c2 ddbe 4f9c 503d 23fd b2bd
00000180: 47c4 80be 4d3c 9bbe 84fa e8be dd2e b9be
00000190: be5e 6ebe 0d91 79bd 8689 fe3d 405f 5ebe
000001a0: 6d96 cdbd 3a9a 88be fa18 c03c 13cd 853d
000001b0: 43f3 cd3d 481a b23d 9098 38bb cf83 0d3e
000001c0: f0b8 9abd 7212 f7bd 1263 923c 10dd 2cbe
000001d0: 2290 673c 1bd6 403e f517 173d 7df4 1d3e
000001e0: 83c5 7ebe eb1f 61be 8921 31be 3bbd aabe
000001f0: 816c e2be 6225 4ebe 7835 a6bc 1934 9cbc
00000200: 89f8 503d 1250 673d c9a8 273d 1272 e73d
00000210: 6c9d 103b 4899 fbbd f570 b4bd 237a 653d
00000220: 05ee 19bd 0413 c8bd 2c16 0fbe a6f4 04be
00000230: 15f9 583e 895c 233e 3a3b 233e 69b9 803b
00000240: a10c e0bd 04dc a53e e009 3f3e 2bae 233e
00000250: 0986 f3bd f256 39be 317e 843d 1130 5ebd
00000260: 0763 e9be aa36 523d 373b 06be 02cd bb3d
00000270: f7eb d6bd af86 db3d 026d a6be d9a0 d83d
00000280: 4eef 8d3e 16d6 bd3d 5c04 61bd 23c8 6b3d
00000290: 0edc 27be c751 503f 45a6 2cbe c4bd 373e
000002a0: 8f2a 77bd 5272 90be dba3 533e c5d0 1b3f
000002b0: 0c70 0d3e 7ce5 a7be 5f91 82bd e298 ee3c
000002c0: fc36 7dbc ad01 2f3e c762 b53e 8c53 69bc
000002d0: 17e6 733e 0ab9 513e 42bf 233e a8e6 cfbd
000002e0: 1103 dc3e b7e8 a3bd d352 17bd 7347 223e
000002f0: 22bb b13e 64a9 aebd fe6d 6ebe 0042 143f
00000300: ef25 6e3d e1e1 05bf 51be 64be 218d 113f
00000310: ad77 95bd 083d 8a3c fcc7 b43e 1e73 b23e
00000320: 8411 04bf f075 bbbd 87f4 9dbe 09a8 1bbd
00000330: db73 4c3d 0498 24bf 058a 8cbe 1375 88be
00000340: 4021 b4bd 6c2e dc3e 673d 38bf 16f2 30bf
00000350: c461 22be f19a 853e d0bd de3e ff46 1abf
00000360: fad9 abbe 4290 ecbc bd2c ca3c e74a 6c3c
00000370: dc35 84bd 3585 25bc d844 a2be db9f 2ebe
00000380: 7a43 e6bc 8148 9abe 8f85 ffbe 6968 25be
00000390: a851 26be c1a5 12be ae88 89bd 5b6c 62be
000003a0: 0821 85bd a841 1abe b9b0 98be fa05 0cbc
000003b0: b65f 35bd 2a0c 9abe a6a9 c1be 8aa7 36be
000003c0: 40a3 48be 94fb edbd 88bc 80be 1744 bd3c
000003d0: 092d 22be 8708 b9bc c394 703d 7d76 903d
000003e0: 755a 8bbd 7419 0d3e 600f 61be e709 c7bd
000003f0: 7f2a 4b3d b1c5 38bd 326b 7b3e fc31 d3be
-0.3051691 0.095453724 -0.08423603 0.10376885 0.062264588 -0.0020350264 0.13461678 0.06860973
0.058501016 -0.08429122 -0.0359541 0.15920712 -0.04018129 0.2957954 0.43824434 0.32194495
0.3943254 0.39277163 0.32280278 -0.044877302 0.012669723 0.5432252 0.5101546 0.14424396
0.39150092 0.08333327 -0.007174337 -0.23760054 -0.111648776 -0.14605807 0.015632255 -0.40513667
-0.4573879 -0.36155677 0.06090273 -0.020683773 -0.309199 -0.4952327 -0.4453024 -0.068733536
0.33750194 0.1718132 -0.07098652 -0.37691453 -0.0075702784 0.29730833 0.13939391 0.3608616
-0.10332128 -0.030707384 0.09027587 -0.09240188 0.22224222 0.35384515 0.32704297 -0.28158498
-0.33157906 -0.03360074 0.075500645 0.1995935 -0.46804613 -0.22313024 -0.28356498 -0.16208652
-0.2435638 -0.12746432 0.23047832 0.33031693 0.38847303 0.07251017 -0.232306 -0.09962418
0.045369018 0.11638734 0.003127323 0.16105543 0.113321766 -0.03204559 -0.1047725 0.113466024
0.40073898 -0.052814305 -0.038405575 -0.22020504 -0.14829448 0.024663355 -0.02122447 -0.11699518
-0.19916792 0.055465717 -0.44118765 -0.23419036 -0.18275975 -0.4331265 0.050930317 -0.08739688
-0.25149748 -0.30319443 -0.45503628 -0.36168566 -0.23278329 -0.060929347 0.12428574 -0.21716022
-0.10038457 -0.26680166 0.02344941 0.065332554 0.10056164 0.08696419 -0.0028167106 0.13819812
-0.07554805 -0.12064065 0.017869506 -0.16881204 0.014133485 0.18831675 0.03688808 0.15425296
-0.24880032 -0.21984832 -0.17297949 -0.33347496 -0.44223407 -0.20131448 -0.020289168 -0.01906781
0.05101827 0.056472845 0.04093245 0.11301054 0.0022066487 -0.122850955 -0.08810607 0.05602468
-0.03758051 -0.09769252 -0.13973302 -0.12983951 0.21188767 0.15953268 0.15940562 0.0039283526
-0.10939909 0.3239442 0.18656111 0.15984409 -0.118907996 -0.18099573 0.064693816 -0.05424506
-0.45583364 0.051321663 -0.13108526 0.091699615 -0.104942255 0.10719048 -0.3250504 0.10577554
0.27721637 0.09269349 -0.054935798 0.057563912 -0.16392538 0.8137478 -0.16860302 0.17943484
-0.06034332 -0.2821222 0.20667975 0.6086543 0.13812274 -0.3279227 -0.063753836 0.029125635
-0.015455004 0.17090483 0.35426924 -0.0142411105 0.23818241 0.20480743 0.15990928 -0.10151416
0.4297109 -0.08003371 -0.03694422 0.15847568 0.34713084 -0.085284024 -0.23284146 0.5791321
0.058141645 -0.5229779 -0.22338225 0.5685597 -0.07298217 0.016874805 0.35308826 0.34853452
-0.51589227 -0.09153354 -0.30850622 -0.038002048 0.049915176 -0.6429446 -0.2744905 -0.2665182
-0.087954044 0.43004167 -0.7196869 -0.69119394 -0.15857607 0.26094773 0.4350419 -0.6026458
-0.3356474 -0.028877381 0.024679536 0.014422155 -0.06455585 -0.01010256 -0.3169315 -0.17053168
-0.028108347 -0.3013344 -0.49906585 -0.1615311 -0.16242087 -0.14321043 -0.06715523 -0.22111647
-0.06500441 -0.15064108 -0.2982233 -0.008546347 -0.04428073 -0.30087405 -0.37824744 -0.17837349
-0.19593525 -0.1162025 -0.25143838 0.023103757 -0.15837492 -0.022587074 0.05873562 0.0705385
-0.06804363 0.13779241 -0.21978521 -0.097186856 0.049601074 -0.04511041 0.2455261 -0.41249073

conv2.bias f4 [16]
00000000: 7b83 45bf cfd2 0940 0502 db3d 99ba 09c0
00000010: 061d 42be 9d04 8a3d 8318 ccbf 950f c9be
00000020: d13f 0abe 4f29 673f 88d1 573f d10a d1bd
00000030: ca81 8e3f 8a04 e1be 70e8 383f 04db fe3f
-0.7715375 2.1534917 0.106937446 -2.152014 -0.18956384 0.06739161 -1.594498 -0.392697
-0.13500907 0.90297407 0.84304094 -0.10207141 1.1133358 -0.43948776 0.7222967 1.9910588

fc1.weight f4 [120, 400]
00000000: 31ed f3bd a9ab 913d 3b9b c0bd 87b8 25be
00000010: 5bd0 643c cca1 233d 0e07 fc3d 9845 2f3d
00000020: f9a3 a4bd a6b3 9fbd 868e 42bd 4cc2 90bd
00000030: 9051 e3bd de37 9a3d 311a b1bc b679 3dbb
00000040: 079c 05be 5e24 0cbe 68c7 4fbd 3080 183d
00000050: 80c4 a03e f24d b13d 6501 aa3c a455 693d
00000060: dcea b2bd 4d6a 62be 573d afbd fdae 3bbd
00000070: e420 e1bd d6ad a1bd cc13 00be 2626 913d
00000080: 31b0 66bc 4ed1 05bc 4d6a a6bc eaa7 16bd
00000090: 2830 af3d acd1 273e bdff 8fbd d855 c3bd
000000a0: 7953 76bc 4d22 9cbc e38a 87bd 4158 d93b
000000b0: 677c 4b3c f6ac 6ebe 2bd3 76be 10ce 76be
000000c0: b308 873d 2195 cbbd a667 a93d 6efe 7fbd
000000d0: b40a f6bc c32d d2bd c27d 02bd aa41 55bc
000000e0: b5cf 7ebd 54ba 85bd 27eb 3a3c 64ed 923d
000000f0: a6ae 5f3d 8c5b 6abc 8fd5 e73c 4b34 063e
00000100: b67f a5bc 41f5 06bd 9491 edbd 44dd 263d
00000110: 05b0 02bb ea7a 74bc 1051 3a3e 758f 2b3c
00000120: 19bc 1b3e 628b 3e3e 4d79 353e 6c32 9fbe
00000130: 74c8 1bbe 9b98 b53d bb99 08be 290b 1fbe
00000140: dcbf bdbd 5c5e 423d dae4 9abb e91a d73d
00000150: ec19 4abd a1bf 963d 125d 793d 19b5 7bbd
00000160: a4f4 cf3c 91f0 2abe 014f 063e 0003 883d
00000170: 3418 3fbe 9484 cfbd 5a24 3e3c 6a62 be3d
00000180: abfd 27be 9e14 3dbe 9ff4 84be 885a 013e
00000190: 82bb 55bc acc9 8dbd 563f 25bd 6aa3 a6bd
000001a0: ce17 b1bd 4923 753d ba88 07be 962c 1ebd
000001b0: 3a40 07be 7012 e1bd 76b8 3a3d 701d 0b3c
000001c0: ce8d 643a 3a6b bc3c 56da 0bbe 8a61 03bd
000001d0: 383e 7f3d cf59 ae3d ad61 cc3d 7cf7 a73d
000001e0: 3db2 1bbd 597a 86bd 68da 453c 8712 443e
000001f0: b290 2f3e 83ba 89be 7d24 8dbe a4c3 09be
00000200: ab71 25be 5b24 6abd c103 70bc b840 12be
00000210: 7212 bebd 5fa3 1d3d 5724 f6bd d4f3 6b3d
00000220: 7623 b4bd 7daf 06bd ca3f 983c d7dc 0abe
00000230: af84 84bd 0b62 003e a6f7 053d 4bdd 993c
00000240: 80d1 4dbd f4f0 043e 76dd 183e aa08 02be
00000250: 32df 91bd 5dd1 013e ad52 cb3d 2dfe 8dbc
00000260: eec9 d2bc 418b b23b d34e d0bc 621e 063e
00000270: a302 843d 8eeb de3d 2dd1 e43d 8f7d 033e
00000280: 0f6e e33d 5519 f6bd 881a 52bc b09d 67bd
00000290: 4016 3cbc 28c4 433b 806f 2cbe faf9 13bd
000002a0: 9d9c 603d 2be0 8bbc 5d3f 9bbe b392 c4be
000002b0: 8cb4 87be 31df c5bd 2d4e a6bd 1844 dabd
000002c0: 5bd2 953c 8b35 24be 10f2 77be 4f12 edbe
000002d0: b47a 32be 27ee c5bc 61cc 533e e564 dbbd
000002e0: 5ae1 f3bc 0415 a03c 5dd2 513d d1b9 583e
000002f0: 7820 243e b320 8b3d e497 f23d d472 14bd
00000300: 1cdb 20bd a90a 303e d121 41bd 4b22 d73d
00000310: 1b5b bcbd 7d6e 86bd ef65 3e3d b66c 8bbe
00000320: 669a bcbc 4cda 31bd f6e4 3ebd f568 843d
00000330: 88a2 d3bb c88a f4bb dc85 92bd a78f d73c
00000340: 0354 75bd db58 99bd 39be 0b3e f76c d93d
00000350: ce66 f0bc 8ca0 81bd 5d58 75bd ce5f f83b
00000360: 97dc babd 9201 8fbc 02a1 f4ba 4a60 0d3d
00000370: ffda b23c ee7b e7bd 4cd1 3d3d 4d35 f7bd
00000380: fb56 cfbd 3265 1ebe 8622 6bbe 331f 34be
00000390: f253 cebd 2c92 28be 19f5 5ebe 5f62 c5bd
000003a0: b10d 5dbe 6119 acbc 0515 e1bd 80fc 17be
000003b0: f2b5 953c e4e7 9ebd 018d 0b3e b8a9 04be
000003c0: 45ba 3abd 403f 5bbd c67f 983c 51d0 c0bb
000003d0: d9a2 c13c 617a 643c 8b0d 933d dc9b 88bd
000003e0: 8f32 a0bd cf5f 81bd 31b2 c53d 7cc0 413d
000003f0: 5a56 603e 443d 8a3e 212f 55bc fae4 043b
-0.11910475 0.0711282 -0.09404608 -0.16183673 0.013965691 0.039949223 0.12306033 0.04279098
-0.08039088 -0.07797937 -0.047499202 -0.07068309 -0.11099541 0.07530187 -0.021618934 -0.0028911657
-0.13047801 -0.13685748 -0.050727278 0.037231624 0.31399918 0.08657445 0.020752618 0.05696644
-0.08736202 -0.22110863 -0.085566215 -0.04582118 -0.109926015 -0.07894485 -0.12507552 0.07087354
-0.014080093 -0.008167578 -0.02031436 -0.03678123 0.08554107 0.16388577 -0.070312 -0.09537858
-0.01503455 -0.019059325 -0.066182874 0.006632835 0.012419797 -0.23308167 -0.24103992 -0.24102044
0.06593456 -0.099405535 0.082717225 -0.062498502 -0.0300344 -0.102626346 -0.031858213 -0.013016144
-0.062209804 -0.0652968 0.011408604 0.07174185 0.054609917 -0.014304053 0.028300075 0.13105886
-0.020202499 -0.032948736 -0.116000324 0.04073836 -0.0019941342 -0.014921883 0.18194985 0.010471215
0.15208472 0.18607858 0.17722054 -0.31093156 -0.15213186 0.08866998 -0.13339894 -0.15531601
-0.0926511 0.04745327 -0.0047269883 0.105031796 -0.049341127 0.07360769 0.060879774 -0.061452005
0.025385208 -0.16693331 0.13116075 0.06641197 -0.18661577 -0.10132709 0.011605347 0.09296115
-0.1640536 -0.18464896 -0.2596788 0.12632191 -0.013045194 -0.069232315 -0.040343605 -0.081366375
-0.086471185 0.059848104 -0.13235751 -0.03861674 -0.13208094 -0.10989845 0.045586072 0.008490905
0.00087186403 0.023000348 -0.13657507 -0.032075442 0.062315196 0.085132234 0.09979568 0.08201501
-0.03801178 -0.06566305 0.012075998 0.19147693 0.1714504 -0.2690011 -0.275669 -0.13453537
-0.16156642 -0.057163578 -0.0146493325 -0.142825 -0.09280862 0.03848588 -0.1201865 0.05760558
-0.08795826 -0.032882202 0.018585104 -0.13560806 -0.0647062 0.125374 0.03270688 0.018782279
-0.050248623 0.12982541 0.1492823 -0.12698618 -0.07122649 0.12677522 0.099278785 -0.017333115
-0.025731053 0.0054487293 -0.025428211 0.13097528 0.064458154 0.10884772 0.111727096 0.12840866
0.111049764 -0.120165505 -0.012823708 -0.056546867 -0.011479914 0.0029871557 -0.16839409 -0.036127068
0.054836858 -0.017074665 -0.3032178 -0.38393173 -0.26504934 -0.09661711 -0.081203796 -0.10657519
0.018288782 -0.1603605 -0.24213433 -0.4630303 -0.1742962 -0.024161411 0.20683433 -0.107126035
-0.029770542 0.019541271 0.05122601 0.21164633 0.16028011 0.06793346 0.11845377 -0.03624232
-0.03927146 0.17191567 -0.04715139 0.10504588 -0.091970645 -0.06564043 0.04648393 -0.27231377
-0.023022842 -0.043421075 -0.046605073 0.064653315 -0.006458584 -0.007462833 -0.07154438 0.026313616
-0.059894573 -0.07487651 0.13646783 0.106164865 -0.029345896 -0.0632945 -0.059898723 0.00757978
-0.091241054 -0.017456803 -0.0018663707 0.034515657 0.021832941 -0.113029346 0.04634218 -0.12070713
-0.10124012 -0.1546829 -0.22962388 -0.17590027 -0.10074605 -0.1646201 -0.21773185 -0.096379034
-0.21587254 -0.021008195 -0.10990337 -0.14842415 0.018275235 -0.077590734 0.13628007 -0.12955368
-0.045587797 -0.053527117 0.018615615 -0.0058842083 0.023637222 0.013945193 0.071803175 -0.06670353
-0.07822143 -0.06317102 0.09653128 0.047302708 0.2190794 0.26999867 -0.013011725 0.0020278082

fc1.bias f4 [120]
00000000: 5770 263e f830 4d3e afac f6bd e1a7 783e
00000010: 0c6b 33bb 0360 bcbe 8758 d7bd 74c7 693e
00000020: a3c2 b03d 67a6 853d 0b90 b4bc 030e 81bd
00000030: ea9b b5bd 2e99 4d3e d358 3c3e 9799 01bc
00000040: fa0f 9c3d bdf5 52be 695b 17be 8a8f 893e
00000050: f9c0 353d 4ca9 70be 871c c33c 2433 e2be
00000060: b1e7 713c 9c12 2cbe 0709 02be a6a2 a1be
00000070: 1cc1 963d af9a a13d dc28 613e 26d0 d63d
00000080: 1fb9 4fbe e841 86bd 5994 b9bd b260 62bd
00000090: c916 bbbe 2bea cb3e 10e9 b2bc 3285 613e
000000a0: a1a3 63bd 8359 193e 4a18 a9bd 4cba 0bbe
000000b0: 40c6 21ba 1306 16bc 5e3e bf3c 93a8 07bd
000000c0: e732 40bc 1d71 1cbc e0dc 923d d9f1 b03e
000000d0: 01a2 a23c fdb9 02be 8a0c b73d b992 69be
000000e0: c3fe dd3e 292d 43be 9cde 093c 997e 923e
000000f0: baad 99bd 289e c13d d6d3 27be 353c 2e3e
00000100: 725a 41bc d22c 9a3c b2c2 bd3e dd85 073d
00000110: eaf8 6bbd f9bc 803e 9402 51be b84c b63c
00000120: cffc 97bd c9a8 3bbd ecb2 4d3d dc6c 263d
00000130: 8658 4b3d 2763 01bd 8bd7 173d d6f7 893d
00000140: 6824 013e 4bbf ddbd b730 b1bd 3f90 52bd
00000150: cf6e 19be b82a 533e cfce 643e 418c 01be
00000160: fb60 6d3e 14c9 323e 9965 b1bb ef75 b4bd
00000170: 0f29 a43e 73d9 b13c 0f46 d03e b2af c33d
00000180: 764f 8c3d 8c68 ad3d 8f49 64be da80 853d
00000190: b8c5 073e af8c c43e 08ba d9bc d425 74bd
000001a0: 4900 4bbd bc8e edbd 2e41 9b3d 79ec 9abd
000001b0: 0536 b33d c2ee cc3d e30d 3fbc c615 093e
000001c0: 3132 e8bd 03c5 353d d7c0 533e a767 8bbd
000001d0: e7cb 3e3d 7018 d0bd ba11 ea3e 227a 9c3e
0.16253792 0.20038211 -0.120446555 0.2428279 -0.0027377037 -0.36792 -0.10514932 0.22829992
0.08630874 0.06525879 -0.022041341 -0.06301501 -0.08867629 0.20077965 0.18393259 -0.007910154
0.07620235 -0.20601554 -0.14780964 0.26867324 0.044373486 -0.23502082 0.023817314 -0.44179642
0.014764712 -0.16803974 -0.12698756 -0.31569403 0.073610514 0.07890832 0.21988243 0.1048892
-0.20285462 -0.06555539 -0.09061498 -0.055267997 -0.3654082 0.39827093 -0.021839648 0.22023466
-0.05557597 0.14975552 -0.08256586 -0.13645285 -0.0006171204 -0.009156722 0.023345169 -0.03311975
-0.011730886 -0.009548453 0.07171035 0.34559515 0.01985264 -0.12766261 0.089379385 -0.22809877
0.4335843 -0.19060196 0.008414891 0.2861221 -0.07503839 0.09453994 -0.16389403 0.17015155
-0.011801349 0.0188202 0.37062603 0.033086646 -0.05761043 0.25144175 -0.2041114 0.02225338
-0.07421266 -0.045815263 0.05021946 0.04063116 0.04964497 -0.0315887 0.037070792 0.06736724
0.12611544 -0.10827502 -0.0865187 -0.051407095 -0.14983676 0.20621765 0.22344516 -0.12651159
0.23181526 0.17459518 -0.0054137227 -0.088115565 0.32062575 0.021710133 0.4067845 0.095549956
0.068510935 0.08467206 -0.22293685 0.06518717 0.13259017 0.38388583 -0.026577964 -0.05960639
-0.04956082 -0.1159949 0.075807914 -0.07564635 0.08750538 0.10006477 -0.011661026 0.13387212
-0.11337698 0.04437734 0.20679031 -0.068068795 0.046581175 -0.10160911 0.4571665 0.3056193

fc2.weight f4 [84, 120]
00000000: 22cc b6bc 091a 1dbe ec96 143e 1d6c 20bd
00000010: 7c53 e7bd 7916 7d3d 94ed 6ebd 5023 51bd
00000020: fc8b 40be 181b 6c3d e475 153d eab8 1dbe
00000030: 4392 d2bd 25f5 69bd 0368 503c d085 92bd
00000040: 07e7 fa3d 4cf4 9b3d 4418 8bbd 893e e13d
00000050: b1b7 bebd 8918 ea3d 47c7 a23d e782 8e3a
00000060: 07b5 65bd d8d9 a03d a93f 4bbe d3ef 4f3e
00000070: 6c45 103e 66de 533e dcfb 2cbd 1484 dfbc
00000080: 4e0e 753d 2757 f1bd 0af8 94bd 7b68 f2bb
00000090: 3644 05be c865 c8bc 8088 dcbc 2946 dbbd
000000a0: 0c68 23be b920 043e fb52 d6bd 1815 6dbd
000000b0: 4348 f43d e28e 333d 1669 b93d 5fb8 9d3d
000000c0: 9bb8 83bd dfae 533d 5fa5 09be ef13 16be
000000d0: a415 48bd d0a4 fdbd b440 7a3b c10e 723c
000000e0: 0e6b 9e3a d889 ef3b 5efc f1bd 4a21 b63c
000000f0: 806b 9e3c 802c c9bd 7144 2ebe 7b2e 19be
00000100: 96cc b93d 464a dcbb 31f9 be3d 2e23 b93d
00000110: 2b34 9c3d 0ea1 10be d22e 043d c7d3 543c
00000120: 3809 c23d 1dc4 f03d 9280 833d 9623 133e
00000130: 7c4b 2abc 336e ddbd 24b3 05be d2ed b7bd
00000140: 548a 1b3d 71cb 123c 6cff 33bc a0b4 b2bd
00000150: a438 ffbd f037 9b3c ebf8 11bc e20d 7f3e
00000160: 5ea9 0b3e 59cc 11be 0d4e f0bd a39a 033d
00000170: c14f f6bc a07e 55bd d04e f7bd bd99 cebd
00000180: a981 f2bd 31df 6fbb 1289 8ebd 6a6a 553d
00000190: 1c65 a6bd 73d9 71bd 729e 45bd dc30 55bc
000001a0: ce15 f2bd 3491 0dbe 2458 d0bd 7e95 c8bd
000001b0: 717c 75bd 6614 44be 3e01 ac3b b0b4 903d
000001c0: ed3b 23be ce3f c33d 9990 43bc a7da 993d
000001d0: f2eb 04be 0823 203d 7df2 2fbd 372b fcbd
000001e0: a936 7a3c a20e bcbc 8eb2 8ebc e987 9cbc
000001f0: 7cf9 5cbe cee7 093d 944a 35be 5f6a 923d
00000200: d095 d4bb 5253 413e 9810 0cbd 1d16 f0bd
00000210: 63dc 0abe 4160 483d 1f57 493e d472 ebbd
00000220: 1c83 19be 2ccc ff3c 6ddf 5abd 3d31 2d3e
00000230: 0cbb c23d 09ea debd 589a 8ebc c151 0b3d
00000240: dac6 86bd d20c a63d 81fd 0f3c 1b45 53bd
00000250: 6a9a 21be e3d8 c0bd 38a0 abbd 74c7 a0be
00000260: b8ae d5bd 3efb 903d 9eec 063e 4d46 383e
00000270: 02ca ee3d 2582 9e3c 89ee 61bd 3c5a 07be
00000280: ef9f f1bd bbe0 ddbd 5c17 4c3d 9201 77be
00000290: dc79 7a3d 5051 1a3d 3b4a 1a3d 9762 74bc
000002a0: b5ff 9cbd 86d0 e13d 5883 b5bd 74c7 eabd
000002b0: 270b 073e f898 8dbe fc27 78bb e297 a03c
000002c0: 785a 5ebd 5118 2a3e 9fde c13d 87e0 96be
000002d0: 3b4c 76bd 4581 25be 4fd2 88bd d00b 7dbe
000002e0: 3b2d c13d 9ba6 d1bc e9ad 9a3c 1bb0 24be
000002f0: 5f9b 113e 4904 bdbd 027c 25bc 71fb 053e
00000300: 6c8a e83c 85f6 e8bc 1f3a b3bc 8e38 eb3c
00000310: 889d a73b 1552 30be 9c6a a3ba dda5 e63c
00000320: 3ad3 18bb 1957 3cbe f394 44be 9f12 0ebe
00000330: 3e7f 9d3b 7c06 0fbe 7983 3dbe edf5 2dbd
00000340: 806c fb3d 1c88 8ebe 6de5 863e 945f c7bd
00000350: 348e e53d 0d55 36bd 6a8c 1a3e e145 4bbe
00000360: 577c cdbd 3b68 4bbe 3400 7fbc 2128 4abe
00000370: 1f96 0bbe 3588 563d 7db4 163d 49c6 b93c
00000380: 008b 463e 176f 1d3e 35fb 113e 0e6a 73bd
00000390: 67df f93d 4f44 eabd eecc c33d 4ef2 d2bc
000003a0: dc9d c33d 11af 14be feb8 b1bc c00e 6ebd
000003b0: 6d4b acbd dbe8 9abd 2853 fd3d da62 ce3d
000003c0: 305a 98bd 1f8b 7e3c c1fb 5f3d 5a72 05be
000003d0: 3403 17be 90af 1fbe 9cea e83d 2ff7 0bbb
000003e0: 0ca7 38bd f20a fa3d 8d46 2b3d b98d d0bd
000003f0: 8147 a9bd 663f 29bd 469c 3d3d 31d9 993d
-0.022314135 -0.15341963 0.14510697 -0.039165605 -0.1129522 0.06178901 -0.05833204 -0.051059067
-0.188034 0.057643026 0.036489382 -0.1540257 -0.102818035 -0.057118554 0.012720111 -0.07154429
0.12251096 0.07614955 -0.06791738 0.10998256 -0.0931238 0.11430461 0.079481654 0.0010872752
-0.056080844 0.078540504 -0.19848503 0.2030633 0.14088982 0.20690307 -0.04223238 -0.02728466
0.059828095 -0.11784201 -0.07273872 -0.007397709 -0.13014302 -0.024462596 -0.026920557 -0.10706741
-0.1595766 0.12903108 -0.10465046 -0.057881445 0.11927845 0.043837436 0.09053247 0.077011816
-0.06431695 0.051680442 -0.1344199 -0.14656042 -0.048848763 -0.12384951 0.0038185539 0.014774025
0.0012086348 0.0073101334 -0.11815713 0.02223267 0.01933837 -0.09822941 -0.17018296 -0.14959137
0.09072225 -0.0067227213 0.09324873 0.09039913 0.07627138 -0.14123937 0.032271214 0.012989945
0.094744146 0.11756156 0.06421007 0.14369044 -0.010393973 -0.108120345 -0.13056618 -0.089809075
0.037973717 0.008959637 -0.01098619 -0.08725858 -0.12461975 0.018947572 -0.008909444 0.2490764
0.13638827 -0.14238109 -0.11733637 0.032129895 -0.030067327 -0.052122712 -0.12075579 -0.10087917
-0.11841137 -0.0036601538 -0.06959738 0.052103437 -0.08124754 -0.059045266 -0.04824681 -0.013012137
-0.11820565 -0.13824922 -0.101730615 -0.09794138 -0.05993313 -0.19148406 0.0052491715 0.070657134
-0.15940829 0.09533654 -0.01193633 0.07512408 -0.12980631 0.03909591 -0.042955864 -0.1231293
0.015271821 -0.022956196 -0.017419126 -0.019107776 -0.21579546 0.03366833 -0.1770423 0.07149195
-0.0064875856 0.1887944 -0.034195513 -0.11722968 -0.13560633 0.04891992 0.1966214 -0.11496511
-0.1499142 0.031225286 -0.05343573 0.16913314 0.095083326 -0.108844824 -0.017407581 0.034013513
-0.06580897 0.08107914 0.008788467 -0.051579576 -0.1578156 -0.09416368 -0.08380169 -0.3140217
-0.104337156 0.07079171 0.131762 0.17995568 0.11659624 0.019349167 -0.055159125 -0.13218015
-0.11798083 -0.108338796 0.049826965 -0.24121693 0.06115137 0.037675202 0.037668448 -0.014916084
-0.0766596 0.11026101 -0.088629425 -0.11463824 0.13187848 -0.27655768 -0.003786563 0.019603673
-0.054285496 0.16610838 0.0946629 -0.29468176 -0.060131293 -0.16162594 -0.06680738 -0.24711537
0.09432455 -0.025592139 0.018881755 -0.16082804 0.14219426 -0.09229333 -0.010100367 0.13084199
0.028386317 -0.028437862 -0.0218783 0.02871349 0.0051152147 -0.17218812 -0.0012467685 0.028155262
-0.002331926 -0.183926 -0.19197445 -0.13874291 0.004806428 -0.13967317 -0.18507184 -0.04247086
0.12276554 -0.27838218 0.26346913 -0.09735027 0.11208764 -0.044514704 0.15092626 -0.19850875
-0.100334816 -0.1986398 -0.015564013 -0.1974187 -0.13631485 0.05237599 0.03679322 0.022677558
0.19388962 0.15374409 0.14255984 -0.059427314 0.12200814 -0.1143881 0.095605716 -0.025750306
0.09551594 -0.14519908 -0.021694656 -0.058119535 -0.08412824 -0.07563945 0.123693764 0.10077448
-0.07439077 0.015536099 0.05468345 -0.13031903 -0.14747316 -0.15594316 0.11372873 -0.002135705
-0.045081183 0.12209119 0.04181533 -0.101832815 -0.082655914 -0.041320227 0.046291612 0.07512129

fc2.bias f4 [84]
00000000: c3ad 2a3d e280 913e 7389 133d e63f 5f3e
00000010: c036 f73d 57a3 b13e bc6c 453b 41f7 a33e
00000020: 1de9 593d eefb f03e e078 8c3d 9acc 53bc
00000030: 3fbd 48bd a20c 073e cd88 223e 8305 dd3e
00000040: b422 65bd 8099 933f cc68 4dbc 895e 2e3f
00000050: 3828 963e 0380 333f 0cef 293d cf95 3d3e
00000060: 96f5 8f3e 88c6 b33d 9374 263f aa46 113e
00000070: 0d3e b93d 0bd2 583f eac7 3bbd cb45 ccbd
00000080: ef61 9e3e d7e2 b13e 440a 533f 0238 223e
00000090: 9f97 583f fb6f 11be 9147 033f e99e 5d3e
000000a0: dcd6 aa3e 1320 1bbd b972 f23d 7d66 8f3e
000000b0: da06 af3e 4f81 a03d 4790 bd3e fc66 1cbd
000000c0: 1bf7 f3bd 8733 25be c603 8f3e d014 913f
000000d0: 85a3 3fbd b0dc 06be 816d aa3b 44dc 0bbe
000000e0: 30d6 233e e934 8d3e 1a1d ec3e 397a 263e
000000f0: 003f e23d a579 e3bc e801 e13d bb1c d3be
00000100: e578 25be a068 863e c61d 063e 4cc5 dabd
00000110: 79bb 413d 0865 133f 61f1 febd 9ffd f23d
00000120: f4cd f43e dc52 8b3d fc36 de3d 025c 76bc
00000130: 760f b73d 4c24 17bd ebcd 5e3e 8e45 0d3f
00000140: 58a8 ee3c 084b 793d 56f4 a53e b51a 6abd
0.04166962 0.28418642 0.036019754 0.21801719 0.120709896 0.3469493 0.0030124625 0.32024577
0.05320083 0.47067207 0.068589926 -0.012927199 -0.049008604 0.13188413 0.15872498 0.43168268
-0.0559413 1.153122 -0.012537193 0.68113 0.2932756 0.70117205 0.04148774 0.18514179
0.28117055 0.08778101 0.6502163 0.14187112 0.09045038 0.846955 -0.04584495 -0.099742495
0.30934092 0.34743378 0.8243754 0.15841678 0.84606355 -0.14202873 0.51281077 0.2164265
0.3336705 -0.037872385 0.11838288 0.2800788 0.34184915 0.07837164 0.37024137 -0.03818415
-0.11912366 -0.16132937 0.27932566 1.1334476 -0.046786804 -0.13170123 0.005201042 -0.13658243
0.15999675 0.2757943 0.46115953 0.16257562 0.110471725 -0.027767966 0.10986692 -0.41232857
-0.16159399 0.26251698 0.13097295 -0.10682163 0.04729793 0.57576036 -0.12448383 0.11864781
0.4781338 0.068029135 0.10850331 -0.015036585 0.08938496 -0.03689985 0.21758239 0.5518426
0.029133007 0.06086257 0.32412976 -0.057154376

fc3.weight f4 [10, 84]
00000000: e790 cabd 9e4b a83d ca6b 3bbe 6ac3 ccbd
00000010: 2a32 2cbe f4fa b63e 63c4 cd3d e5c4 f33d
00000020: ad4d 37bd 729f a9bd 9984 70bd 8342 ee3d
00000030: af3b cf3d e90f d73d 2618 3bbe ed61 8e3e
00000040: 96bf 923d 10d2 87be b0b7 fabd bde2 5dbd
00000050: 3d78 11be ccb2 493d 1452 fdbd 2487 043e
00000060: 249f 6e3d 3972 5c3e b706 85bd b851 5b3e
00000070: e385 3cbd be66 d43d ccd9 123e b987 8fbd
00000080: 1155 353d d66e 31bd ca60 c73c 8aef 62be
00000090: fb6a e63d ce5f 6abe 8f88 b7be e200 f4bc
000000a0: f8e7 363e 69c6 733e cf43 d1ba 9f46 3dbe
000000b0: 1011 303e 1b1f 8f3e 4868 523d 2b4e 883e
000000c0: 0607 593e 4f52 3c3d 6ce3 12be 9466 98be
000000d0: 46e1 0fbe 4684 103e 41c8 dbbd 5629 173d
000000e0: a225 073d b430 93be 0336 bfbd f805 ed3b
000000f0: 1995 593e 778a 9abd cf35 cc3d 1745 663e
00000100: 3905 213e 85a3 ecbd 1f65 0bbe 53b3 063e
00000110: cf01 29be 0ca9 f1bd 4049 db3d 4468 b63e
00000120: c9da ee3d 1986 07bb fc65 ad3c 6412 83bd
00000130: 1914 3a3d d2eb f83d 9038 173e 074c 36be
00000140: d501 983e 8d6a 39be e9c8 2dbe fb87 a9bd
00000150: 8797 3f3d a229 c5be 26ac 4d3d 43fa 433e
00000160: 5954 70bd 4088 663e 4741 113d 257e dfbd
00000170: 5c81 623c 41f5 9cbd 70d5 5ebd 1d84 993e
00000180: f6ad de3c 1a5b c5bd 2410 c53b db08 813e
00000190: 822c 323d 1f8b 5abe 481c 06bd 3ed5 87bd
000001a0: e39b 26be 43c6 09be 4e75 9abc 6f29 0f3e
000001b0: d110 8ebe e7eb 1c3e ae00 dfbd d6ae 25be
000001c0: ffd5 0dbe f136 12bd dac9 9cbd c5d4 523d
000001d0: ec36 27bd f72c e2be 04c9 d3be 3558 98bc
000001e0: 8540 8fbe 4c12 c23d 0452 c33d 527b 2a3e
000001f0: dc62 973d b444 c33d 2468 f43d 087c 37be
00000200: 3129 d2bd b0ac 633e 6b06 77be d910 813e
00000210: 1792 cd3d 892d a93e e6eb 9f3e 0e08 d8be
00000220: 75bc 473e 57d2 95bc 35ea e9bd 8e8f 80be
00000230: b270 ba3d d987 e9bd bde1 95be d876 fcbd
00000240: bb7d b23c 270d 153e 7800 ccbd 9501 5abe
00000250: 5345 cfbc 177e 15bd 4769 973e 3133 863c
00000260: 2706 033e fe50 7fbc 97cc f9bd 1b0d 7ebe
00000270: 48a0 e3bd 559f e13d 3e6e 1fbe 8f06 4dbc
00000280: 8c18 67bd 5705 183e b4f3 913e 542b 123b
00000290: 0eb5 543d 42bb ae3e 017d 163e c707 3cbd
000002a0: b384 61be a163 f43d 41c7 183e df43 41be
000002b0: 608c 583e eec0 ab3c a8c1 183e 0f0a b73e
000002c0: 7d1f 0a3e 0ac7 f3bc c5a6 873d 40e5 cdbd
000002d0: b86a a6bd b4c4 5b3d 3029 173e c345 13be
000002e0: b824 f03b 592d 52bd 1421 263e 38e8 813d
000002f0: 55ed 573d 2f25 da3d 588c bf3d 975d 803d
00000300: 61d1 923e 30d2 3d3d 0037 a7bd 93fb 363e
00000310: c98f 55bd 611d acbc 57b7 123e d771 703e
00000320: 5240 98be 5fc9 1b3e ff67 ccbc b5d5 3c3e
00000330: 71e6 2bbc c9bb 873d 1d5a 083e bca3 8ebe
00000340: eeab 92bc b944 893d 185c 23be 957a ec3c
00000350: c5f3 793e 0b06 853d ec19 183d 350c 74be
00000360: 8e25 353e 75da 593d 2c54 78bd cb82 713e
00000370: 8000 b03d 4493 2b3e 4943 803e 9fbd 4c3e
00000380: 4d3d 82bc 72ad b4bd 25c0 233e 2f04 6abd
00000390: a7b8 aebd 444b 8a3d 2415 0b3e cb8b f53d
000003a0: 330f 9a3e 40b7 d73d 5622 25be 2574 5f3e
000003b0: bd50 5abc 765d 6bbd a36e babc 505b 6a3e
000003c0: 41c2 013e 3b17 893e f351 3abd 6236 e5bd
000003d0: fac7 9bbd 4d32 33bd 48a3 f73d 5690 823e
000003e0: af8c 07be 9981 e63d d10f c33d 656b c6bc
000003f0: 8a89 0ebc 2de3 293e 6f26 0bbe 4f88 d1bd
-0.09890919 0.08217548 -0.18302837 -0.0999821 -0.16816011 0.35738337 0.100472234 0.11902789
-0.04475181 -0.08282365 -0.058720205 0.1163378 0.101188056 0.105010815 -0.1827093 0.27809086
0.07165448 -0.26527452 -0.12242067 -0.054171313 -0.14206024 0.04924278 -0.12369171 0.12942177
0.058257237 0.21527947 -0.064954214 0.21417892 -0.04602612 0.10371159 0.14340895 -0.07008309
0.04427058 -0.043318592 0.024338145 -0.2216169 0.11250874 -0.22888109 -0.35846373 -0.029785577
0.17861927 0.23806156 -0.0015965643 -0.18483971 0.17194009 0.2795342 0.05136898 0.26622137
0.21194085 0.045976933 -0.14344567 -0.2976576 -0.14050779 0.14112958 -0.10731555 0.036904655
0.032994874 -0.28748095 -0.09336474 0.0072333775 0.21248282 -0.07545941 0.09971201 0.22487293
0.15724649 -0.115546264 -0.13612793 0.13154344 -0.16504596 -0.11799821 0.10707331 0.35626423
0.11662824 -0.0020679294 0.021166794 -0.06399992 0.045429323 0.12154354 0.1476767 -0.1780244
0.29688898 -0.18107052 -0.16971172 -0.08277889 0.046775367 -0.38508326 0.050213 0.19138436
-0.05867419 0.22512913 0.035462644 -0.10912732 0.013824787 -0.07663966 -0.05440277 0.29983607
0.02718256 -0.09636517 0.006013887 0.2520207 0.043499477 -0.21342133 -0.032741815 -0.066324696
-0.16270404 -0.13454537 -0.018854763 0.1398065 -0.27747205 0.15324365 -0.108888015 -0.16179976
-0.13851164 -0.035696927 -0.07655688 0.051472444 -0.040823862 -0.4417493 -0.413643 -0.018596748
-0.27978912 0.09476146 0.095371276 0.16648605 0.07391903 0.095345885 0.11933926 -0.17918408
-0.10261763 0.22233844 -0.24123542 0.25208166 0.1003763 0.33042553 0.31234664 -0.42193645
0.19505484 -0.018288774 -0.114216246 -0.25109524 0.09103526 -0.11402864 -0.29273787 -0.12327355
0.021788469 0.14555798 -0.09961027 -0.21289666 -0.025301611 -0.0364972 0.29572508 0.016381832
0.12795316 -0.015583275 -0.121972255 -0.24809687 -0.111145556 0.11016718 -0.15569398 -0.012513771
-0.056419894 0.14845787 0.28506243 0.0022303658 0.05193048 0.3412724 0.14696123 -0.045905855
-0.22023277 0.11933065 0.1491976 -0.18873547 0.21147299 0.02096602 0.14917624 0.35749862
0.13488574 -0.029757995 0.06623606 -0.100534916 -0.08125824 0.053654388 0.14761806 -0.1438208
0.007328596 -0.05131278 0.16223556 0.0634312 0.05271657 0.106516235 0.0935294 0.06267851
0.28675368 0.04634303 -0.08164787 0.17869405 -0.052139077 -0.021010103 0.14327751 0.23480926
-0.29736573 0.15213536 -0.024951933 0.18440898 -0.010491953 0.06627614 0.13315625 -0.27859294
-0.017904248 0.06702561 -0.159531 0.028867045 0.24409397 0.06495293 0.037134096 -0.23832782
0.17690107 0.053186852 -0.060627148 0.2358505 0.08593845 0.16755396 0.25051335 0.1999421
-0.015898371 -0.088221446 0.15991266 -0.057132896 -0.085313134 0.06752637 0.13582283 0.11989554
0.3008972 0.10532999 -0.1612638 0.2182165 -0.013324914 -0.05746218 -0.022757834 0.22886395
0.12671758 0.26775536 -0.04548831 -0.11192013 -0.07606502 -0.043749142 0.1209169 0.25500745
-0.1323726 0.112551875 0.09524501 -0.024221132 -0.008699784 0.16590567 -0.1358888 -0.10231077

fc3.bias f4 [10]
00000000: b948 dbbe 0d00 46bf 94b5 51be e000 613f
00000010: e272 433f 0896 223d 7374 7b3e f0ab b2be
00000020: 8789 8b3e 6d3b 09bf
-0.4282892 -0.7734383 -0.20479423 0.8789196 0.7634717 0.039693862 0.2455614 -0.34896803
0.27253363 -0.536063
