cifar_net.pth (torch, 250887 bytes, 10 tensors)

conv1.weight f4 [6, 3, 5, 5]
00000000: a274 4fbd c9a9 cbbe f42f b03d e484 a1bc
00000010: 634e f53e 1cde 5abe ed7c 24bd f886 083f
00000020: ddc7 bdbf aaf4 9b3f 3068 86be 3dd2 cbbd
00000030: fe94 bb3f 70db dbbf 189b 243f 3909 b3bd
00000040: 6163 5abe 1ae0 363f 23cc 56bf 54d7 8b3e
00000050: 0a09 d53d 58c8 abbd 750a 763e 048a 44be
00000060: c40c 38bd 888b be3e eb91 833d b3a8 2cbd
00000070: a9fe 31bf bff9 963e ad77 b93d 3f0d 063f
00000080: 8b51 153f 3605 01c0 316e 6d3f 9870 10be
00000090: 3a0f 833e 2f5d a03f 6255 14c0 6945 193f
000000a0: 4de7 763d 4ec4 5e3e 654d 203f 4ca2 abbf
000000b0: f7fa f13e e1db 553e 8250 963e a2c6 113d
000000c0: 6b4d 39bf b5dd 4d3e a85c 88bd 7a1c fd3c
000000d0: 7e34 1c3e 9057 a4be 387e 83be 2178 f6bd
000000e0: 26da 093f c362 513f 3b8b c5bf c423 e53e
000000f0: f40b e0be 8d6a c43e 34a9 ca3f 0200 d6bf
00000100: 2c2d 903e 5601 8bbe 0703 ac3d cd25 883f
00000110: 416b 3cbf c502 8c3e da1e c7be ecb1 793e
00000120: 9e09 e33e 366b 6cbe dc2e af3c 0d77 4b3e
00000130: 4986 8ebd 8abc 3dbd 8dd1 5a3e 6e3b d93e
00000140: 4fa9 49be 993c 34be a335 b1bd 3729 89bd
00000150: 99d6 2cbe 9cbd b8be 75f7 60be 539e e73b
00000160: b62c b73d e9ca 1dbe ebc3 65be 7d35 93be
00000170: 64a2 6b3d 2ee0 893e f1e2 8bbd 2add 00be
00000180: 2d6b 06be 12c1 22be 3303 203d 88f0 423e
00000190: 526c 82bd 9ba4 bbbe 5f87 eabe 0c34 903d
000001a0: 9503 c53e 0fe2 2bbe 6245 d0bd c87a 76bd
000001b0: 5949 dd3d ec62 f2bd adf6 adbd 9b76 293d
000001c0: 0628 193d a257 27bd 71d2 0fbe 171d a43b
000001d0: 67d5 ef3d c76b 513e 7bf3 85bd 7075 6fbe
000001e0: b7d9 603c 8813 3b3d 72a5 73be a3f2 6fbe
000001f0: 5d57 14bd be93 96bb 6b27 03be dcf2 02be
00000200: 170c 20be 25fd 75be bcf1 2f3e 2ce4 133f
00000210: b110 163f 92a9 993e 6ed6 b3be 3fc8 9a3e
00000220: 7134 333f cce3 0e3f ec87 803e d603 eabe
00000230: 8dd0 da3e ca6f 2b3f 307c 163f 9656 bb3d
00000240: d3ed 12bf 6f1a b03e 11d7 1a3f f94e 153e
00000250: c08b 27be e02e b5be 904b cebe f138 8fbe
00000260: 4f4e 06bf 4625 09bf 48b7 17bf 14b9 fabb
00000270: 6f51 0abb 9c1a a83d f7c1 39bd 83b5 bdbd
00000280: c865 a43e ede0 033f 23b9 253f 8d92 ba3e
00000290: 71d4 d73b 63a9 bb3e 59f7 f13e bcbe 1a3f
000002a0: 11d9 1f3f 7b77 873e b11b 6dbe b5c4 613e
000002b0: 9d29 d43d f59d 8c3e 8017 c53d b887 3f3e
000002c0: 4ed9 113e 588e 523e 0f49 eb3e 9fd1 033f
000002d0: a98b 0abf ad7c bcbe 3486 ddbd 0c21 a83e
000002e0: 3fa5 b23e 922f 36bf 50aa 2ebf bab1 a2be
000002f0: f1ea 0a3e b481 513e 4902 08bf 08a4 47bf
00000300: 3106 06bf f3c7 cf3d af77 3d3d 6abe 02bf
00000310: 7159 cebe 85ae 0bbf 587b 4cbe 4880 3bbd
00000320: a292 943e db33 ba3e c62d eb3e b83e 973e
00000330: 7d40 ab3e 4568 babe fbb8 6bbd a02a 7c3e
00000340: b963 9a3e 0ff0 973d 0b5e e5be a0f3 d3be
00000350: d088 a5bd fee8 ec3d 1c9e 2bba 9606 9cbe
00000360: 8892 cbbe c432 84be 76cf 363e 637c 543e
00000370: 33bf bb3e 345c 293e fbc4 5dbd 1536 b73d
00000380: 130d 4a3e f0cf a53d 5e93 593e eb05 193f
00000390: 0f93 813f d8cf 333f e584 dc3d 98e6 0b3e
000003a0: cc0d 963e a0cb 2c3f bc1e 313f d9e2 40bf
000003b0: 8ed3 7cbf e59e 8bbf 9a3d f8be 4729 45be
000003c0: 88e1 adbe 33bd f4be 2ba2 24bf d2fd 14be
000003d0: 6c6c b1bc 19ce 10bf 4ac0 eabe c359 12bf
000003e0: 1d0a eabe dcef b4be 5365 c8be 46d4 c7be
000003f0: addb d8be a664 00bf 9516 febe f014 883e
-0.05064834 -0.39777973 0.08602896 -0.019716688 0.47911367 -0.2137379 -0.0401582 0.53330946
-1.4826618 1.218404 -0.26251364 -0.09952209 1.4654844 -1.7176342 0.64299154 -0.087419935
-0.21326973 0.714357 -0.8390524 0.2731272 0.10402115 -0.08387822 0.24027427 -0.19193274
-0.04493405 0.3721583 0.06424316 -0.04215307 -0.69529206 0.29487416 0.090560295 0.5236396
0.5832755 -2.015943 0.92746264 -0.14105451 0.25597554 1.2528437 -2.3177114 0.59871536
0.06027918 0.21754572 0.62618095 -1.3408904 0.47261783 0.20884658 0.29358298 0.03558982
-0.72383755 0.20104106 -0.06658298 0.030897368 0.15254399 -0.32098055 -0.25682235 -0.120346315
0.53848493 0.81791323 -1.5433115 0.4475385 -0.4375912 0.38362542 1.5832887 -1.6718752
0.28159463 -0.27149457 0.08399015 1.0636536 -0.73601156 0.27345863 -0.38890725 0.24384278
0.44343275 -0.23087773 0.021384649 0.19869633 -0.069592066 -0.046322383 0.21369 0.42428154
-0.19693492 -0.17601241 -0.086528085 -0.06697314 -0.16878738 -0.3608216 -0.21969397 0.0070684343
0.08944075 -0.15409435 -0.22438018 -0.28751746 0.057527915 0.26928848 -0.06830395 -0.12584367
-0.13126822 -0.15893963 0.03906555 0.19037068 -0.06368317 -0.36649022 -0.45806405 0.07041177
0.38479295 -0.16785453 -0.10169484 -0.060175687 0.108050056 -0.11835274 -0.08494315 0.041372877
0.037391685 -0.040855058 -0.14045121 0.0050083506 0.11710625 0.2045127 -0.06540581 -0.23384643
0.013723782 0.045672923 -0.23793581 -0.23432402 -0.03621613 -0.004595249 -0.12808006 -0.12787956
-0.15629612 -0.24022348 0.17182058 0.5777004 0.5861922 0.30012184 -0.35124534 0.302309
0.70001894 0.5581634 0.251037 -0.45706052 0.42737237 0.6696745 0.58783245 0.09147374
-0.5739414 0.34395167 0.60484415 0.14580907 -0.16361904 -0.35387325 -0.40292025 -0.2797313
-0.5246324 -0.535725 -0.5926404 -0.0076514576 -0.0021105667 0.082082 -0.045350995 -0.09263136
0.32108903 0.51515085 0.6473562 0.36439934 0.0065866043 0.3665267 0.47259024 0.6044729
0.6244059 0.26458344 -0.23155095 0.22047694 0.103594996 0.27464262 0.09623623 0.18704116
0.14243051 0.20562112 0.45954177 0.5149173 -0.54119354 -0.3681387 -0.10816613 0.32837713
0.34891698 -0.71166337 -0.68228626 -0.3177622 0.13566186 0.20459634 -0.53128487 -0.77984667
-0.523532 0.10145559 0.046256717 -0.510718 -0.40302613 -0.5456317 -0.19968927 -0.045776635
0.29018122 0.36367688 0.4593336 0.29540038 0.33447638 -0.36407676 -0.057549458 0.24625635
0.30154207 0.074188344 -0.44798312 -0.4139681 -0.080827355 0.11567877 -0.00065466925 -0.30473775
-0.39760232 -0.2581998 0.17852578 0.20750575 0.3666931 0.16539079 -0.054142933 0.08945862
0.1973155 0.080963016 0.21247622 0.59774655 1.0123004 0.7023902 0.10767535 0.13662183
0.293074 0.6749821 0.6918752 -0.7534614 -0.98760307 -1.0907866 -0.48484498 -0.19254027
-0.3396113 -0.47800598 -0.6430995 -0.1454995 -0.021658145 -0.5656448 -0.4584983 -0.57168216
-0.4571084 -0.35339248 -0.39139804 -0.3902914 -0.423551 -0.5015358 -0.49626604 0.26578474

conv1.bias f4 [6]
00000000: 06a2 edbe 6b79 583e d453 0abf a61e 9dbd
00000010: 3d62 ffbe 2847 1fbf
-0.46412677 0.21140067 -0.5403416 -0.07671861 -0.49879637 -0.6221795

conv2.weight f4 [16, 6, 5, 5]
00000000: 6c90 33be 13be debc d0f5 b1bd e489 a03c
00000010: 4fe4 a53c 115e d5be 1345 1bbe 9f7a 833c
00000020: 6678 7ebe 6d8c 023e 2a01 3fbe 1598 86be
00000030: 3004 4bbd 28da 253e dc60 93bd da3b 5a3f
00000040: b1b9 b7bc a2f9 a3be ca5c b33e f351 953e
00000050: 7816 1abe a3ee bb3e 5191 72be 2319 f9be
00000060: c372 bfbe 1f22 b4bb f834 e9bc 2933 9cbd
00000070: 531c 02be d95f 243e 512a 63be 8a71 c83b
00000080: 8e8a 14bd 761f 983b d778 b33e bb7d aebe
00000090: c94d 9cbe 5fba 233d a4c8 d23d 1451 843d
000000a0: 5e6b 503d 0fcd 3dbf f3b3 1bbf 08ab 2dbe
000000b0: b252 0dbe da03 213e f6bc bd3d 2e5a bbbe
000000c0: 4479 a8be 4e52 21bf bccd 003d c565 30be
000000d0: dbfa 18bd 5a38 013d 8176 9b3e 122d ed3c
000000e0: f1f8 dd3d 57e5 c7bd 9660 a53e 6c68 e03d
000000f0: ce02 01bf 880b f83e 9ef2 a1be a387 22be
00000100: ba29 e6be 599e 2fbf f1bb ff3d 439a 003f
00000110: 88ed a93d f769 2bbd 60a8 0cbe 2db6 37bf
00000120: 1ede 99be 2a83 07be af5e 383e e0f7 083d
00000130: dfe6 04bb e322 573e 727a c23d 2f42 83be
00000140: edc2 9e3e 479a 88bc eefe b0bd 93c2 493e
00000150: 669b ac3d 8599 25be a8cc 733e 527f 943d
00000160: c896 eb3d dbed efbd 60d1 09bf 4d9d 5b3e
00000170: 3e39 6b3e 01c2 7a3e 830e a8be cd40 edbe
00000180: 9327 363b 6bcb c83c 5700 733d bdba 713d
00000190: a9f0 17be 7c68 75be 20a9 70be aa93 75be
000001a0: 4b89 13be b42f 5e3d dcaf ebbe f1b6 55be
000001b0: f0f4 7ebd e287 3f3e c509 793f 942e 40bf
000001c0: d678 5dbf 0d89 bdbe b250 263e 07d8 0a3f
000001d0: 7e1d 9a3e 2faa 6ebe 1b9a d3be b167 a6be
000001e0: 6d8d 1abf 4819 603e fcb3 f53e c060 903e
000001f0: f86d 063f db33 133d 70c9 a9bd 5376 f6bd
00000200: 626e 2e3e 4a72 9c3a 231d 273d e710 613e
00000210: 5b1e 6cbe 6f8d e73e 995e 31be 3889 18bf
00000220: 50f0 4f3f 21e4 333e c847 03be a75d c0bd
00000230: 27bf 00bf 5ad7 0dbe 324b 123f 9fdc 203d
00000240: 05cf 313e 62e2 00bf 8eb0 ec3d 9c4e fb3d
00000250: b291 de3e 0022 cd3e 3c36 80be 8e8c 06bf
00000260: bca4 d6be 9601 04bf 5333 37bf 8d8e d2bd
00000270: 6a66 7bbe 41b5 babe 50d9 74be 710b c1be
00000280: 8cb5 5a3d e89f 63be ed4a e2be ca36 1bbf
00000290: e765 d3be 0dd5 8fbc 26f0 063d 8b0c a4be
000002a0: 8415 1bbf c35b 74be 49dd a53e 2781 a83e
000002b0: 385e ef3d dbbb 523d 49e5 4e3e ed91 433e
000002c0: 4b98 9a3d a1a8 d23d 2595 533e 26fc 853e
000002d0: 6020 68be 33f9 abbc e3f2 3abe b900 05bd
000002e0: 857e 3fbc 5486 a4be 5b19 f0bd 3274 97bd
000002f0: 8d22 23bc de69 1e3e b573 b7bd b257 74be
00000300: 4624 a6bd 03c9 e7bd e233 763e f753 ba3d
00000310: 7431 12be 7254 7a3e 4ed0 503e cf31 863e
00000320: 4531 b1be 4a2b c9be 47cd 073d a448 34bd
00000330: 4892 71be 8dd2 513e 87d6 8abe b04c af3c
00000340: ddec 1cbe 1d6a f1bc 0bab 043f 6451 32bd
00000350: c3d2 b5bc 9d65 87be bdaa 81bd 5673 633e
00000360: 72e8 7e3e df63 6fbe daac 92bd 4862 443d
00000370: 023c 51be 8759 e13e b3ed 2c3d 76de 89be
00000380: efda f6bd 1064 533e 7e46 8ebc 94be b7bc
00000390: 1bc5 af3d a76d ac3e c794 2e3d bcfd 0c3d
000003a0: 6209 223d 4353 05bd 381c 40bd 3b50 dcbd
000003b0: 01a7 ed3d 0049 3f3d 69f4 a4bd 0e93 41be
000003c0: 7cdf a5bd fafe fe3c d996 4b3e 6dd1 de3c
000003d0: 6456 0abe 9ffd a2bb 9d5a 18be d955 79be
000003e0: 791e 6abe cfbd 343e ec28 04bf dfdf fcbd
000003f0: 654b 94be 9764 83be d8f8 63be 6a42 65be
-0.17535561 -0.027190244 -0.08689463 0.019597001 0.020250468 -0.4167333 -0.15163068 0.016049681
-0.24850616 0.1274888 -0.18652788 -0.26287904 -0.04956454 0.16196501 -0.07196209 0.85247576
-0.022427412 -0.32026392 0.3503173 0.29164085 -0.15047634 0.36705503 -0.23688246 -0.4865199
-0.37392244 -0.0054972316 -0.02846764 -0.076269455 -0.12706117 0.16052188 -0.22184111 0.0061170505
-0.03626495 0.0046424223 0.3505313 -0.340803 -0.30528095 0.03997266 0.102921754 0.06460777
0.050883643 -0.7414102 -0.60821456 -0.16959774 -0.13801077 0.15724126 0.09264557 -0.3659224
-0.32905018 -0.6301621 0.031446204 -0.17226322 -0.03734861 0.03154788 0.3036385 0.028952155
0.108384974 -0.0976054 0.32300252 0.10957417 -0.50394905 0.48446298 -0.31630415 -0.15872054
-0.4495371 -0.68600994 0.12487019 0.50235385 0.082972586 -0.041849103 -0.13736105 -0.71762353
-0.30052274 -0.13233629 0.18004869 0.033439517 -0.0020279211 0.21009402 0.09496011 -0.25636432
0.31008092 -0.016675128 -0.08642374 0.1970313 0.084280774 -0.16171844 0.23808539 0.07250847
0.115033686 -0.11715289 -0.53835106 0.21446724 0.22971055 0.24488069 -0.32823572 -0.46338502
0.0027794584 0.02451106 0.059326496 0.059015978 -0.14837898 -0.23965639 -0.23502016 -0.2398211
-0.14407842 0.054244712 -0.46032608 -0.20870568 -0.06224531 0.18704179 0.9728053 -0.7507107
-0.86512506 -0.37018624 0.1624172 0.5423588 0.30100626 -0.23307107 -0.4132851 -0.32500985
-0.6037205 0.21884644 0.4798888 0.28198814 0.5251155 0.035938125 -0.08290374 -0.12034287
0.17034295 0.0011935916 0.04079927 0.21979104 -0.23058455 0.45225093 -0.17321242 -0.5958438
0.8122606 0.17567493 -0.12820351 -0.09392863 -0.50291675 -0.13851681 0.5714599 0.0392729
0.17364128 -0.5034543 0.11557113 0.12270853 0.43470532 0.40065002 -0.25041378 -0.5255822
-0.41922557 -0.5156492 -0.7156269 -0.10281096 -0.24550787 -0.3646641 -0.23911023 -0.37704042
0.053395793 -0.22228968 -0.4419779 -0.60630476 -0.41288683 -0.017557645 0.032943867 -0.3204082
-0.60579705 -0.2386313 0.3239539 0.32911035 0.11687893 0.051448684 0.20204653 0.19098635
0.07548579 0.1028607 0.20662363 0.26168936 -0.226686 -0.02099285 -0.18256716 -0.032471392
-0.011687879 -0.32133734 -0.11723586 -0.07395209 -0.009956968 0.15470073 -0.08957616 -0.23861578
-0.08112387 -0.11317637 0.24043229 0.09098046 -0.14276677 0.24446276 0.20391962 0.26209876
-0.34607902 -0.3929084 0.033154752 -0.044014588 -0.23590958 0.20490475 -0.27116796 0.021398872
-0.15324731 -0.029469544 0.5182349 -0.04353465 -0.022195226 -0.26444712 -0.06331394 0.22211966
0.24893358 -0.23377942 -0.07161875 0.04794529 -0.20433047 0.44013616 0.042218875 -0.26927537
-0.12053477 0.2064364 -0.017367598 -0.022429742 0.08582517 0.33677408 0.042622354 0.034421667
0.03955973 -0.032550108 -0.04690191 -0.1075749 0.11604119 0.046700478 -0.0805443 -0.18903753
-0.08099267 0.031127442 0.19881763 0.027199471 -0.13509518 -0.0049740816 -0.14878316 -0.24349155
-0.22863187 0.17650531 -0.5162494 -0.123473875 -0.2896377 -0.2566268 -0.22262895 -0.22388616

conv2.bias f4 [16]
00000000: e175 c4bf b6af 0040 8b7f 033f 065a 113e
00000010: 9072 4dbf 3879 41c0 7696 cb3e 990a c4bf
00000020: cfe2 e53c 118e 8c3e 63a6 16be 8c02 99be
00000030: 625b f03f b545 47bf 3be5 e43e 8afc 9b3e
-1.5348474 2.0107245 0.5136649 0.14194497 -0.80252934 -3.0230236 0.3976323 -1.5315734
0.028062252 0.27452138 -0.14711909 -0.29884756 1.8777888 -0.7784074 0.4470614 0.3046611

fc1.weight f4 [120, 400]
00000000: 4c53 f5bd 22ea 15be 633a 51be 6653 b93a
00000010: 560d 743e 15ca 81bd df8b 29be 9748 c5bd
00000020: 37f4 213d 5e46 92bd 3185 9abe b997 e2bd
00000030: c968 823d a375 1abd ee1a ffbd 04ed f9bd
00000040: 83f5 a03c d741 b9bc e0b4 343d 97a5 a8bd
00000050: 1cbe 8ebe 681a 46be 44a7 4ebe ed61 ef3c
00000060: 53cd b33b aecc 353e 49f1 6e3c dc0c 61bc
00000070: 2e61 21be 51af dc3b 1283 1e3e 3b73 f83c
00000080: 9a3d dcbb d65d 173d 066c 9d3c ca54 9d3c
00000090: cbd5 48bd cb15 0fbe 1c0d 07bd 1106 e9bd
000000a0: 5eff 6a3d 9f1c ed3c c38d 5c3d 9e0a 0c3e
000000b0: 418d 973c e238 863d 67bc f63d d54e a9bd
000000c0: 2546 0b3d 8f95 c53d 1d90 6f3d 8b75 073e
000000d0: 53f1 1abd 5286 c93b 4d7a 0abc fb8a 4bbc
000000e0: 1f72 663d ccf3 72bd 1aa5 523d 1f36 3a3e
000000f0: 6136 98bc 6995 043e 7210 093d 92d4 1c3c
00000100: 972a 373e 0241 c8bc 6250 073e 631e bbbd
00000110: 03c3 65bd 384b 163d 54ee a7bd c326 febd
00000120: 7c16 44bd 7d6c 3cbe 3c3f 64bd 8d04 cc3b
00000130: bbec 63be 8c7e 1ebe 0b6b edba 48f3 10be
00000140: 3af4 5c3d fa38 863c 57fa a93d 49a8 cabc
00000150: db53 eb3d c833 953a a902 783c 07a2 c1bc
00000160: 423d f83a ccea 743c e2e8 c13b 7742 853c
00000170: be02 b43d 5fbc 8cbb 3ede 113d 0c6b fabc
00000180: b905 653e a1d9 2c3e 602a 283e 55c5 a03d
00000190: 0aae 35be b42d edbd 1274 c2bd ee92 57bd
000001a0: be77 5ebb 30ac 453c 1db8 5cbc 84d8 9abc
000001b0: 91ff d03c f7a0 03bc 4d59 f1bb 2c6c 42bd
000001c0: 005e 033c 04e4 f33d c20a 26b9 8da9 5dbd
000001d0: c9a9 1f3d 2a83 8f3d 89e3 cabd 4627 2cbe
000001e0: b104 523e eb30 65bd 9844 76be c01f 833d
000001f0: 9431 5bbe 9f74 f2bd 117c 813c 4fb6 49be
00000200: 8dbe 93bd 704d 0cbe ca2c c23d 771c 113e
00000210: 726a a53d e157 37bc 6749 ff3c a0e7 10bd
00000220: 256c 0dbe 533e c5bd 8e64 f0bc 0ca0 c9bc
00000230: cf70 78be 3af3 dfbd 2702 22be c32e 0cbe
00000240: 1c37 3fbd 23ab 02be e05a 73bd 9401 2ebe
00000250: 4ba5 aebd 21df 89bd f9dd b2bc 9376 f4ba
00000260: 5990 473e f317 113e 20a2 913e d3d8 f8bc
00000270: fce7 a0bd f214 cf3d 264a 76bd 723e 80bd
00000280: e064 07be 1f2e b93c 4b90 0c3d 084f 8e3d
00000290: cedb 223e 783a 15be 21da 163d 8dfb 0b3e
000002a0: 4d7d 36bd 11b8 2e3d 1231 5fbe aaa6 3dbe
000002b0: d601 373c 1da9 533c 19f0 37be 9ebb 2cbd
000002c0: 3b5e 93bd 386e 113e 64b6 803d bbef 8e3e
000002d0: 6979 1cbe 1985 853d 5232 ef3d 6d02 d33d
000002e0: c058 273c 2f3f 07be 006d 8abd 4fc7 c63c
000002f0: 5b66 05bc ee67 713c d128 8ebc 3c22 6dbb
00000300: 79db c53d 6ce5 db3c f76a 06bd a8d4 bcbd
00000310: 1c01 d93d b26c fc3d 499f 1fbd f5af d3bd
00000320: 36b3 62bc 8745 61bd 7121 b1bd a608 f2bd
00000330: 3999 40be 3e37 46be 3fdc 56be 6999 63be
00000340: 3b7b 35be 1f9f a0bd d8b7 fbbc bdd4 93bd
00000350: f81b e53c efba 4dbd 7b72 3dbd 48ca cfbb
00000360: 9110 49bd 97db b7bc e702 0d3c 61cf 96bd
00000370: 3073 dfbd 14c5 34be 4fb6 45bd a5b9 01bd
00000380: f99b 85bd 0053 5e3d d006 3ebc 2806 03be
00000390: fd61 71be 2904 00be 7b22 2f3e db30 2d3e
000003a0: 4ee3 bf3d 9661 37bd dbad 8bbd fab5 8b3d
000003b0: 23ce d7bc e038 58be ab6b 3d3d 243e f8bc
000003c0: 3b66 88bd f2c5 223e 05f3 11bd 89eb 2cbb
000003d0: 61fd 34bc 7b68 a83c 453b 3dba 6789 3ebd
000003e0: ab0c 3f3d b526 f7bd 54a8 01be aca1 e23d
000003f0: f5a6 4c3e 1b08 463e 8635 f13d bcf3 2abe
-0.11978778 -0.14640096 -0.20432429 0.0014139235 0.23833212 -0.06337372 -0.16557263 -0.09632986
0.039539542 -0.07142328 -0.30179742 -0.11064095 0.063676424 -0.037709843 -0.12456308 -0.1220341
0.01964832 -0.022614403 0.04411781 -0.08234709 -0.27879417 -0.1934601 -0.20180994 0.0292215
0.005487123 0.1775386 0.014583894 -0.013735976 -0.15759727 0.0067347665 0.15479687 0.030328384
-0.0067212107 0.036954723 0.019216549 0.01920547 -0.049032014 -0.13973157 -0.032971486 -0.1137811
0.057372443 0.028944312 0.053846132 0.13675925 0.018499972 0.06553818 0.12047654 -0.08266989
0.034002442 0.09647667 0.058487047 0.13228433 -0.0378278 0.0061500454 -0.00845201 -0.012423272
0.056261178 -0.059314534 0.051426984 0.18184708 -0.018580617 0.1294762 0.03346295 0.009572165
0.1788734 -0.02444506 0.13214257 -0.09136655 -0.05609418 0.036692828 -0.08199754 -0.12409737
-0.047873005 -0.1840076 -0.055724367 0.0062261284 -0.22258274 -0.15477961 -0.0018113566 -0.14155304
0.05394385 0.01638459 0.08299702 -0.024738448 0.114906035 0.001138323 0.015137353 -0.023636831
0.0018939155 0.014948558 0.0059176544 0.016267044 0.087895855 -0.0042949165 0.035612337 -0.030568622
0.22365464 0.16879894 0.16422415 0.07850138 -0.17742172 -0.11580983 -0.09494795 -0.052630357
-0.0033945884 0.0120649785 -0.01347163 -0.01890207 0.025512489 -0.0080339825 -0.007365382 -0.047466442
0.008018017 0.11908725 -0.00015835001 -0.054116774 0.03898028 0.070074394 -0.0990668 -0.16811857
0.20509602 -0.055954855 -0.24049604 0.0640254 -0.21405631 -0.1183865 0.01580623 -0.19698451
-0.07214079 -0.13701415 0.09481199 0.14171015 0.080769435 -0.011190386 0.03116293 -0.035377145
-0.13810785 -0.09631028 -0.029344823 -0.02461245 -0.24261783 -0.10935064 -0.15821134 -0.13689713
-0.046683416 -0.12760596 -0.059412837 -0.1699279 -0.08527621 -0.067320116 -0.02183436 -0.001865106
0.19488658 0.14169292 0.28444004 -0.030376827 -0.078567475 0.10111417 -0.060129307 -0.062619105
-0.13222075 0.022605 0.034317296 0.06948668 0.15904161 -0.14573085 0.036829118 0.13670178
-0.04455309 0.04265601 -0.21796063 -0.18520609 0.011169871 0.012918738 -0.17962684 -0.042171113
-0.071957074 0.14202201 0.06284788 0.27917275 -0.1528069 0.06519527 0.1167952 0.10303197
0.010214031 -0.13207696 -0.06759071 0.02426496 -0.008142079 0.014734251 -0.017353447 -0.0036183735
0.09661002 0.026842795 -0.032816853 -0.092202485 0.10595915 0.123254195 -0.038970266 -0.103362955
-0.0138366725 -0.054997947 -0.086489566 -0.11818056 -0.1880845 -0.1935701 -0.20982455 -0.2222649
-0.1772279 -0.0784285 -0.030727312 -0.07218311 0.027967438 -0.050227102 -0.046251755 -0.0063412525
-0.049088065 -0.022443576 0.008606649 -0.07363773 -0.10910642 -0.17653304 -0.048269566 -0.031671185
-0.0652389 0.054278374 -0.011598304 -0.12795317 -0.23572536 -0.12501587 0.17102997 0.16913168
0.09369527 -0.0447708 -0.0682027 0.06821819 -0.02634341 -0.21115446 0.04624526 -0.030303068
-0.06660124 0.15895823 -0.035632152 -0.0026385507 -0.011046738 0.020557633 -0.00072186097 -0.046517756
0.04664294 -0.1206793 -0.12661868 0.11065993 0.19985564 0.1933903 0.11777787 -0.1669454

fc1.bias f4 [120]
00000000: e794 acbd bd0f c83d 5968 543e 6527 0fbe
00000010: 98a7 95be 8066 1bbd c4b2 253e e73c 51be
00000020: 4022 a73e d2f0 cb3e 4c91 cbbc d2b3 5c3b
00000030: 4a5e 30be 1a26 94be fec9 19be 05e8 533e
00000040: 773d f6bd 892d 3ebe 557b 95bc 61ee 083e
00000050: 724c 09be 00c5 04bc cef1 c23e 1304 69be
00000060: e26b 1d3e 246e fcbd 49e0 0b3e b20e 2e3f
00000070: c4fc 0a3e bdc0 ae3e 3a91 0b3e 4972 293c
00000080: aa13 37be 8431 82be 9fc6 4abd 4e1f c0be
00000090: 08d5 a2bd 459c 883c 41bc 823e d3d8 10be
000000a0: fd64 3ebe 2c8b a53d 2432 093e 1ac3 303e
000000b0: 82a0 15be 3d72 3b3d 6e63 0abe 394b 033e
000000c0: ab84 0e3f b096 f4bd e546 b0bd cb32 9c3e
000000d0: 1bc6 73be 392f c6bc 6867 88be 84e6 9bbe
000000e0: 6f89 91be db1e 6fbe 6054 643e d237 e33d
000000f0: c01a 20be 4337 18bd 61fc dbbb 9675 99be
00000100: 529b a33e 9910 15be f414 f23e 3ea9 6c3e
00000110: 7511 acbd fc38 49be 41fa cb3c d435 c5bd
00000120: e19a 7cbc e725 133e a3f5 8f3e 03d1 37be
00000130: 5180 873e 804b 02be 2cfd 0d3d 6abb a93e
00000140: 1007 17be f2e3 cfbd 2974 49be d6a9 6c3e
00000150: 561e 7b3e 8dca 263e b1c2 f53e b1fd 153f
00000160: 319f 493d c342 7e3d 6020 3f3d 1916 2a3e
00000170: 2852 c3bd 6513 4a3e b526 283e 23ed 003d
00000180: b299 05be 4ec5 86bd d8fa a7be 92c7 013f
00000190: c575 84bd 639a 943e 6005 18be 4ff1 d13e
000001a0: 4b09 293e 8e9e bbbe 1bf4 e2bd 7ea6 42be
000001b0: a1ef d7bd af69 a3be 42cc c43e 387f 5cbe
000001c0: dcfb cdbd 1efa 83be 52fb 9f3e 29bf ab3e
000001d0: 8d0e 993d ef5c c63e 02fd a9be 5fd6 413e
-0.08426838 0.09768627 0.2074293 -0.13979872 -0.29229426 -0.03793955 0.16181475 -0.20433389
0.32643318 0.3983217 -0.024849556 0.0033676517 -0.17223468 -0.2893532 -0.1501846 0.20693977
-0.12023442 -0.18572058 -0.018247286 0.13372184 -0.13408068 -0.008103609 0.38075107 -0.2275546
0.15373185 -0.12325695 0.13659777 0.67991173 0.13572985 0.34131423 0.13629618 0.010342189
-0.17878595 -0.25428402 -0.049505826 -0.37523884 -0.07950789 0.016676078 0.2553425 -0.14145212
-0.18593211 0.080831856 0.13398033 0.17261925 -0.1461201 0.045763243 -0.13514492 0.12821664
0.55671185 -0.11942804 -0.08607272 0.30507502 -0.2380604 -0.02419244 -0.26641393 -0.30449307
-0.28425166 -0.23351614 0.22297812 0.11094631 -0.15635204 -0.037162077 -0.0067134355 -0.29972523
0.31954437 -0.14557113 0.4728161 0.23111436 -0.08401767 -0.19650644 0.024899604 -0.096294075
-0.015417785 0.14369927 0.28117093 -0.17950825 0.26465085 -0.12724113 0.03466527 0.33150798
-0.14748788 -0.10150899 -0.19673218 0.23111662 0.24523291 0.16288204 0.480001 0.5859023
0.049224082 0.062075388 0.046661735 0.16609992 -0.095371544 0.19733961 0.16421016 0.03147615
-0.13046911 -0.06580602 -0.32808566 0.50695145 -0.06467775 0.29024038 -0.148458 0.41004416
0.16507451 -0.36644405 -0.11081716 -0.19008824 -0.105437525 -0.31916568 0.38437086 -0.21532905
-0.10057804 -0.25776762 0.3124643 0.3354428 0.074734785 0.38742778 -0.33200842 0.18929432

fc2.weight f4 [84, 120]
00000000: 8518 99bc 74ef 06be f1e2 3bbd b2f8 7bbc
00000010: 415d 24bd cf26 4ebd 2587 1fbd 56ce 5a3d
00000020: 7486 0abe fee6 0abe 8af0 40bd e2cb 213d
00000030: c0ca 963d 7366 653e 05a0 c0bc 2b88 4bbe
00000040: a15d 0cbe f833 2dbe 3153 83bc 479b 04bb
00000050: a2ad 40be f95c 96bd 4106 61bd c713 013d
00000060: 96b3 2e3c bb99 e6bd f5e7 30be 7233 09bd
00000070: c0f2 6bbd 1ba1 10be e767 76bd a1c7 7c3c
00000080: 9a00 6cbe 1ded b2bc 4efc 083e a95f 543d
00000090: 021a c0bd b803 fa3d 08c1 1fbc 214f 14bd
000000a0: deb1 c2bd 9726 043e 928e f5bd 14f8 d2bd
000000b0: cc65 6fbd 2e00 afbd 1fa2 433e f745 68bd
000000c0: 4f3a 34be ac03 2cbe 986b 7cbd 3559 fbbd
000000d0: 02c7 f33c 0989 e5bd 9b22 d0bc 24f9 6abc
000000e0: 658e f5bd f83f e5bd fc1d a23d c7dd 37be
000000f0: 87ca 9abd cd3f eabd 5db7 33bd 0dfb 5ebe
00000100: 65b1 08be d9e9 39be 4d2d 77bd 5eda 2ebe
00000110: f047 90ba 255b 093c 35c3 64bd 1f61 5b3d
00000120: a342 9cbd 05de 56be 91f8 a9bd e7cb 9d3c
00000130: 09ac bebd ba8d c3bd 275f 20bd 5a9e cabc
00000140: 46c7 aa3d a9c3 4bbd 47dc fc3d a3f7 53be
00000150: 7bce 9e3d 1398 653d c600 c2bd e147 463b
00000160: af1f c3bd d002 17be 7731 a5bc 09db 92bd
00000170: a400 dc3c dbf3 2dbd e793 29be fce2 27bc
00000180: 32ca 99bb 8ef4 d33c 93d5 1f3d 8b76 fcbb
00000190: c900 84bd fb9a 0bbe f1e8 95bc 4500 febd
000001a0: f2d7 123c 18bc 0d3d df1c 903d e584 04be
000001b0: 3851 a1bd dc59 03be 31bd eb3d 243d 5cbd
000001c0: 5fc2 093e dab7 62bd 24bf 21be 3de2 02be
000001d0: 430f c5bd b90b 96bd 0452 14bd 9571 a5bc
000001e0: 39ad b83d f782 f2bc 264c 123b 2a1b ab3d
000001f0: 6054 a43d 9a5f 88bc b663 a3bd 29f6 263e
00000200: 445f babb 35d3 b1bd 90d2 c1bd 239f 8cbd
00000210: 20df e7bd 9fba 9abd 853c 693e 4ff8 09be
00000220: bf55 f7bc fbaf d23d 6521 0e3d 8927 4b3d
00000230: ac03 0e3e d468 1abe 50ed 2bbd b6cb eb3d
00000240: 318c acbd 08bc cdbd 1149 b1bd 5ede 4dbd
00000250: 4893 0abe b287 4d3d 6771 4dba 5490 07be
00000260: 4551 2a3c 5d2a 01be e5d1 a5bd f8b7 8ebe
00000270: 5588 663e 294a da3c 2ec9 c1bd aea2 093e
00000280: f64d f4bd e761 d83d 2f1c ea3d 4527 b8bd
00000290: 6f14 82bc 96fe 28bc 2d24 98bd 9cce 233c
000002a0: ea9b 13bd 8ee4 c13c c86e 1bbe b5fe 35bd
000002b0: 2e60 04be 88c3 a23d 7251 01be 8485 cc3c
000002c0: 81c0 26be 7c92 893d 6cad 51bd 0c57 09be
000002d0: 90d3 22bd f87d 2e3d 29f7 143e e905 5f3e
000002e0: 0a49 3e3c d9bd 113e f692 a6bd 0039 19be
000002f0: 8bfd 993d 050a c73b c9c7 e3bc 9221 7fbd
00000300: 9a15 153e fc57 88bd d426 3bbd b299 abbd
00000310: f9d7 b6bd f23e 2f3c 79c8 f83c 1623 bcbd
00000320: 64d1 33bd f33e c73c 7652 e8bd 5e72 1d3c
00000330: a47f 72bd 5339 c1bd db72 d2bc ff6f 01bd
00000340: 079e c53b 1370 b7bd 7c4c 2abd 4798 c5bb
00000350: 9362 20bd 94b1 f13d e8a8 08be e36e 063b
00000360: 0bc8 40bc 4288 16bc e8cb 60bd 8ba8 673d
00000370: a7c1 43bc 7ac2 2cbd fd6a 11bd 4bfc 9abd
00000380: f021 9fbd 55dd 653d 369e 0e3d fd54 8bbd
00000390: 6fb2 1abd cada 173e a064 34bd 178e c13d
000003a0: 19fe 5e3e 9bc5 443b a619 bebd 4f1e 503d
000003b0: c91d e0bc f520 fd3d bd9d c2bc f84f 1dbb
000003c0: dc80 993c a9b5 09be ca55 1fbb 75df 3ebe
000003d0: 0886 523d 1458 843b cbeb c03c 3165 363c
000003e0: 1a90 e33d 834e 75bd 8c14 d3bd 217e 27bd
000003f0: 0aea f8ba dc9d c6bd 6d5d 43bd 3c37 10be
-0.01868845 -0.13177282 -0.045870725 -0.015379118 -0.040127996 -0.05032998 -0.038947243 0.053419434
-0.13527852 -0.13564679 -0.047104396 0.03950108 0.0736289 0.22402363 -0.023513803 -0.19876163
-0.13707592 -0.16914356 -0.01603088 -0.0020234154 -0.18816236 -0.07341952 -0.054937605 0.031513
0.010662934 -0.112597905 -0.17275985 -0.033496328 -0.05760455 -0.14123957 -0.060157683 0.015428455
-0.23047104 -0.02184158 0.13377497 0.05184904 -0.093799606 0.122077405 -0.009750612 -0.036208276
-0.09506582 0.12905346 -0.11990084 -0.103012234 -0.05844669 -0.08544956 0.19104813 -0.05670735
-0.17600368 -0.16798276 -0.061626047 -0.12272874 0.02975798 -0.11207778 -0.025407126 -0.014341626
-0.1199005 -0.11193842 0.07915875 -0.17955695 -0.0755816 -0.1143795 -0.04387604 -0.21775456
-0.1334892 -0.18155612 -0.060345937 -0.17075488 -0.0011007767 0.008383547 -0.055850226 0.05355942
-0.076298974 -0.20983131 -0.082993634 0.019262267 -0.09310157 -0.095485166 -0.039153244 -0.024733711
0.0833879 -0.049747143 0.12346702 -0.20699935 0.07754227 0.056053232 -0.09472804 0.0030255246
-0.095275275 -0.14747167 -0.020165188 -0.07170684 0.026855774 -0.042468887 -0.16560327 -0.010246988
-0.004693293 0.025873449 0.03902204 -0.007704561 -0.06445462 -0.13633339 -0.018299552 -0.12402395
0.008962618 0.03460321 0.07036757 -0.1294132 -0.07876819 -0.12827247 0.11510695 -0.053769246
0.13453053 -0.055351116 -0.1579557 -0.12781616 -0.096220516 -0.07326455 -0.03621103 -0.020195762
0.090174146 -0.029603465 0.002232322 0.083547905 0.08023906 -0.016647149 -0.07978003 0.1630484
-0.005687626 -0.08682863 -0.0946399 -0.068662904 -0.113218546 -0.075551264 0.22776993 -0.13473628
-0.030192254 0.10287472 0.034699816 0.04959825 0.13868588 -0.15079051 -0.041974366 0.11513464
-0.08425177 -0.1004563 -0.086565144 -0.050260894 -0.13532746 0.050178237 -0.00078370277 -0.1323865
0.010395353 -0.12613817 -0.08096675 -0.27874732 0.22512944 0.02664669 -0.094622 0.13440964
-0.11928932 0.105655484 0.11431157 -0.08991865 -0.015878884 -0.010314604 -0.07428775 0.00999799
-0.036037363 0.023668554 -0.15178978 -0.04443236 -0.12927315 0.07947451 -0.12628725 0.024966009
-0.16284372 0.06717393 -0.05119078 -0.13412112 -0.039752543 0.042600602 0.14547409 0.21779598
0.011614094 0.14232577 -0.08133499 -0.1496315 0.075190626 0.0060741925 -0.027805226 -0.062287875
0.14559022 -0.06657407 -0.045691326 -0.083789244 -0.08927912 0.01069616 0.03036903 -0.091863796
-0.043900862 0.024322009 -0.11343853 0.009609787 -0.05920376 -0.09434762 -0.025689533 -0.03160095
0.006030801 -0.08956923 -0.041576847 -0.0060301158 -0.039156508 0.118014485 -0.13345683 0.002051287
-0.011766444 -0.00918776 -0.05488196 0.05655722 -0.011948026 -0.042177655 -0.035502423 -0.07567652
-0.07770145 0.05611928 0.03481885 -0.068033196 -0.037767824 0.14829555 -0.044041276 0.094509296
0.21776618 0.0030025009 -0.09282236 0.050810155 -0.027357953 0.12359802 -0.023756856 -0.0024003964
0.018738203 -0.13448204 -0.002431261 -0.1863993 0.051397353 0.00403882 0.023549935 0.011132524
0.111114696 -0.059889328 -0.103066534 -0.04089177 -0.0018990648 -0.09698078 -0.04769652 -0.1408357

fc2.bias f4 [84]
00000000: e94e 273e b34d dcbd 73df 953d f1c3 9f3e
00000010: 3aff 113f 6086 0f3f f566 e3bd f8ec 2d3f
00000020: 084c 083f 6d9e 153f ea68 2c3d 9c35 413e
00000030: 457a 2c3e abf6 923f 6c2c 093f 3e5e c63e
00000040: 65ee 023f ee20 563d f6dd 253f 0b13 9d3c
00000050: 4e6c 1c3f 51c2 413c 7612 893f d182 5e3e
00000060: 5f7a d53e 2b56 d33e 4596 4b3f 5e45 b53e
00000070: 1987 093f 0326 eb3e b7e3 7e3f 97f0 92bd
00000080: f97c c03d ceee 283f 4bc8 b63d 0c99 f73d
00000090: 8fa9 943f 5107 da3e 38f2 413d c436 51bd
000000a0: 3be7 18be 1ba7 903f bb02 ef3d a6dd 043e
000000b0: 26b4 b33e c4a6 4c3e a14f 983f e070 883e
000000c0: 838b 073f 7b2b a93e 47e8 7d3e f0c1 9bbd
000000d0: 0e70 283f 8ca3 fc3e 164f 3a3e a854 54bd
000000e0: 25a5 fc3e 2ab0 973e 9842 2d3e 67d6 403f
000000f0: 4fae 4b3e f68b 8b3e 1cc1 e93e 99d2 f8bd
00000100: 0150 473d 55f3 17be f1d8 a83e d83d 3fbd
00000110: 87d5 9c3f a3de 813e e7bb 013f e992 6a3e
00000120: 052b 3fbb e1d8 5b3e 7aba 5a3e ad6f 0c3f
00000130: 16c4 8f3e c8be 51be db60 6f3f ecc1 b93e
00000140: 28f6 fa3e 04d5 4f3e 146f 04be 77d5 013f
0.16338696 -0.107570074 0.0731801 0.3120418 0.5703007 0.56064415 -0.11103622 0.6793971
0.53241014 0.58444864 0.04209224 0.18868107 0.16843517 1.1481527 0.5358341 0.38743776
0.5114501 0.052277498 0.6479181 0.01917412 0.6110276 0.011826114 1.0708759 0.2172959
0.41694924 0.41276678 0.7952617 0.35404485 0.5372177 0.45927438 0.99566215 -0.07174795
0.09398837 0.6598939 0.089249216 0.12089738 1.1614245 0.42583707 0.04735014 -0.05107762
-0.14931957 1.1300997 0.11670443 0.12975177 0.3509838 0.19985491 1.1899301 0.26648617
0.52947253 0.33040985 0.24795638 -0.0760535 0.6579598 0.49343526 0.18194231 -0.051838547
0.49344745 0.2962659 0.16919935 0.7532715 0.19890712 0.2725522 0.45655143 -0.12149543
0.048660282 -0.14838918 0.32978013 -0.04668984 1.2252663 0.2536517 0.5067734 0.22907604
-0.0029169929 0.21469451 0.21360198 0.54857904 0.2807929 -0.20482934 0.93507165 0.36280763
0.49015927 0.20296103 -0.12932998 0.50716347

fc3.weight f4 [10, 84]
00000000: f6b2 cdbc e6cf bd3d 5692 503e a6b4 153d
00000010: fa05 603d 528c 94bd 81ea e83d aed7 133e
00000020: 7da1 033e 6032 4b3c 2554 6fbc bd32 123d
00000030: d537 ed3d 5e09 953b 5a2c b5bd 353a 483e
00000040: ec3f 413e 3af6 963d 5d98 e03d f71c a8bd
00000050: 79da 3abe 73d3 103e 31e3 84bd 9d0d 23bd
00000060: babd 3e3e 1c14 93bc 081a 9abc 9741 7d3e
00000070: 393e 143e 637a 333e debd 8bbe 6453 31be
00000080: a9ad 26bc 83d4 87be 2a3a 213d 2357 a23d
00000090: b200 5cbe 41dc acbd 4292 623d 63e4 c43d
000000a0: 7b0d 063c 3468 10be ec0d 1c3e 33bc dabd
000000b0: f1f6 c23d 77a0 e43d 31dd a9be e5b7 94bd
000000c0: f406 ff3d bdd1 073e 68d3 673e 6203 863d
000000d0: fccc 0ebe 04b0 d0bd f2aa c6bd 1ccd be3d
000000e0: 1fb4 613e d5f0 283d 37ba c43d 490e 18bc
000000f0: 3f5b 963d db85 0bbe ea39 813b ebc0 333e
00000100: 5533 0f3e ccd6 4e3e 2cfe 533d 13a4 9c3d
00000110: f9c2 36bd c2ad fcbc 3394 83bd 51d7 febb
00000120: 3963 853d 3a48 093c d2a7 d6bd fb93 fcbd
00000130: 41ad 023e 5904 063d 69a8 123d c84d efbc
00000140: 9e31 123d 7a7a 93bc 6467 673d a00b 4e3e
00000150: 3e08 f13d 9ba6 8c3d 0738 cc3d f0b1 823d
00000160: db2b cf3d 336e 213e 3ff2 133e 0ba8 a7be
00000170: 7083 33be 4fb3 08be d8a0 253d 6f9e e73b
00000180: 9dc5 a8bc ed24 65be 1281 dfbd cd9a 563e
00000190: f369 8abd da93 a2bd 86fd 1abe b75c 183e
000001a0: 01b3 0d3e cb66 cebd ce5b 933b a5f7 a0bd
000001b0: 0dce 2c3e 3b9a ed3d 2f60 37bc 84d0 7bbd
000001c0: 9332 4b3e aec6 4f3d c2ed 5e3d 6ee2 e63d
000001d0: d2d2 073c e419 96bd 5307 7fbd c905 1ebe
000001e0: 4a58 68be 27c3 4bbe a376 b23d 6fd2 53bd
000001f0: 3c21 603d a854 01be 166a 9d3d ae9c cf3d
00000200: f22a dabd 80ed 483e a210 8abe 0210 abbd
00000210: fc44 263e ff5f ebbd 04d5 053e 9136 543e
00000220: 74a3 573e a41e 103a 5230 82bd 6c4d a3bd
00000230: 5da2 323d c06e 65be 223f 2d3e 76f1 36bd
00000240: f7c8 253e 1c4f 7dbe 53c5 843e 2d90 d23d
00000250: 29a6 753d 8341 85bc d7b0 bbbd 412b 3b3d
00000260: 0318 f1be faa1 0fbe 2291 b63d 2722 a13c
00000270: 0175 1c3e ed8e 8f3d 7fa9 8e3d 593c bd3d
00000280: e555 2a3e 082e ce3d 95e8 193e 61e2 d73d
00000290: 1d4e 9bbd b5f2 943d 8ffe a33d 3a23 37be
000002a0: 3979 5a3c dc5a a4bb 4351 d33d 5d2e edbd
000002b0: b312 973d 3fde 4bbd 8be0 c8bd 5958 5b3e
000002c0: 7c08 38bc 2392 db3d afe9 e3bb d25a 80bd
000002d0: ea3b dd3d d480 a4bd 36aa 87bd 46a7 8bbc
000002e0: 2955 943d de07 c93d eac4 773c 4856 2b3c
000002f0: 15cb b9bb 5e53 023e 2544 1e3e c69b 1a3e
00000300: dff1 d3bd 47da 80be cbe8 6b3e 6e39 9a3d
00000310: 9710 00be 3365 cabc aa0d 83bd e8fb bc3c
00000320: 1ae5 893d 9653 38bd 5644 13bd eea4 b13d
00000330: 870c ab3d 4293 223c bf96 4a3d 50a3 ad3d
00000340: 1742 f13d ef2f 653e 2a6a cbbc 28ef 8ebd
00000350: b273 85ba c31c 10be 765f 3b3e 1839 f33d
00000360: fcbe 66bd 3895 913d af92 9a3d 4fd1 d7bc
00000370: 3a3a 783d dcc9 773c 08b8 093e 4a19 a9bc
00000380: adfb 79bd 4d68 183e a16e 11be 47a7 65be
00000390: 0b4e 243e 20bd d03d 8482 f7bc 72e9 403d
000003a0: 3688 8c3b 5a20 11bc f271 15bd a8cd c73d
000003b0: 5e69 333e 8ffe 033e c55b 693d 1c1d 793a
000003c0: 3c6c 413c b5fe 2b3e a50d 0a3c e7ba 0cbd
000003d0: f241 a3bd 2047 aa3d 8a23 41be 2078 b5ba
000003e0: 3760 713d 0d1d cf3d b965 933d d0e8 453e
000003f0: d804 04be 0416 673c 8ecd 203d 7407 513d
-0.02510975 0.09268169 0.20368323 0.036549233 0.0546932 -0.072533265 0.11372853 0.14437744
0.12854572 0.012402147 -0.014607464 0.03569292 0.11582915 0.004548236 -0.0884635 0.19553454
0.1887204 0.07371183 0.10966561 -0.082086496 -0.18247403 0.14143161 -0.06488646 -0.039807905
0.18627062 -0.017953925 -0.01881124 0.24732052 0.14476861 0.17527156 -0.27293295 -0.17316967
-0.01017324 -0.2652932 0.03936211 0.07926776 -0.2148464 -0.084404476 0.055315264 0.09613874
0.008181925 -0.1410225 0.15239686 -0.106804274 0.095197566 0.11163419 -0.33176568 -0.072616376
0.12452498 0.13263603 0.22639239 0.06543614 -0.13945383 -0.10189822 -0.09700574 0.09316465
0.22041367 0.0412453 0.0960583 -0.00928075 0.073416226 -0.1362528 0.0039436715 0.17554061
0.13984425 0.20199126 0.05175607 0.07648482 -0.044619534 -0.030844573 -0.06424751 -0.0077771326
0.06513066 0.008379037 -0.10481228 -0.123329125 0.12761404 0.03271899 0.03580514 -0.029211894
0.03569185 -0.018002737 0.056495085 0.20121622 0.1176915 0.06867715 0.09971624 0.06381595
0.10115787 0.15764694 0.14447878 -0.32745394 -0.17530608 -0.13349651 0.040436596 0.0070684473
-0.020602042 -0.22377367 -0.1091329 0.2095749 -0.067584895 -0.07938357 -0.15135774 0.14879118
0.13837816 -0.100782 0.004497028 -0.078597344 0.16875477 0.11601683 -0.011192366 -0.061478153
0.19843511 0.050726585 0.054425962 0.11273657 0.00829001 -0.07329157 -0.062262844 -0.15431894
-0.2268993 -0.19898663 0.087140344 -0.051714357 0.054719195 -0.1262995 0.0768625 0.10137306
-0.106527224 0.19621849 -0.26965815 -0.083526626 0.16237253 -0.11492919 0.1306954 0.2072394
0.21058446 0.000549773 -0.063568726 -0.079737514 0.043611873 -0.22405529 0.16918615 -0.04466387
0.16189943 -0.24737209 0.25931796 0.102814056 0.059972916 -0.01626659 -0.09164589 0.045695547
-0.47088632 -0.14026633 0.08914401 0.019669605 0.15279008 0.07009683 0.069659226 0.09240026
0.16634329 0.100673735 0.15030129 0.10541225 -0.07583258 0.07272855 0.080075376 -0.17884532
0.013334566 -0.005015714 0.10318234 -0.11581109 0.073766135 -0.049772497 -0.09808453 0.2142042
-0.011232492 0.10721233 -0.0069553475 -0.062673226 0.10802443 -0.080323845 -0.06624262 -0.017047536
0.072428055 0.09815954 0.015122632 0.010457583 -0.005669961 0.12727115 0.15455683 0.15098485
-0.103488676 -0.25166532 0.23038022 0.07530485 -0.12506329 -0.024706459 -0.063990906 0.023069337
0.06733151 -0.04500159 -0.035953842 0.08674036 0.08351999 0.009922804 0.04946017 0.08478415
0.11780184 0.22381566 -0.024830896 -0.06979209 -0.0010181575 -0.14073472 0.18298134 0.11876124
-0.05633448 0.07108539 0.07547509 -0.026344923 0.060602404 0.015123811 0.13449109 -0.020641942
-0.061031032 0.14883538 -0.14202358 -0.22427092 0.16045396 0.10192323 -0.030213602 0.04709763
0.0042886985 -0.008857811 -0.03648562 0.09756023 0.17520663 0.12890075 0.056972284 0.0009502934
0.01180559 0.16796382 0.008426105 -0.03435793 -0.079715624 0.08314347 -0.18861213 -0.0013845004
0.05892965 0.10112963 0.071971364 0.19327092 -0.12892473 0.01410437 0.039258532 0.0510325

fc3.bias f4 [10]
00000000: f149 18be 88fa 13bf 1a2e 53be ea66 a63e
00000010: c020 043f 4e9f 4bbe b777 963d 98f9 c7be
00000020: f03f be3e f38c 613e
-0.14871956 -0.57804155 -0.20623055 0.32500392 0.5161247 -0.19884989 0.073470525 -0.39057612
0.37158155 0.22026424
