cnn.pth (torch, 250887 bytes, 10 tensors)

conv1.weight f4 [6, 3, 5, 5]
000000 ff 30 19 bd 4c e8 ae 3a ad 0d a5 bd 8b c8 86 3d
       -0.037400242 0.0013344376 -0.08059249 0.06581219
000010 2e ff 50 3c ce ad b8 bd 96 fb 8e 3c 53 7c 8c bd
       0.012756152 -0.090175256 0.01745395 -0.068596505
000020 5a 74 ad bd 54 26 79 bd ce e7 e2 3b bb d1 4f 3c
       -0.08469458 -0.06082757 0.006924606 0.012684281
000030 6b 7c 98 3d 1c 29 7a 3a 5f 34 c2 bd 0c 8e 21 3c
       0.07445606 0.0009542869 -0.09482645 0.009860527
000040 a3 51 24 bd d2 f3 88 3c 5e 37 99 3d ae ff 85 3b
       -0.040116917 0.016717825 0.074812636 0.0040893173
000050 13 2c f0 3c b1 15 08 bc 28 f7 f0 3d 5c 52 78 bd
       0.029317891 -0.008305953 0.11765891 -0.06062542
000060 cd b0 52 bd 6e af 42 be e7 36 c2 3c dd d7 9e 3d
       -0.05143814 -0.19012234 0.02370782 0.077560164
000070 be c4 0b 3d d2 ae 36 bd a9 17 16 be c6 64 0c bd
       0.034123175 -0.044600315 -0.14657463 -0.034275793
000080 79 3e bc bc a3 75 6a 3c c7 b0 fa 3c 9c c9 ad bc
       -0.022979008 0.014310273 0.030601872 -0.021214299
000090 f5 c0 04 bd 35 7f f0 bd 0f 32 8b 3c 88 5f db bd
       -0.03241058 -0.11743013 0.016991643 -0.107115805
0000a0 69 97 06 be f1 9b 12 be 05 b2 e5 bd cd 2f 9b bc
       -0.13143696 -0.143173 -0.11215595 -0.018943692
0000b0 1a 93 23 be 71 27 7e 3c 09 cb 43 3c b7 28 d4 bb
       -0.15974084 0.015512333 0.011950263 -0.00647458
0000c0 ad 89 2f 3d 75 e5 7c bd b3 d8 40 3e 77 9b f4 3d
       0.042855907 -0.061742265 0.18832664 0.11943715
0000d0 89 ed 5f 3e de c6 87 3d eb 1b 8e 3d f4 e8 00 3e
       0.21867956 0.06629728 0.06938919 0.12588865
0000e0 42 6e bd 3d 93 60 85 3e c3 10 84 3e 0c b5 5c 3e
       0.09249546 0.26050243 0.25794038 0.21553439
0000f0 95 fc 1c 3d 2a 3c 23 3e 57 d8 2d 3e bb e7 2a 3e
       0.03832682 0.1594092 0.16977058 0.1668996
000100 a6 11 db 3d ee 71 80 3d 94 0a 3e 3e 89 f6 62 3e
       0.106967255 0.0627173 0.18558723 0.22164358
000110 de f8 34 3e 0b d9 3d 3e ff 1e 7b bc 50 87 22 3e
       0.1767306 0.18539827 -0.015327214 0.1587193
000120 0b 20 ec 3c 03 4b c1 3c 66 ef 8a 3d d8 1f 34 3e
       0.028823873 0.023595339 0.06783943 0.17590272
000130 4f 63 23 3e dd 25 32 3d ae a6 0a 3d b9 7f 49 3e
       0.15955852 0.04349314 0.033850364 0.19677629
000140 0d a4 1c 3e 01 b8 3c 3e 49 6d bb bc d6 da f0 3c
       0.15296955 0.18429567 -0.02287926 0.029401224
000150 18 32 9a bc ef 8d 28 be d8 5f 64 be 58 ad 75 be
       -0.018822715 -0.16460393 -0.22302186 -0.23991907
000160 fb d5 72 be 64 79 10 be 23 b0 d9 bd 84 9d 9b bd
       -0.2371444 -0.14108807 -0.106292985 -0.07598403
000170 18 61 02 be 99 d5 5f 3c 45 31 06 bd cf 5f f3 3d
       -0.12732351 0.0136617655 -0.03276183 0.118835084
000180 ba 2b e3 3d 77 5c 24 3e e0 d2 4f 3d 0a f9 6b 3e
       0.110923246 0.16050898 0.050738215 0.2304422
000190 68 4d 36 bb e0 6d f9 3d 0e 0e 1a 3e 7c b0 1b 3d
       -0.0027817134 0.1217916 0.15044424 0.038010105
0001a0 a1 42 18 bb db db 11 be 0a 49 0d bd 2c fe ed bd
       -0.0023233073 -0.14244024 -0.034493484 -0.11620745
0001b0 52 0d 35 be ac 67 ca bd 62 92 74 be c9 fb 81 be
       -0.17680863 -0.09883055 -0.23883966 -0.2538741
0001c0 1a da 7e be 52 6d a4 bd 2b b9 62 be 2b 36 02 be
       -0.24887887 -0.08028664 -0.22140948 -0.12715976
0001d0 90 36 31 be b2 9d 5b bc ca 92 c8 bd ff 5f a1 3d
       -0.1730597 -0.013404297 -0.09793623 0.07879638
0001e0 85 b7 1f bd 4a d2 f4 3d b7 98 3b 3e 19 c4 11 3e
       -0.038993377 0.11954172 0.18319975 0.14234962
0001f0 b2 d6 3f 3e ba d1 b1 3a 14 9e f5 3c 30 dd 0a 3e
       0.18734244 0.0013566532 0.029982604 0.13560939
000200 29 66 8d 3d 9c f9 aa bd 0d 30 6e bd 0d 9c 86 bd
       0.06904251 -0.083483905 -0.058151294 -0.06572733
000210 29 a5 cf 3c f7 b8 cb 3d 0e 12 e3 3c 09 5a 18 be
       0.02534731 0.099473886 0.02771857 -0.14878096
000220 60 9e cf bd 52 fd bc bd 51 5c e7 bd 3d 0d 09 3c
       -0.101376295 -0.092280045 -0.11296905 0.008364973
000230 ba 19 24 3d c1 b8 76 bd 16 e7 47 bd ae 2f 02 bc
       0.040063597 -0.06023479 -0.048804365 -0.007945938
000240 d7 fe e6 3d e0 de 03 3e 4f 6c 5e 3e 6d 36 65 3e
       0.112790756 0.12877989 0.21721004 0.22384043
000250 8f 69 83 3e 04 ce bb 3c b9 29 0a be 79 7a 1e bd
       0.25666472 0.022925384 -0.13492478 -0.038691018
000260 aa b0 db 3c 8c f2 c4 3d 65 9a e0 3d f8 c5 64 bd
       0.026817638 0.09616575 0.109669484 -0.05585286
000270 aa d2 82 be cf d7 f5 bc a5 37 6a 3e c1 70 43 3e
       -0.2555135 -0.030010132 0.22872789 0.19085981
000280 f6 f1 26 be 3e f6 26 be 32 3e f6 bc cc 44 4a 3d
       -0.16303238 -0.16304871 -0.030058954 0.049382016
000290 71 d0 2b 3e e1 e1 3b be 6b 4a 49 bd 8f a1 77 3d
       0.16778733 -0.18347885 -0.049143236 0.06045681
0002a0 23 0b c0 bc f3 1a 5d 3d 7e 8f 08 be 30 77 0a be
       -0.02344281 0.05398078 -0.13335988 -0.13522029
0002b0 26 62 c5 3d be d4 41 3c 03 42 ed 3c 65 7b 02 be
       0.09637861 0.011830507 0.02896214 -0.12742384
0002c0 41 8e 19 be 04 91 39 be a4 ac c8 bc 31 05 24 3e
       -0.14995672 -0.18121725 -0.024496384 0.16017605
0002d0 c9 15 34 be 12 54 7e be f9 35 58 bd b4 5a 22 3d
       -0.17586435 -0.24836758 -0.052785847 0.039637282
0002e0 c4 b1 89 3e 80 1a 2f be 1f ff 74 be 73 ff 04 b9
       0.26893437 -0.17099953 -0.23925446 -0.00012683663
0002f0 5e 54 25 3e 5e c4 b7 3d a8 71 f3 bc ba 95 88 bd
       0.16145465 0.08973001 -0.029717281 -0.06669183
000300 d3 db 30 3d c6 33 09 3e 97 fd 58 3d bb d3 bf bd
       0.04317839 0.13398656 0.052976217 -0.09366556
000310 55 3f 37 bd 47 cc e9 bc f3 9f d5 3d a0 cb a8 bc
       -0.044738133 -0.02853979 0.104308985 -0.020604908
000320 cf 74 49 be 1d f7 32 be 13 b5 80 bd 9e d8 1b 3e
       -0.19673465 -0.17477079 -0.06284537 0.15219352
000330 db 58 48 3e 0a 76 0e be 1d 40 44 be 0f 3a 87 3d
       0.19565146 -0.13912216 -0.19165082 0.06602871
000340 91 1c 54 3e 92 a1 81 3e 28 a3 3c bd 7d 0b 4c be
       0.20714022 0.2531858 -0.046054035 -0.19926257
000350 6b fc 44 bd 16 79 d0 3d ba 06 91 3e e4 d3 26 be
       -0.048092287 0.10179345 0.28325444 -0.16291767
000360 45 d1 1a be df e5 c1 3d 8a 4c 3e 3d 31 88 64 3e
       -0.15118892 0.094676726 0.046459712 0.22317578
000370 39 a9 07 3d c2 88 a0 bd 98 a3 2b 3e ff 2e 3b bb
       0.033120368 -0.078385845 0.16761625 -0.0028561947
000380 43 f1 34 bc 06 0c 51 bd 32 78 1a bc 15 2e 8b 3c
       -0.011043849 -0.051036857 -0.009428071 0.016989747
000390 06 f4 05 bd 44 36 8c 3d cf 18 ff 3c 72 26 95 3d
       -0.032703422 0.06846288 0.03113976 0.072827235
0003a0 6c aa 4b 3d 3d 59 da bd 61 92 72 3d 58 34 6c bd
       0.049723074 -0.10661552 0.05922163 -0.057667106
0003b0 bc 1a 55 3d a9 84 6e bc 49 c9 f4 bd 41 ca f2 bd
       0.05202745 -0.014557996 -0.119524546 -0.11854983
0003c0 fc 7f a5 bd 7f 7d 0d 3a 00 ed a1 bd 0c 24 bc bd
       -0.08081052 0.00053974235 -0.07906532 -0.09186563
0003d0 d0 8e a9 bd f4 b3 a8 3d fe 4a 0b bd d2 0f 0c bd
       -0.082791924 0.08237448 -0.034007065 -0.034194775
0003e0 8e 1c c4 3d 33 4f 50 3c 45 44 0c 3c f9 98 39 bd
       0.09575759 0.012714195 0.008561199 -0.0453119
0003f0 3a 4e 7f 3d ce c0 03 3e 64 e1 84 3d 7f 9a 82 3c
       0.062330462 0.12866518 0.06488302 0.01594281

conv1.bias f4 [6]
000000 1d 4f dd 3e 31 3b 41 be 1c f0 3e 3e 75 43 2e bd
       0.4322442 -0.18870236 0.18646282 -0.0425448
000010 ef 89 06 3f 68 ce f2 bd
       0.5255422 -0.11855775

conv2.weight f4 [16, 6, 5, 5]
000000 df 9b f2 3d 6d c8 6b 3d 23 5c 47 3e 26 94 41 3e
       0.11846136 0.057564188 0.19468741 0.1890417
000010 2c c2 11 3e f2 60 df bb 00 36 24 3e d9 31 1d 3e
       0.14234227 -0.0068169767 0.16036224 0.15351047
000020 55 0a aa 3d ff fe f9 3d 1a 07 05 3e 27 69 c8 3d
       0.08302752 0.1220684 0.1299099 0.09785681
000030 3e 19 19 3e e2 49 aa 3d 28 3f 1b 3e 98 25 39 3e
       0.14951035 0.08314873 0.15160811 0.18080747
000040 a0 38 2f 3d 08 8a e5 3d 00 a0 99 3d 1e 92 22 3e
       0.04277861 0.11207968 0.07501221 0.15876052
000050 32 41 39 3e c2 22 c1 3d 74 28 18 3e 60 1a c8 3d
       0.18091276 0.09430458 0.14859182 0.09770656
000060 ad 20 aa 3d 56 8d 15 3c 2d 5e 22 bd a9 33 99 3d
       0.08307014 0.009127935 -0.039640594 0.074805565
000070 15 7e 6a 3c f7 5e 7c bd 22 86 78 3d 7d eb 0f bc
       0.014312287 -0.061614003 0.060674794 -0.008784172
000080 69 58 98 3c 3a d6 ac bc 17 c0 48 bd 43 0c 86 3c
       0.018596845 -0.021098245 -0.049011316 0.016363269
000090 c8 72 0b bc 6a df ad 3c 6a 65 26 3d 44 b1 f9 3c
       -0.008511253 0.021224696 0.04062406 0.030480035
0000a0 c5 c0 5f 3d f8 e8 87 bd 23 64 e1 bc 0d b7 64 bc
       0.0546272 -0.06636232 -0.02751357 -0.013959658
0000b0 75 83 26 bd 00 cb 77 bd 66 d0 8c bd 8e 90 ca bb
       -0.04065271 -0.06049633 -0.06875686 -0.006181783
0000c0 2e 03 ba bd 43 40 c8 ba 90 78 32 3d 67 44 09 bc
       -0.09082638 -0.001527794 0.04357201 -0.008378125
0000d0 5d 20 9b 3d 47 87 5e 3d 73 fb 33 bd 79 8f 59 bc
       0.07574532 0.05432823 -0.043940973 -0.013278835
0000e0 c2 49 03 3d 52 e4 48 3d 18 6a 78 3d f0 f5 2e bd
       0.032052763 0.04904587 0.060648054 -0.042715013
0000f0 9f fc 22 3e b4 25 3a 3d 37 a7 99 bd 82 98 d1 bc
       0.1591668 0.045446113 -0.07502597 -0.025585417
000100 23 f8 3c 3d 26 ca 2d 3e a3 b6 01 bd 36 fd 31 3c
       0.04613508 0.16971645 -0.031668317 0.010863593
000110 77 83 41 3d 3d 9e dc bc b6 1a aa 3d 10 8b d9 bc
       0.047244515 -0.026930923 0.08305876 -0.026555568
000120 16 04 0a bd 5e 96 07 3d 44 b9 61 3b fe 29 be 3d
       -0.033695303 0.033102386 0.0034442702 0.09285353
000130 c5 e3 14 3d 86 f1 01 bd 09 e3 d9 3d e3 bd 2a 3d
       0.03635003 -0.031724475 0.10639007 0.041684996
000140 98 47 a1 bc bb fb 56 3c c3 8c 2b 3d ba 78 cb bc
       -0.019687459 0.013121541 0.041882288 -0.02483784
000150 5f fb 4b bd 80 c2 a6 ba a9 e1 09 3d 26 eb 7a 3c
       -0.049800273 -0.001272276 0.033662472 0.015314853
000160 67 83 9c bb 63 b6 88 3d 79 be 14 3b 4e ef 76 3d
       -0.0047764066 0.066754125 0.0022696538 0.060286812
000170 e9 66 fa bc 9b 33 8e 3c f7 61 94 3d b1 a9 4f 3d
       -0.03056665 0.017358592 0.07245248 0.05069894
000180 16 bd 32 bd 73 5d b2 3d 8d b0 56 3d fd 04 58 3d
       -0.043637358 0.0870923 0.052414466 0.052739132
000190 d2 78 48 bc ba 4b 8c bc 90 68 f1 bc e4 04 e4 3b
       -0.012235837 -0.017125953 -0.029468805 0.006958591
0001a0 2c 2e ae bc 33 05 b1 bc d3 c1 13 bd 94 19 70 bc
       -0.02126225 -0.021608924 -0.036073517 -0.014654536
0001b0 5d c0 43 bd 51 9f 4a bc 22 da ae bb b9 33 4e 3c
       -0.047790874 -0.012367086 -0.005336062 0.012585574
0001c0 f9 98 8b bd 07 cf 5b bd 02 7f c5 3b c9 29 94 bd
       -0.068162866 -0.053664234 0.0060271034 -0.072345324
0001d0 b1 69 37 3d 39 4c 78 bd 6a f0 fc bc 31 85 95 ba
       0.04477853 -0.060619567 -0.030876357 -0.0011407492
0001e0 70 1c 90 bd 6b 8a b6 bc 6a fe 1e bd 7e 7d 0f bd
       -0.07036674 -0.0222828 -0.038816847 -0.035031788
0001f0 2d aa 0f 3d 2b 3a f4 3c 3e c4 ab bc 43 e7 3e 3d
       0.0350744 0.029812893 -0.020967599 0.046607267
000200 ea 3c 40 bc 31 83 9b 3d 44 29 4a bb 1a 12 3a 3d
       -0.011733273 0.07593382 -0.003084735 0.04542742
000210 53 c9 0f 3d f7 c7 26 3d 67 ec fc 3a f6 bb 87 bd
       0.035104107 0.040718045 0.0019296528 -0.066276476
000220 02 f6 82 3c 93 78 8d bd 0d 12 82 3c c0 b8 54 3d
       0.015986446 -0.06907763 0.015877748 0.051934004
000230 53 a5 93 bc 54 1a 03 bd e3 93 79 bc 93 95 81 3d
       -0.018023169 -0.03200753 -0.015233013 0.06327357
000240 86 17 e3 bc 16 21 05 39 79 da 79 bd f6 95 a0 bd
       -0.027721178 0.00012696194 -0.060999367 -0.07841103
000250 52 a5 6d bd 4e 9b 6d bd b7 12 b3 bd 0d 13 42 bc
       -0.05801899 -0.05800944 -0.08743804 -0.011845362
000260 32 67 01 bb 44 f8 98 3d 55 98 a3 3d 0a da 97 3d
       -0.0019745347 0.07469228 0.079880394 0.074146345
000270 1a 6a 16 bc c4 03 e8 3c 73 03 7a bd 59 a2 00 bd
       -0.00918057 0.028322108 -0.061038446 -0.031404827
000280 fa 4c c6 b9 35 7a 4b bd 7f 9b a9 bd 68 37 2a bd
       -0.00037822855 -0.049677093 -0.08281612 -0.041556746
000290 f3 a8 9e bd 9f 3f 56 bd 5b a5 16 bd 4f cb 12 bd
       -0.07747068 -0.052306768 -0.03677879 -0.03583842
0002a0 10 3d a2 3d 50 d7 45 bd 55 d3 a2 bd a6 c9 87 bd
       0.07921803 -0.04830104 -0.07950465 -0.06630258
0002b0 c3 ed 7c 3d a1 94 24 bd 21 1b c2 3b 21 22 93 3d
       0.061750185 -0.040180806 0.005923644 0.07184244
0002c0 04 54 8d bd 86 9d 9e 3d 3b 64 b3 bc ab ce b6 3d
       -0.0690079 0.07744889 -0.02189838 0.089261375
0002d0 cc 9f 8c bc 44 41 89 bd c9 8b 92 bd db c7 a4 3c
       -0.01716604 -0.067019016 -0.07155568 0.02011483
0002e0 c9 3a d9 bc 24 d7 a2 3c 3b 64 f6 3c 59 bf 44 bb
       -0.026517289 0.019877978 0.03007709 -0.0030021279
0002f0 8c df 6a bc ad cc ab bc 41 33 58 bd b5 46 1f 3c
       -0.014335524 -0.02097162 -0.052783255 0.009721448
000300 5e ee 70 bd 42 78 8f bd 8a 19 7a 3d 12 3a 8e bd
       -0.058821075 -0.07005359 0.061059512 -0.0694467
000310 67 73 e1 3c 17 56 85 3c 01 a3 5f 3d 69 89 89 bd
       0.027520848 0.016276402 0.054598812 -0.06715662
000320 22 8f 1a bd e2 7b 10 bd 7a 69 5b bd a8 92 aa 3d
       -0.03773416 -0.035274394 -0.053567387 0.08328754
000330 f6 a2 bc 3d 3a 8d 70 bc 40 be 22 bd 53 5d 3c 3c
       0.0921077 -0.014682109 -0.039732218 0.01149686
000340 6f 73 66 bc 38 9a 8c bb 33 84 f9 3b 65 86 77 bd
       -0.014065607 -0.0042908452 0.0076146363 -0.060430903
000350 ae ef 43 bd 75 1b 0e 3c 23 10 c5 3c 03 fa 52 bd
       -0.047836 0.008673538 0.024055546 -0.05150796
000360 30 d4 8e 3d 9f f2 ee 3b 16 11 9f bc 17 87 a4 3d
       0.06974065 0.0072921063 -0.019417327 0.08033579
000370 0b b9 f1 bc bf 74 8e bb 75 67 3e 3d de ca aa bb
       -0.02950718 -0.0043474133 0.046485383 -0.005212172
000380 51 ac d7 bb 53 a9 e0 bc ff c9 45 bd 47 c9 fb bc
       -0.006581821 -0.02742449 -0.04828834 -0.030735625
000390 dd 7a 86 bd a8 bc 8a bd e0 c1 62 3d 1c bd 42 bd
       -0.06566403 -0.067742646 0.055360675 -0.04754363
0003a0 3a be 03 bd ad 8c 41 bd a0 f2 dd 3b a1 3b 8a bd
       -0.032163836 -0.0472533 0.006773308 -0.067496546
0003b0 f4 21 68 bd c4 2e 01 bd 11 4d 8e 3d d1 8e f9 3a
       -0.056673005 -0.03153874 0.06948293 0.0019039755
0003c0 ed 7a 9b 3c d8 c8 12 3d 81 72 f9 bc 0b e8 3d bd
       0.018979514 0.03583607 -0.030450108 -0.04636387
0003d0 e1 fc 91 bd cb de 9e bd 51 d2 5b 3d 5d c0 31 3d
       -0.07128311 -0.07757338 0.05366737 0.043396343
0003e0 52 0b 82 3d 93 e1 eb ba 15 2b 94 3d 3e 90 67 3c
       0.063498154 -0.0017996304 0.0723478 0.014133511
0003f0 4a 46 7c bd 7f 65 96 bd 3a 7a 17 bd 06 fd 39 3d
       -0.06159047 -0.073435776 -0.0369818 0.045407318

conv2.bias f4 [16]
000000 6b d0 4b be cf 82 ab bc e2 57 a3 bd 85 56 97 3d
       -0.19903724 -0.020936398 -0.07975747 0.07389549
000010 ad e4 a3 bc 08 2b 27 3e f4 ce 47 3c 41 14 04 3e
       -0.020006502 0.16325009 0.012195338 0.12898351
000020 31 67 44 be a8 14 ce be f1 54 ad 3d b8 e4 a3 3d
       -0.1917999 -0.40250134 0.08463467 0.08002609
000030 fc f8 c3 bd 52 6d ed 3d ea c6 ee 3e 3a 87 a3 3d
       -0.095689744 0.11593117 0.46636134 0.07984777

fc1.weight f4 [120, 400]
000000 3c 28 81 3d 46 7d 51 3d e5 66 cd bc a1 67 6f 3d
       0.06306502 0.05114486 -0.025073478 0.058448438
000010 3c 97 88 3c 9d 22 a0 3b 7d ee 23 3c c5 cf 64 3c
       0.016673677 0.0048869387 0.0100055905 0.013965552
000020 27 bf 2d bc 56 00 1c bc 5f 90 58 bd 6b 5f 0d bd
       -0.010604656 -0.0095215645 -0.052872058 -0.034514826
000030 18 55 45 bc c3 62 b0 3b b9 ae 13 bd 0a 29 68 bd
       -0.012044214 0.005382867 -0.0360553 -0.056679763
000040 94 48 18 bd 4b 23 6c 3c 70 34 19 3b 30 c2 df bc
       -0.03717859 0.014412711 0.0023377202 -0.027314276
000050 42 d7 18 bd fb f0 86 bd 46 94 39 3c d9 49 d2 bc
       -0.03731466 -0.06588932 0.011326855 -0.025669979
000060 0c 42 ea bb 89 e7 de 3c 34 40 ad bb 3f be 9b 3c
       -0.0071489867 0.027210014 -0.0052871946 0.019011615
000070 df cb 1f 3d bb 31 2a bb 01 4d e0 bb 57 23 21 3c
       0.039012786 -0.0025969583 -0.006845117 0.009835086
000080 21 9f f7 3b ae 20 23 3c 5c db f9 3c 88 03 cc ba
       0.0075568114 0.009956522 0.030500107 -0.0015565017
000090 2a 9a 1e 3c 37 56 1f 3a a9 ff 41 3c 29 cb 66 3b
       0.00968031 0.00060782157 0.011840739 0.0035216308
0000a0 2c 4b 51 bd bc 26 99 3b 7b 5b ed 3b f5 56 fc bc
       -0.05109708 0.004673807 0.0072435713 -0.030803183
0000b0 23 68 2e bd 7d d3 2c 3d 9c 38 23 3d 08 18 fa bc
       -0.04257978 0.04219388 0.03984891 -0.030529037
0000c0 19 cc 40 bd 31 e4 31 bd 8b 9f e6 3c 21 9e 38 bd
       -0.047069643 -0.04343051 0.028152248 -0.04507268
0000d0 0e be e9 bc 56 13 90 ba ae 0e 49 3d 32 ee 54 3d
       -0.028533008 -0.0010992091 0.049086265 0.051984973
0000e0 e4 92 39 3c aa 7f c6 3c 1f 6e 73 3c 52 b4 6f 3c
       0.011326525 0.024230797 0.014857798 0.014630394
0000f0 dc ec 1f bd fd 72 43 bd f6 05 53 bd 99 0f 46 bd
       -0.039044246 -0.047717083 -0.051519357 -0.04835472
000100 df 80 07 bb 22 93 55 3d 2e 8f ae 3c 4b d7 46 bd
       -0.0020676178 0.05214227 0.021308508 -0.048545163
000110 5c d3 de 3c dd d7 bf 3a 2e ec 87 3c ea c5 9c bc
       0.027200393 0.0014636476 0.016592111 -0.019137342
000120 82 4f c3 3c dc 5c 8c bb d1 09 e8 bc 4d 34 4e bd
       0.023841623 -0.0042835306 -0.028324993 -0.050342847
000130 8f f3 ea 3b 80 a9 b5 bc 48 b5 03 bc 31 4c 3b bc
       0.0071701477 -0.02217555 -0.008038826 -0.01143174
000140 cc 40 d3 3b 8e 35 e5 3c 4c 2e 00 ba f9 eb 2c 3d
       0.0064469334 0.027979638 -0.0004889711 0.04221723
000150 4c 40 c0 bc c5 d1 0e bd 31 7f 39 3c 94 f0 49 ba
       -0.02346816 -0.03486802 0.011321829 -0.00077033904
000160 85 bf 18 bd 9e fa 7a 3c 32 b3 17 bd bf 4f 0e bd
       -0.037292022 0.015318541 -0.03703613 -0.03474402
000170 05 d8 34 3d ef f9 9b 3c 14 68 80 bd 58 ec ac bc
       0.044151325 0.019040076 -0.06269851 -0.021108791
000180 be aa 05 3d 3a f1 22 3d 83 ca 33 3d 18 96 21 3d
       0.032633536 0.039780833 0.043894302 0.03944978
000190 64 1d 91 bd 41 39 ca bb 36 e6 9c bc 2c e9 04 3a
       -0.07085684 -0.006171376 -0.019152742 0.00050701457
0001a0 50 70 05 bd ba 9f 26 bb 50 8c a4 bc 96 52 51 3d
       -0.032577813 -0.0025424794 -0.020086437 0.05110415
0001b0 24 59 44 3d ed f4 74 3d a5 40 38 3d 6c 57 f6 3c
       0.047936574 0.059803892 0.044983525 0.030070983
0001c0 ef 52 82 3a 27 1b c8 3c 22 8e 18 3d 0a 6a e5 bb
       0.0009942929 0.02442701 0.037244923 -0.007001166
0001d0 3c 58 0a bd 48 e5 8d 3b 15 5d 78 3c fc 00 20 3c
       -0.033775553 0.004330311 0.015158911 0.00976586
0001e0 71 19 0b bd 4b c0 00 bc 5b 58 8a bc 3c 5a 2d 3d
       -0.03395981 -0.007858346 -0.016887834 0.042322382
0001f0 ac b8 9c 3b d0 10 94 bc ea 2d 11 3d a2 f6 72 3b
       0.004782757 -0.018074423 0.035444178 0.0037073274
000200 56 7f 95 bc 94 ac 4c bd c3 10 5e bb e1 f0 7a 3d
       -0.018249195 -0.04996927 -0.0033884502 0.061264876
000210 c0 61 48 3d 08 96 55 bb 51 77 55 bd 90 ee 15 3c
       0.048921347 -0.0032590646 -0.052115742 0.009151116
000220 fe f7 66 3c d4 1a 04 3d d2 d9 e5 3c ae 00 6c bd
       0.014097212 0.032252148 0.028057966 -0.057617836
000230 0c d0 6f bd 80 23 79 3c ca 07 7b 3c 0f f8 fc bb
       -0.05854802 0.015206218 0.015321681 -0.0077200006
000240 ad ce 27 3c b8 62 12 3d a0 22 30 bb b3 dc 63 bc
       0.010242146 0.035738677 -0.0026876107 -0.013907599
000250 71 4e 10 3d 96 d8 bf 3b bc 7a 80 3c bf 79 2f 3c
       0.035231058 0.0058546765 0.015683524 0.010710179
000260 67 91 0e 3d 90 11 2c bb 16 43 23 3d 0f fd 45 ba
       0.034806635 -0.0026255585 0.0398589 -0.0007552662
000270 04 d7 7f bc 5a 54 84 bd 7a 7e 07 3d 0e 7e 8c 3c
       -0.015615229 -0.06461401 0.0330796 0.017149951
000280 d2 6a 9b 3c 09 18 5c 3c 7d 45 49 bd 21 9b 1c bc
       0.018971834 0.013433465 -0.049138535 -0.00955847
000290 9d 6c ee bc dc 78 41 bc e8 2d 4b bd e5 4b 31 3d
       -0.029104525 -0.0118086 -0.049604326 0.04328527
0002a0 a2 24 e5 bc 11 41 9e bc 34 96 89 bc b2 0b a8 3c
       -0.02797157 -0.019318135 -0.016795255 0.02051339
0002b0 f4 e6 9f bc 6e de 9b bc 19 53 91 3a ed e6 96 3c
       -0.019519307 -0.019026961 0.0011087387 0.01842066
0002c0 a6 37 c8 bc 49 3d 04 bd 62 ac 52 bd b5 ec 36 bd
       -0.024440598 -0.03228501 -0.05143393 -0.044659335
0002d0 c0 de 1d bb 0a 10 fa bc 88 78 52 3c 93 9d fd 3c
       -0.0024089068 -0.030525226 0.01284612 0.030958926
0002e0 b9 0e 29 3d 69 92 39 3c 6c b7 76 3c 6e 21 1a 3d
       0.041273806 0.011326411 0.01505838 0.037629537
0002f0 4d db d3 3c 7b f9 88 3b 40 a0 a1 bc 4d 11 c7 3c
       0.025861407 0.004180131 -0.019729733 0.024300242
000300 2e c2 18 bd f0 6a da 3c 3c 6f 03 3d 8c e6 87 3c
       -0.03729456 0.02666232 0.032088503 0.016589426
000310 a5 c3 b5 bc 44 4c 11 3d 08 5d 94 bc b7 be 64 3c
       -0.022188017 0.035473123 -0.018110767 0.013961486
000320 a9 9b 30 3d 6c 0b 33 3d 9f a2 1e bd bd 30 41 3d
       0.0431172 0.043712065 -0.038729306 0.04716562
000330 1b b3 44 3d ad c0 22 3c d9 1b 9c bc fe 2b be bc
       0.04802237 0.009933633 -0.019056248 -0.023214336
000340 92 ac c6 bc 8e 40 de bc a1 12 b1 3d f2 d9 d4 bc
       -0.02425221 -0.027130391 0.08646131 -0.02598283
000350 80 db df bc 16 41 ef bc 05 14 2a 3d 03 52 12 bb
       -0.027326345 -0.02920584 0.041523 -0.0022326715
000360 6b 7f 71 3b 4d 5b 2d bc a9 fc c7 bc 5a 5b 03 3d
       0.0036849629 -0.01058085 -0.02441247 0.03206954
000370 b7 53 7e 3c 67 e1 7e 3d 08 b5 98 3d 8e 8a 8e 3d
       0.015522889 0.06222668 0.07456404 0.06960021
000380 84 18 86 3d f6 de 95 3d 5e d9 89 3c 55 9a 86 3d
       0.06547645 0.07317917 0.016827282 0.06572405
000390 4f b1 12 bb 0b 21 ab 3c c4 e5 86 3c 89 d7 81 bc
       -0.0022383516 0.02088978 0.016466983 -0.015849845
0003a0 83 2f 69 bd c9 7d 2b bd 39 cc 4b 3d a3 a8 a2 3d
       -0.056930076 -0.041868005 0.04975531 0.07942321
0003b0 7c 37 05 bb 17 39 e1 bd e2 3a 9e bc ce 61 f5 3c
       -0.002032726 -0.10997217 -0.019315187 0.029953863
0003c0 cc a6 54 3d fb e6 4d 3d 4b 2e 3b bd 03 f8 43 3c
       0.051916882 0.05026911 -0.045698445 0.011960986
0003d0 ad 05 df 3d e7 55 b0 3d 31 61 b9 3d 08 8b 6a 3d
       0.108897544 0.086101346 0.09051741 0.057261497
0003e0 ec e8 b6 3d 76 32 02 3e a1 4b 7e 3d 89 99 5f 3d
       0.08931145 0.12714562 0.062083844 0.054589782
0003f0 bc a3 81 bb 15 41 6e 3c 50 cf 23 3c e8 7e 87 3d
       -0.0039562862 0.014541884 0.009998158 0.06616002

fc1.bias f4 [120]
000000 a2 58 a0 bd f5 62 12 bc 3e 84 96 3c 1a fd 0d 3e
       -0.07829405 -0.008934726 0.018373605 0.13866082
000010 6d 1a be bd f0 f6 20 3c 0e c4 17 3c bc 88 9b 3c
       -0.09282384 0.0098244995 0.009263052 0.018986098
000020 de fc 3f bd fa db 49 3b 6b b1 b9 bc b5 b1 d1 3c
       -0.046872012 0.0030801282 -0.022667607 0.025597433
000030 26 f9 0a 3e 2f 3c 53 3d 79 74 12 3d 04 67 26 bd
       0.13571605 0.051571067 0.03575561 -0.040625587
000040 d0 48 df 3c f3 0b 37 3c aa ec 00 3d 93 e4 da 3c
       0.0272564 0.0111722825 0.0314757 0.02672032
000050 89 b7 29 3d 9b 70 33 bc 6c ec 15 3d 82 49 cc bd
       0.0414348 -0.01095214 0.036602423 -0.09974958
000060 c4 5e b4 bd bb 92 09 3c 71 a1 96 3d 6f c0 06 bd
       -0.088071376 0.0083968 0.07355011 -0.032898363
000070 6c 4c 6f bd 56 4f af bc e2 b0 b0 3d 68 ff 93 bd
       -0.05842249 -0.021400135 0.08627488 -0.07226449
000080 99 12 2c 3d 25 e0 59 bd 9d ff c0 bc 83 a4 1a 3d
       0.042009924 -0.053192277 -0.023559386 0.037754547
000090 2a 34 b9 bc b6 25 a2 bb 36 06 44 bd db 47 66 bd
       -0.022607882 -0.004948343 -0.047857486 -0.05622087
0000a0 cb ea 4f bb 1e 68 53 bd f1 c8 13 bd 21 94 65 3b
       -0.003172564 -0.051612966 -0.036080305 0.0035030919
0000b0 9b 4e 1e 3e ad 06 b3 3c 16 8b 4e 3d c4 74 72 bd
       0.15459673 0.02185377 0.05042561 -0.059193388
0000c0 f1 f6 a7 bc 81 76 cd 3c 80 9a 06 be 46 d9 7a 3d
       -0.020503493 0.025080921 -0.13144875 0.061242364
0000d0 ad d7 09 bc 1a e4 8c 3c e9 e3 40 bd da ad 20 3d
       -0.0084132375 0.017198611 -0.047092352 0.039228298
0000e0 66 b2 8d 3d 3e 3c ca 3d c9 e4 5d bc 65 89 bc 3c
       0.069187924 0.098747715 -0.013543316 0.023014734
0000f0 95 58 b3 bc 30 ab c3 3c 2b 3d 52 bd cf 3a 80 3c
       -0.021892825 0.02388534 -0.051327866 0.015653042
000100 e5 75 9c 3c c1 86 99 bd 59 4d 78 3d 22 50 f7 3d
       0.019099185 -0.074964054 0.06062064 0.12075831
000110 5b 1c e8 3d f8 a2 7c 3d 78 92 50 bc 46 21 dc bd
       0.113335334 0.061678857 -0.012730233 -0.10748534
000120 c1 69 4a bc d1 94 2c 3d 30 f3 0a bc 8b 8d 22 3c
       -0.012354315 0.04213411 -0.008480832 0.009921442
000130 bb b7 70 3b 99 3e 9c bd c6 66 48 bb f8 2e 43 3d
       0.0036730606 -0.07629127 -0.0030578836 0.047652215
000140 a5 86 51 3c 5e 8f 50 bc c6 c7 11 bd 85 56 df 3c
       0.012788449 -0.012729494 -0.03559091 0.027262935
000150 f1 27 a9 bc 16 d3 89 bd 87 f9 0e bd f6 36 50 bb
       -0.020648928 -0.067297146 -0.034905937 -0.003177104
000160 f8 e0 82 3d c1 2f ef 3c 70 2c aa bc 08 1a 17 3b
       0.06390566 0.029197576 -0.020773143 0.0023056287
000170 de 8c 43 bd 30 2d a7 3d fa d5 3a bc 4b 92 a2 bb
       -0.047741763 0.08162916 -0.011403555 -0.004961287
000180 29 b4 d8 bb 93 02 94 3d 50 91 96 3c 8c ea 1a 3d
       -0.0066132736 0.072270535 0.018379837 0.037821338
000190 e1 05 cb bc f9 6d 19 3d dc f5 c7 38 fe 67 29 bd
       -0.024783077 0.037458394 9.534854e-05 -0.04135894
0001a0 de 4c 82 3c 99 c0 9b bd 14 7f 9a 3c f2 4d e7 3c
       0.015905794 -0.076050945 0.018859424 0.02823541
0001b0 a7 1e e9 3c 3a 12 c9 3c fb 08 7a bd ce 43 6b 3c
       0.028456999 0.024544824 -0.06104372 0.014359428
0001c0 fe a7 02 bd 15 09 49 3c 05 0b 7b 3c 01 5f 5e bc
       -0.03189849 0.012270232 0.0153224515 -0.013572455
0001d0 5d 2a c0 bb f3 a0 92 bd 8d 28 88 3d 79 84 15 3d
       -0.005864425 -0.07159605 0.066483594 0.03650329

fc2.weight f4 [84, 120]
000000 99 d2 28 bd a9 58 c4 3d 09 1b 65 bd d7 e1 4d 3a
       -0.041216467 0.09587223 -0.055933986 0.0007853782
000010 06 a4 d0 3c fa 8e 66 3d 94 2e a4 bd 15 7e bd bd
       0.025468837 0.056288697 -0.080166966 -0.09252564
000020 be 85 7e 3d 71 6a 62 bd a7 fc 44 3d e9 ab dc 3b
       0.062139265 -0.05527729 0.04809251 0.0067343605
000030 e0 77 d6 3c f1 c9 a4 bc a6 2d 9e bd 7b a6 8e 3d
       0.026180208 -0.020115824 -0.077235505 0.069653474
000040 f4 1a 65 bd 4a 44 e7 3c 8f 9c 1a bc 64 64 fd 3c
       -0.055933908 0.028230805 -0.009436741 0.030931659
000050 49 1e d5 3d 2d d3 6f bd da d8 89 3d 02 ee e4 3d
       0.10406167 -0.058551002 0.06730814 0.11178209
000060 1c 8f 35 bd a6 ea 8a 3d b6 a6 a1 bd aa 17 21 bd
       -0.044325933 0.06783037 -0.07893126 -0.03932921
000070 58 8c b0 3c db 71 ce 3d 32 bf 85 3d 28 07 a2 3d
       0.021551296 0.1008031 0.06530608 0.07911521
000080 41 8b 3a 3d 50 e0 c1 3d 81 46 8a 3d dd f5 0f 3d
       0.04554296 0.09466612 0.06751729 0.035146583
000090 2f 43 c7 37 04 b6 43 bd 76 83 93 3d 5f 3b 98 bd
       2.3753933e-05 -0.047781006 0.072028086 -0.07433199
0000a0 00 51 0e bc a9 e4 b1 bd 47 ec 35 bd 74 a4 40 3d
       -0.008686304 -0.086861916 -0.044414785 0.047031835
0000b0 9c fc 5e bd b4 ab bd 3c 63 b1 43 bc 4f 47 85 3d
       -0.054440126 0.023153163 -0.011944148 0.06507742
0000c0 ce 7a 58 3d ba 3a c9 bd 71 82 b7 bb 1e 8a 9f bd
       0.05285149 -0.09825654 -0.0056002666 -0.07790016
0000d0 5b ed c2 3d ba 2d 8c 3d 32 a6 8a bd bf f0 8d 3d
       0.09517928 0.06844659 -0.067699805 0.06930684
0000e0 09 19 aa bd e0 4c 57 bc a9 3d 4f bd fc 46 b1 bd
       -0.08305556 -0.013140887 -0.050595913 -0.08656117
0000f0 57 9a 37 bc 64 db a2 bc 3a 93 a0 3d b8 73 6b bd
       -0.011206231 -0.019880004 0.07840581 -0.057483405
000100 f4 12 aa 3c f0 f9 b1 3d 4d 97 f2 bc 6d 71 b4 3c
       0.02076099 0.0869025 -0.029613161 0.022026742
000110 40 c6 ad bd c5 82 08 bb 23 81 97 bd f4 c7 98 3d
       -0.08485079 -0.0020829898 -0.07397678 0.07460013
000120 53 e4 86 3d 35 a9 d0 bc 6c f2 dc 3d 61 be 82 bd
       0.06586518 -0.02547131 0.10788426 -0.06383968
000130 3d 11 3e bd 07 3e 66 bc cb d8 a9 3c 9c 4d 7e 3d
       -0.04640316 -0.014052874 0.020733258 0.062085733
000140 af d6 f3 bc a3 a4 6a bc 99 e9 1f bd dc a7 e5 3c
       -0.029765455 -0.014321479 -0.039041135 0.028034143
000150 bf f6 95 bd 1a 56 da 3c 1e 18 b1 3d 5b 72 2c bd
       -0.07322454 0.026652385 0.08647178 -0.042101245
000160 56 9d fb ba 0c 42 a3 bd bd d2 10 3d bb a4 d7 bc
       -0.001919667 -0.07971582 0.035357226 -0.026323667
000170 f0 a0 c4 3d 83 a8 68 3d e9 93 96 bd b6 2a 54 bd
       0.09601009 0.05680133 -0.073524304 -0.051798545
000180 9f eb 28 bd 9e 0e 0a bd dd ee c9 3b 73 5b 8b 3c
       -0.04124033 -0.033705346 0.006162508 0.01701138
000190 c0 7c b4 3d dc d5 c7 3d 2a 89 c1 3c 36 8d 99 3d
       0.08812857 0.09757587 0.023624975 0.07497637
0001a0 9f fc 50 3d 5a 14 b4 3d d3 b3 7a 3d 1d 99 1b 3d
       0.05102217 0.08792944 0.06120665 0.037987817
0001b0 38 bf 4d 3d a4 d4 51 bd 80 f4 a7 3d 85 c2 ea 3d
       0.05023119 -0.05122818 0.082009315 0.11462883
0001c0 25 75 2d bd 9d c9 f7 bc d3 5f 90 bc 92 2e da 3d
       -0.042348046 -0.030247504 -0.017623818 0.10653414
0001d0 2f 9d 15 3c 90 c2 d4 bd 3f e4 6e bc 57 62 c5 bd
       0.009131714 -0.10388672 -0.014580785 -0.096378975
0001e0 54 cc 2e bd fb 8a 9a 3d 1b b8 a8 3d 43 f7 30 3d
       -0.04267533 0.0754604 0.0823824 0.043204557
0001f0 cc 3e 72 bd 69 c1 a2 bc a2 3e 1d 3d 0d 4f 94 3c
       -0.05914192 -0.019867616 0.03838981 0.0181041
000200 aa 4b 7f bd 4a a9 2c bd 83 ba ab bd f3 7a b4 3d
       -0.06232802 -0.042153634 -0.08385184 0.08812513
000210 f4 c3 25 bd 66 a8 30 3d fd 7d b1 3d 2d 2f b8 3d
       -0.04047008 0.043129347 0.086666085 0.08993373
000220 0e 7f dc bc f9 50 50 bc 1c c3 23 bd fe 96 1e 3d
       -0.026916053 -0.012714618 -0.039980993 0.038718216
000230 cd b7 a0 bd bb aa f3 3b 48 e6 fe bc 51 9d 26 bd
       -0.07847557 0.007436124 -0.031115666 -0.040677372
000240 d6 f5 85 bd 5a 27 62 bd bf ec 86 3c 83 10 a0 3c
       -0.0654103 -0.05521331 0.016470311 0.019539123
000250 ca b3 1e bc 3a 7c 54 3c 6a 78 24 bd 57 61 27 bd
       -0.00968642 0.012969071 -0.0401539 -0.040864315
000260 95 a3 52 bd 23 0e a8 3d ba d7 88 3d a5 ef 34 bd
       -0.051425535 0.08205821 0.066817716 -0.044173855
000270 79 6b 53 bb 74 dc ae bc 54 ca 8f bd 5d 96 b2 3d
       -0.0032260104 -0.021345355 -0.07021013 0.08720086
000280 dc b2 7e bd b2 0a 21 bc ae 62 28 bc be 92 3a 3d
       -0.062182292 -0.00982921 -0.010277433 0.0455501
000290 d0 ee f2 3c 42 e0 83 bd aa 72 7b bd 06 b6 86 3c
       0.02965489 -0.06439258 -0.06138865 0.016444217
0002a0 9f 3b b1 3d 8c 9c 14 3d aa ee 23 3c ef 05 69 3d
       0.0865395 0.036282107 0.010005632 0.056890424
0002b0 cc 75 92 bd 8d e2 51 3d 1d 8d 48 3d 58 59 5b bd
       -0.07151374 0.051241446 0.0489627 -0.053552
0002c0 67 bb 20 bc bb d0 48 3c 3a dd a0 3c 6b f4 15 bd
       -0.009810305 0.0122567965 0.019636739 -0.03661005
0002d0 ff 5f 2d bd f9 3b a3 bd c4 3d a2 bc f3 96 af 3d
       -0.042327877 -0.07970423 -0.019804843 0.08573713
0002e0 f8 27 5a bc f4 b5 93 bd 85 c0 31 3d 6c 27 6c 3c
       -0.013315193 -0.07212439 0.04339649 0.014413696
0002f0 64 a3 05 bd 47 27 a2 bd 0a 54 b9 3d 32 54 7e 3d
       -0.032626525 -0.07917648 0.09049232 0.062092014
000300 10 a9 b0 bd 68 ec 82 bd f9 b5 a5 bc 3e c0 89 bd
       -0.08625996 -0.06392747 -0.020228373 -0.067261204
000310 b0 33 b1 3d 1b d1 4e bd 20 41 8b bd 7f 6e ff 3c
       0.08652437 -0.050492387 -0.06799531 0.031180618
000320 59 ae 4c 39 7d 57 9e 3d 08 bd b2 3c e6 98 8d bd
       0.00019519906 0.07731531 0.021818653 -0.06913929
000330 03 ca 55 bc 1a 33 28 3d 14 ea 2c bd 38 f4 a0 bc
       -0.013048652 0.04106436 -0.04221542 -0.019647703
000340 24 a0 4c bd e1 dc 30 3d 0a 24 3f bc 96 f0 d3 3c
       -0.04995741 0.043179397 -0.011666307 0.025871556
000350 7b ee 0a 3d e8 fd 4e 3d 32 5e b9 3d 59 38 fc bb
       0.03391884 0.050535113 0.090511695 -0.007697147
000360 55 33 c5 3c f0 f7 a6 3d 0c 84 b4 3d c0 41 3e bc
       0.024072329 0.08152759 0.088142484 -0.011612356
000370 65 27 20 bd 69 02 3f 3c 46 38 58 bd 49 4c 81 3d
       -0.03910007 0.0116582895 -0.05278804 0.06313378
000380 6e 49 3d bd 26 6e 8b bd d9 c6 67 bc 9a c8 27 bd
       -0.046212606 -0.068081185 -0.01414653 -0.040962793
000390 3e a3 93 bd fb 5c 49 bd d8 9a 88 bd 0f 74 90 3d
       -0.0720887 -0.04916094 -0.06670159 0.070533864
0003a0 4a 3b 9c 3d 84 56 af bd 23 15 7e 3d ab 3c b7 bc
       0.07628496 -0.085614234 0.062031876 -0.022367796
0003b0 53 c7 6f bd 2a 97 66 3d 4d 74 2f 3d 3e 23 84 3c
       -0.0585397 0.056296505 0.042835522 0.016130086
0003c0 2f e9 ee 3c 48 b2 65 3c 25 6e 9f 3c 57 d8 e3 3c
       0.029163925 0.014019556 0.0194617 0.02781312
0003d0 ca 31 a1 bc 71 fa b2 bd 9a c4 db bc 3b ca ba 3d
       -0.019677062 -0.08739174 -0.026827145 0.09120604
0003e0 9f cf b3 3d 4e 39 83 3d e7 cc 0b bc c9 61 0d bd
       0.08779835 0.064074144 -0.008532739 -0.034517083
0003f0 4a f2 17 3b f5 45 99 bd 1c 0e 8a bd d6 da bb 3c
       0.0023185187 -0.07484046 -0.067409724 0.022931498

fc2.bias f4 [84]
000000 1e 70 fc bc 82 b9 b6 3a c0 1f ff bb 6a b7 6d 3e
       -0.03081518 0.0013940784 -0.0077857673 0.23214498
000010 3f 7b 04 3e 7a 3b 85 3e d9 58 78 3d 30 88 70 3d
       0.1293764 0.2602194 0.060631607 0.05872363
000020 b5 b7 b7 bc c2 52 23 bc 0f 53 1c bc de e7 74 bd
       -0.022426466 -0.0099684615 -0.009541287 -0.05979144
000030 55 05 1d 3a cb aa 5d bc 69 9a 82 bd 2e 95 85 3d
       0.0005989869 -0.01352949 -0.06377108 0.065225944
000040 bd 5e 8d bd bc 9d cb bd da 43 2c bd 17 d5 67 bc
       -0.069028355 -0.09942195 -0.042056896 -0.014149926
000050 70 4f 19 bd 00 dd 3c 3b 47 56 91 bd 8e 97 03 3e
       -0.037429273 0.002881825 -0.07096534 0.12850782
000060 c8 6d 58 bd 3a d7 e9 bc 4a 3a c5 bd b1 df 4c 3e
       -0.05283907 -0.02854501 -0.096302584 0.20007206
000070 c5 ce a3 3d 28 45 22 3d 20 8d f7 bc c5 db 37 bd
       0.079984225 0.039616734 -0.03021866 -0.044887323
000080 c3 5a b4 bd 75 9e 95 bd bd 14 62 bd 29 ea f1 3d
       -0.08806374 -0.07305614 -0.05519556 0.11812241
000090 2b 7e d1 bd 45 a1 11 3c be 4d 29 3e 56 1a 90 bd
       -0.10229143 0.008888547 0.16533563 -0.07036273
0000a0 e2 e0 7f 3d d0 be a9 bd 4b f4 06 bd be 07 cd bd
       0.062470324 -0.08288348 -0.03294782 -0.10011242
0000b0 f0 9d 0c bd bb 75 25 bc d0 71 54 3d 4e ec b5 bd
       -0.03433031 -0.01009887 0.051866353 -0.08882962
0000c0 57 78 28 3e a6 d8 2f 3c 59 48 45 3d 9e e0 cd 3d
       0.16452156 0.010732805 0.0481647 0.10052608
0000d0 96 20 b2 bd bd 14 85 bc 8d 8e 15 3e 8f fc 1b bd
       -0.086976215 -0.01624524 0.1460516 -0.038082656
0000e0 3d b1 21 bd ef bf b7 3c b0 1d 90 bc 7c 9c 94 bd
       -0.03947567 0.022430388 -0.017592281 -0.072564095
0000f0 8e df 95 bd 12 07 a6 bd a2 2e 9e bb 21 dc 87 bd
       -0.0731803 -0.08106817 -0.0048273364 -0.06633783
000100 7b 79 63 bd 0a f9 5c 3e 7a 29 4f bd ce 50 cd 3c
       -0.055535775 0.21579376 -0.050576665 0.025062945
000110 d8 af 75 bc e0 a2 9a 3d ba da 88 bd a0 79 d0 3c
       -0.014995538 0.07550597 -0.06682344 0.02544862
000120 1d 4d 7b bd 55 39 8d 3c ce 54 31 bd be c9 90 bb
       -0.061352838 0.017239252 -0.043293767 -0.004418581
000130 b4 7a 06 bd 6e d2 22 bd 6a 6c 1f be 80 a5 4b 3e
       -0.032831863 -0.039751463 -0.155687 0.19887352
000140 de 38 41 bd 09 b3 03 bd 30 d9 71 3d 59 fa 42 bd
       -0.047173373 -0.032153163 0.059045017 -0.04760203

fc3.weight f4 [10, 84]
000000 84 64 0a 3e 56 dc a3 3d e8 e0 05 bd 54 69 1d be
       0.13514906 0.0800101 -0.03268519 -0.1537221
000010 55 03 83 3d ae e4 f8 bd 6d 34 ce bd d1 4c e0 bd
       0.0639712 -0.12152992 -0.10068593 -0.109521516
000020 74 26 b0 3d 83 5b 8d 3d f6 d0 34 be b4 19 e6 bd
       0.08601084 0.0690222 -0.17657837 -0.11235371
000030 41 9a 0c 3d 60 aa 18 3e ca 28 b7 3d 52 9a e2 3d
       0.034326795 0.14908743 0.08943327 0.110645905
000040 a8 4a 01 be f9 d1 92 3d 27 5d dc 3d 01 73 e4 bd
       -0.12626135 0.07168955 0.10759955 -0.11154748
000050 fc 09 fd bc 84 16 14 3e 29 be ab 3d 64 01 9c 3c
       -0.03088855 0.14461714 0.083858795 0.019043632
000060 32 9a 6c 3d de 4c 0e bc 9d 12 9c 3d 92 69 18 be
       0.05776424 -0.008685319 0.07620738 -0.14884022
000070 67 31 81 bc 9c 0c ec 3d e6 55 c0 3d eb 5d 7d 3c
       -0.015770627 0.115258425 0.09391384 0.015464286
000080 2d 59 5a bd 72 8f 84 3d 1c a8 2a 3e 2c 5b 31 bd
       -0.0533077 0.064726725 0.16665691 -0.04329984
000090 c6 6b 34 be fa 6a 97 3c 02 26 80 3b 3a 69 e9 bc
       -0.17619237 0.018483628 0.003910781 -0.028492559
0000a0 49 4a ad 3d 2e b8 87 3d b7 fc d4 3d 2c 58 59 3e
       0.084614344 0.06626926 0.10399764 0.21225041
0000b0 4f b7 27 3c d2 21 43 bd 85 2f 22 be bb 05 c9 3d
       0.010236575 -0.047639675 -0.1583844 0.09815546
0000c0 af 20 a3 bd b0 23 10 bd 1b 5b 98 3d b7 f9 1c be
       -0.07965218 -0.035190284 0.07439252 -0.15329634
0000d0 7c 28 59 bd 17 a0 ac bd 6f bb 6d 3d 70 4b 21 3b
       -0.053017125 -0.08428972 0.05804008 0.0024611615
0000e0 62 39 ce 3d 0d bd b4 3d 49 8e 10 3c 55 0a 96 bd
       0.10069539 0.08825121 0.008822986 -0.073261894
0000f0 b3 76 be bc 63 42 c4 bd f3 10 87 bc 9a ab 2b 3d
       -0.02324996 -0.09582975 -0.016487574 0.0419117
000100 60 3b 2b 3e 5d da 2c bd 34 ca b5 3d 7c a9 6d bd
       0.16721869 -0.042200435 0.08876458 -0.05802296
000110 c6 64 09 3e 1f 28 0e 3e e5 5d a9 3d 3d cc a1 bd
       0.13417348 0.13882492 0.08269862 -0.079002835
000120 27 b3 91 3c 2c 1c df bd 03 16 a7 bc 9e 0c 43 be
       0.017785622 -0.10894045 -0.020396238 -0.19047782
000130 c6 a7 eb bc 19 e0 07 3d 11 d0 c2 3d 62 31 cb bd
       -0.028766524 0.0331727 0.09512342 -0.099215284
000140 f4 e3 0a be 1f 20 19 3e c3 a1 e1 bd 60 50 d6 bd
       -0.1356352 0.1495366 -0.11017182 -0.10464549
000150 00 75 60 3d 16 ae c3 3d 55 a0 ba 3d 58 17 82 be
       0.05479908 0.09554689 0.09112612 -0.25408435
000160 d9 49 01 be 94 3d 40 3c 09 65 2e 3e 76 48 19 be
       -0.12625827 0.011733431 0.1703073 -0.14969048
000170 f1 7a f7 3c 12 7c 03 3e 81 a2 1a bd cb c1 1c 3d
       0.03020999 0.12840298 -0.037752632 0.038270753
000180 9a 18 e5 bd ab b5 14 3e f8 43 eb 3d a8 2c 15 be
       -0.11186333 0.14522426 0.114875734 -0.14567816
000190 94 14 a1 3d a2 c2 9f 3c e2 5f ae 3d f4 3e 90 3d
       0.07865253 0.019501988 0.08514382 0.07043257
0001a0 a5 31 d5 3d 72 dd 39 be 8e 77 eb 3d 30 bc 83 3c
       0.104098596 -0.18150881 0.114974126 0.016080946
0001b0 23 21 bc ba ce 97 1e 3e 4e c1 62 3d 49 68 c0 bd
       -0.0014353137 0.15487596 0.05536013 -0.09394891
0001c0 36 4e 81 3c ed 43 84 bd e9 76 dc 3d 6f dd 51 3d
       0.015784364 -0.06458268 0.10764868 0.051236566
0001d0 c9 6e cd 3d 4c b7 82 3d df c2 89 3c dc 28 31 3d
       0.10030896 0.06382617 0.016816555 0.043251857
0001e0 9a 3c 00 3d e3 58 c2 bd 15 2f 66 be 17 c3 1b 3e
       0.031307794 -0.0948961 -0.22478898 0.1521114
0001f0 d2 a1 fa bd 38 bf 8a 3d a4 0c 59 bc a7 8e a0 3d
       -0.12237896 0.06774753 -0.013247643 0.07839709
000200 43 16 63 3d 14 48 9a bd be af 58 3d 46 76 a4 3a
       0.055441152 -0.07533279 0.052901976 0.0012547455
000210 af 41 9f be 0e 4d f8 bc 1f 0a 43 be 26 cd 43 bd
       -0.311048 -0.03031018 -0.1904683 -0.047803067
000220 a2 d9 4d 3e e8 a2 99 3b ed 1b b2 3d b2 8f 11 3e
       0.20102552 0.0046886094 0.08696733 0.14214972
000230 43 03 2d bd b3 f4 3b be 30 c6 53 3b ab 44 40 3d
       -0.04223944 -0.18355064 0.0032314174 0.046940487
000240 3c 6d 21 bd 34 1f 90 3d 60 7b 52 be a1 4b 22 3e
       -0.039410815 0.070372015 -0.20554876 0.15849163
000250 79 4b 39 be 55 f8 40 be da 7f c5 bc 79 3f a0 bd
       -0.18095197 -0.18844731 -0.024108816 -0.078246064
000260 fc 92 bb bc 6f ad 08 3e f8 22 9e 3d d5 b4 fd bd
       -0.022897236 0.1334741 0.077215135 -0.123880066
000270 4e 74 98 bd 70 15 c4 bc 39 42 2d 3e bd 78 60 3d
       -0.07444058 -0.023936003 0.16919793 0.054802645
000280 81 0a 21 bd ce 25 10 bc 95 11 cb 3d be c9 b5 bd
       -0.039316658 -0.008798076 0.09915463 -0.0887637
000290 ad 07 d4 bc cd 89 87 bc 72 80 b9 3b 35 b5 aa 3d
       -0.025882566 -0.0165452 0.005661064 0.08335344
0002a0 9f 2f 4f bd a8 5d ae bd 5c 41 b1 bd f8 2c 94 3d
       -0.050582524 -0.08513957 -0.086550444 0.072351396
0002b0 3e ae 0e 3e 28 be 29 3e 10 07 a6 3c ed 11 ba 3d
       0.13933656 0.16576445 0.02026704 0.0908545
0002c0 02 a9 c3 bd c6 d6 28 3d c4 2e 1c be af cc 87 3d
       -0.0955372 0.04122045 -0.15252215 0.06630837
0002d0 4f ed 95 3d ab 02 b0 3d fa 24 c8 bc b7 83 8b bd
       0.07320654 0.08594259 -0.024431694 -0.06812232
0002e0 ce 71 17 be b4 e3 83 bd a1 cc 85 bd 09 84 70 bd
       -0.14789507 -0.06439915 -0.065331705 -0.05871967
0002f0 25 f9 1e 3d e0 17 48 3d d8 df 1d bd 6a cf c6 3d
       0.03881182 0.048850894 -0.038543552 0.0970753
000300 c1 86 12 3d fd d8 50 be e7 57 cc bd 80 88 49 3d
       0.035773043 -0.20395274 -0.099777035 0.049202442
000310 a4 db 27 bb 01 19 c8 3d 3c c8 0d be f4 cb 2f bc
       -0.0025613094 0.09770394 -0.13845915 -0.010729779
000320 54 d9 cc bd d1 9d 3d 3d d5 46 3f 3e 7d ea 04 3e
       -0.100023896 0.046293084 0.18679364 0.12980075
000330 1b ce 86 bd 35 85 67 3b 83 34 46 3e e9 be 0a bd
       -0.0658228 0.00353272 0.19355969 -0.033873472
000340 23 72 81 bd 08 bb 9e bd ef 06 a7 bc 8f da 56 3c
       -0.06320598 -0.07750517 -0.020389048 0.013113632
000350 dc fa cb 3d 9b 1b 79 bc 6d 75 7a bd 92 cd 0a 3e
       0.09959957 -0.015204336 -0.061147142 0.13554981
000360 81 93 41 3e a8 da d2 bd dc 75 59 3c 40 7a c2 bc
       0.18903925 -0.102956116 0.013272729 -0.023739934
000370 7d 23 c5 bd aa 38 4d bd 93 d0 38 3e 36 7f ea 3d
       -0.096259095 -0.050102867 0.18048315 0.11450045
000380 1b 99 b5 3d 32 73 95 3d d5 7f 3d bc 6e 99 f8 3c
       0.08867093 0.072973624 -0.011566122 0.030346598
000390 05 73 74 bd 59 5d dc bd 33 65 02 3e 2b 36 05 3e
       -0.059680004 -0.10759992 0.12733917 0.13008945
0003a0 03 49 fb bd 05 68 63 3e ea 73 15 3e 1d 96 de bd
       -0.12269785 0.22207649 0.14594999 -0.108684756
0003b0 06 cb 91 bd 9d 1c 3e bd f7 32 85 3c e7 dd 8f 3d
       -0.07118802 -0.046414007 0.016259653 0.070247464
0003c0 16 36 91 bd 86 08 9e bd ba 68 95 3c e6 90 8d bc
       -0.07090394 -0.077164695 0.018238414 -0.017281007
0003d0 be 7e e4 bd a4 2f 6c bd de 4f 1e 3e 0e b7 3a bd
       -0.11156987 -0.05766262 0.15460154 -0.04558473
0003e0 0f e3 d2 bd cc 35 96 bd 7e 44 08 3c e7 72 25 bd
       -0.10297214 -0.0733448 0.008317111 -0.040392783
0003f0 61 2a a8 bd a9 3d f5 39 29 7c 42 3d 98 ea 5f 3d
       -0.08211208 0.00046775982 0.04748169 0.054667085

fc3.bias f4 [10]
000000 02 69 8d be 76 9e b2 be 43 7a 3d 3e ac 68 da 3d
       -0.27619177 -0.3488652 0.1850367 0.10664496
000010 d5 ab cd 3e 2b be c1 3c 6a 23 b2 3e 38 87 92 bd
       0.4017016 0.02365025 0.34792644 -0.07154697
000020 99 dc 0d bd 79 04 af be
       -0.034634206 -0.341831
