myFirstModel.pth (torch, 209771 bytes, 26 tensors)

conv1.weight f4 [12, 3, 5, 5]
0.13801134 0.028485207 0.034570176 -0.038707986 0.014707383 0.05438329 0.103988245 0.20143881
0.08715571 -0.18724993 0.03163493 0.14958793 0.20128319 0.29293618 -0.039989654 0.021038022
-0.05792587 -0.0050640022 0.1637693 -0.059764557 0.026210064 -0.038180243 -0.22096153 -0.029594494
-0.16492152 -0.011724095 -0.16770072 -0.09941743 0.06804101 0.057999596 -0.1598005 -0.1751585
-0.08138742 0.052698303 -0.2310108 -0.036786232 -0.19930363 0.078007124 0.19539508 -0.10131766
0.0953939 -0.15150495 -0.02296536 0.049332883 0.022499582 0.049896553 -0.16643451 -0.2202534
0.06587666 0.07327356 -0.022032063 0.13460745 0.10864584 0.061475877 0.09778848 -0.08469861
-0.12728481 0.104044355 0.08695159 -0.13412105 -0.087133296 0.053086627 0.16449884 0.16045083
-0.10861519 -0.005549389 -0.011144938 0.039697725 0.16491972 0.104006656 0.10661381 -0.11626452
-0.037185464 -0.0017579165 0.057945248 -0.20126364 -0.05403452 0.0470983 0.11194631 0.007954861
-0.14035651 0.018070847 0.02090286 0.14274544 -0.03928113 0.037725188 0.04884592 0.11855017
0.12041469 -0.024642145 -0.112817675 -0.04531869 -0.0652247 -0.03380845 0.06835681 -0.13824338
0.061292447 0.018944234 -0.10851348 -0.15457316 -0.11055594 -0.11372828 -0.1113716 -0.02267519
-0.032921728 -0.020937374 0.08327128 0.16614416 0.067153245 -0.16632925 -0.21099956 -0.12583672
0.057209373 0.110475995 -0.07256631 -0.05733927 0.037474524 0.08321774 -0.05827747 -0.038123302
0.013820087 -0.040109776 0.04625629 -0.045624025 -0.16156824 -0.067854546 -0.0116978865 -0.025314812
0.1471816 -0.012968479 0.050216597 0.19437417 0.37170705 0.274251 0.07504866 0.059667237
0.16808735 0.12901874 0.047943816 -0.09370842 0.004470756 0.18292347 0.11629285 0.18120855
-0.03417483 0.14208157 0.08953886 0.1453992 0.030412093 -0.14049128 0.0990482 0.060652155
0.07421794 0.10272624 0.2081101 0.08381738 0.03311147 -0.09693166 0.030318541 0.32052293
-0.10937979 0.012847749 -0.09436331 -0.13513532 0.1327206 -0.09146139 0.052192125 0.07569954
-0.011044588 0.057823017 -0.05609698 -0.09878709 0.07880862 -0.16294691 -0.07190885 -0.03409184
-0.01375351 -0.2518772 0.044143643 0.119478166 -0.11643843 -0.26074895 -0.19699082 -0.08409441
0.15428047 0.03710381 -0.008212739 -0.13900407 -0.16945747 -0.046188522 -0.034311846 0.03325925
0.05953111 -0.11035931 -0.058014054 -0.0029905303 -0.010788603 0.12793066 -0.06435598 0.09892825
-0.099902354 -0.1558519 -0.11204805 0.0071492214 0.15233202 -0.020290613 -0.009295238 -0.14817725
0.022646973 0.26324025 0.020110164 -0.1585973 -0.15172702 0.08197986 0.06517994 -0.06124768
0.13726106 0.21165666 0.083109766 0.012288715 -0.02155016 0.05340609 0.12320432 0.1466076
0.06190251 -0.06880073 0.11102031 0.21841517 0.10612792 0.07299923 -0.0055245804 0.107924975
0.1215102 0.17287351 -0.020130007 0.029624196 0.1703754 0.14486994 -0.090205446 0.15422834
0.039640218 0.21750635 -0.08709903 -0.17399979 -0.05149024 -0.039690483 -0.048871674 -0.20000784
-0.19554202 -0.02328884 -0.00192869 -0.15786223 0.00816648 -0.07382435 -0.1354858 -0.03821799
00000000: d852 0d3e cf59 e93c 7599 0d3d 448c 1ebd
00000010: 3cf7 703c 03c1 5e3d caf7 d43d fa45 4e3e
00000020: b17e b23d 72be 3fbe a193 013d 942d 193e
00000030: 2e1d 4e3e bbfb 953e 31cc 23bd ee57 ac3c
00000040: ad43 6dbd eeef a5bb 24b3 273e aecb 74bd
00000050: 7db6 d63c e362 1cbd bd43 62be 2770 f2bc
00000060: 30e1 28be 6b16 40bc bdb9 2bbe 5e9b cbbd
00000070: 1659 8b3d fc90 6d3d bea2 23be c05c 33be
00000080: 73ae a6bd 2dda 573d 188e 6cbe 29ad 16bd
00000090: 4016 4cbe 33c2 9f3d a615 483e a27f cfbd
000000a0: e15d c33d 1d24 1bbe da21 bcbc 4711 4a3d
000000b0: 0b51 b83c 5460 4c3d cf6d 2abe 1b8a 61be
000000c0: 58ea 863d 7310 963d 967c b4bc 89d6 093e
000000d0: b681 de3d 21ce 7b3d 5445 c83d 7776 adbd
000000e0: f356 02be 3515 d53d ad13 b23d 0757 09be
000000f0: f172 b2bd 5d71 593d 6272 283e 394d 243e
00000100: a471 debd a6d7 b5bb 4299 36bc 159a 223d
00000110: b7e0 283e 7101 d53d 5758 da3d 181c eebd
00000120: c94f 18bd e469 e6ba ff57 6d3d 0e18 4ebe
00000130: 4d53 5dbd 26ea 403d 1b44 e53d 1b55 023c
00000140: 9eb9 0fbe 5009 943c 7a3c ab3c dc2b 123e
00000150: 40e5 20bd ba85 1a3d a912 483d 6eca f23d
00000160: fa9b f63d 53de c9bc f40c e7bd 17a0 39bd
00000170: 8794 85bd bb7a 0abd a8fe 8b3d ac8f 0dbe
00000180: ca0d 7b3d f030 9b3c 513c debd 6d48 1ebe
00000190: 276b e2bd 5fea e8bd cb16 e4bd 52c1 b9bc
000001a0: efd8 06bd db84 abbc 228a aa3d b221 2a3e
000001b0: a487 893d 3752 2abe 4510 58be 57db 00be
000001c0: 6054 6a3d 3d41 e23d a59d 94bd 95dc 6abd
000001d0: e37e 193d 106e aa3d 5bb4 6ebd 2e27 1cbd
000001e0: a56d 623c 264a 24bd 3c77 3d3d 42e0 3abd
000001f0: 2572 25be 53f7 8abd 7ea8 3fbc 0261 cfbc
00000200: c6b6 163e be79 54bc ebaf 4d3d 060a 473e
00000210: 6350 be3e a16a 8c3e 1db3 993d a265 743d
00000220: 171f 2c3e 7d1d 043e bc60 443d 33ea bfbd
00000230: 6b7f 923b 4a50 3b3e f22a ee3d bc8e 393e
00000240: e8fa 0bbd d57d 113e 2660 b73d 87e3 143e
00000250: c822 f93c f2dc 0fbe c8d9 ca3d 656e 783d
00000260: 93ff 973d 2362 d23d d01a 553e 72a8 ab3d
00000270: e59f 073d 1b84 c6bd 975e f83c 951b a43e
00000280: 8302 e0bd 5d7f 523c 8d41 c1bd ea60 0abe
00000290: e9e7 073e 1c50 bbbd 69c7 553d 5c08 9b3d
000002a0: 5cf4 34bc d4d7 6c3d f2c5 65bd e350 cabd
000002b0: 6a66 a13d 8edb 26be f244 93bd e3a3 0bbd
000002c0: 6756 61bc 0cf6 80be f7cf 343d f8b0 f43d
000002d0: 4677 eebd e380 85be f6b7 49be b139 acbd
000002e0: b3fb 1d3e 2afa 173d b98e 06bc 1557 0ebe
000002f0: 4286 2dbe 2d30 3dbd 948a 0cbd da3a 083d
00000300: e5d6 733d 1004 e2bd 25a0 6dbd c6fc 43bb
00000310: aec2 30bc 4100 033e 11cd 83bd e59a ca3d
00000320: 9b99 ccbd a497 1fbe 7379 e5bd 0444 ea3b
00000330: edfc 1b3e 8038 a6bc 0e4b 18bc c7bb 17be
00000340: 2586 b93c 6dc7 863e 12be a43c 5567 22be
00000350: 545e 1bbe 0fe5 a73d 0f7d 853d d9de 7abd
00000360: 2a8e 0c3e 86bc 583e 7435 aa3d 9b56 493c
00000370: f689 b0bc 58c0 5a3d 8c52 fc3d 4d20 163e
00000380: 7c8d 7d3d 66e7 8cbd 9e5e e33d 3aa8 5f3e
00000390: 9859 d93d 9f80 953d 8a07 b5bb c507 dd3d
000003a0: 57da f83d c105 313e afe7 a4bc 71ae f23c
000003b0: e476 2e3e c958 143e a2bd b8bd 09ee 1d3e
000003c0: c85d 223d fcb9 5e3e fa60 b2bd 002d 32be
000003d0: 6ee7 52bd 7d92 22bd aa2d 48bd dbce 4cbe
000003e0: 2b3c 48be 3dc8 bebc 19cc fcba a3a6 21be
000003f0: b3cc 053c 3931 97bd cabc 0abe 788a 1cbd

conv1.bias f4 [12]
0.050723292 -0.10778972 0.0028546224 -0.10069979 -0.03195612 -0.038876563 -0.0579174 -0.046722513
0.017983573 -0.10397218 -0.035503067 0.019998785
00000000: 3ac3 4f3d dbc0 dcbd 9e14 3b3b b13b cebd
00000010: 6ce4 02bd 083d 1fbd cc3a 6dbd 1b60 3fbd
00000020: 4952 933c 5eef d4bd aa6b 11bd 7ed4 a33c

bn1.weight f4 [12]
1.1828876 0.83980036 1.0116485 1.1111708 0.94432265 1.0738623 0.8634854 0.8085116
1.0024024 0.77073383 0.9229204 0.7809037
00000000: dc68 973f 28fd 563f b37d 813f d83a 8e3f
00000010: 21bf 713f 5274 893f 610d 5d3f 9efa 4e3f
00000020: b94e 803f d04e 453f 8344 6c3f 4ee9 473f

bn1.bias f4 [12]
0.44622892 -0.23499659 0.10402783 0.059234507 0.50043154 0.17086644 -0.0049022725 -0.09797541
0.5397114 -0.089659415 0.06638674 -0.062243097
00000000: 1e78 e43e f2a2 70be 8b0c d53d e29f 723d
00000010: 481c 003f 9df7 2e3e 3ea3 a0bb 55a7 c8bd
00000020: 872a 0a3f 5b9f b7bd c5f5 873d 9ef2 7ebd

bn1.running_mean f4 [12]
-0.018177904 -0.14363644 -0.019413453 0.017437946 -0.018789502 0.05417777 -0.017783148 -0.018333104
-0.012507312 0.06882785 0.044043437 -0.085148886
00000000: d4e9 94bc 6e15 13be f608 9fbc 06da 8e3c
00000010: 71ec 99bc 82e9 5d3d f7ad 91bc 4e2f 96bc
00000020: 78eb 4cbc 9ef5 8c3d e466 343d 8a62 aebd

bn1.running_var f4 [12]
0.057688605 0.39051774 0.13743566 0.077358484 0.066338986 0.08118147 0.12943771 0.17204085
0.066234514 0.29687715 0.08931914 0.1867767
00000000: e34a 6c3d f1f1 c73e efbb 0c3e 206e 9e3d
00000010: bcdc 873d 7842 a63d 528b 043e 7a2b 303e
00000020: f6a5 873d 4800 983e f4ec b63d 6442 3f3e

conv2.weight f4 [12, 12, 5, 5]
0.17460884 0.10129118 0.20359609 -0.010122083 0.16732095 -0.05247059 -0.028277041 0.094176255
-0.060735296 -0.032859232 -0.22595905 -0.25064728 -0.16562591 -0.28949213 -0.11280092 0.064543925
0.025462061 -0.013871607 -0.054335184 -0.012084136 -0.026315343 0.013815186 -0.021797447 0.00408035
-0.009274198 0.05930637 0.08910975 0.14445671 0.041459154 0.056533553 0.029281221 0.025030712
0.009522744 0.038164854 0.049578037 -0.100171335 -0.008386896 0.0063873148 -0.02265954 0.0020077843
-0.013387892 -0.09306729 -0.14221604 -0.061264917 -0.11051956 -0.09841646 -0.01340112 -0.066891424
-0.01469544 0.039058294 -0.076952934 -0.0017743672 -0.0486623 0.06923586 -0.0305229 -0.12065179
0.005371021 -0.15590915 -0.051857308 -0.0765491 0.044661812 0.14235285 0.030110152 0.01879295
0.025382305 -0.007765769 -0.014004054 -0.0203928 -0.016745556 -0.10349658 -0.16827756 -0.19605131
-0.23551291 -0.15481365 -0.13912413 0.062408097 -0.06769085 -0.036935035 0.079571456 0.057330757
0.103159554 0.10985909 0.072167814 0.025322502 0.01609678 0.018507028 -0.121038765 -0.044662453
-0.09033173 -0.11914938 0.010237018 -0.06685079 0.0067153117 0.025009299 -0.0975716 0.034116697
-0.09178511 -0.10571245 -0.12362057 -0.1193864 -0.043120384 -0.16419291 -0.18071327 -0.056144323
-0.20056947 0.06686258 -0.09779475 0.051658846 0.068253905 -0.00014909697 0.109568 -0.021671914
0.08149669 0.13930918 -0.035100225 0.012393252 0.015527966 0.028814327 0.044961333 0.027921466
-0.043375626 -0.018216334 -0.06161648 -0.0013552689 0.0770535 0.07167756 0.12261203 0.07721015
0.1494813 0.031443935 -0.118424505 0.020597328 -0.011512926 0.0371786 0.05480071 -0.16029856
-0.27001637 -0.28915676 -0.24300472 -0.17146099 0.10797457 0.12357157 0.047018908 0.038803745
0.048562594 -0.11502396 0.0497408 -0.052022908 -0.013185728 -0.013566357 -0.12661022 -0.26794234
-0.20040661 -0.15393615 -0.18312812 0.08781075 0.11267769 0.08933386 0.076090515 0.072434716
0.1514253 0.13676028 0.06024987 0.15812156 0.053151518 -0.052933723 -0.027179433 -0.034521732
-0.07727193 -0.074280575 0.03997061 -0.0036833829 0.018654454 -0.021808196 0.060198903 0.07844623
0.070724815 0.026126508 -0.012371848 -0.028118199 0.06686282 -0.002367144 -0.014613322 0.085259095
0.039149612 0.07550199 0.042921614 0.07357705 -0.028470857 0.07081564 -0.018936357 -0.12508951
-0.14785802 -0.098193385 -0.034848426 -0.066397905 0.0526766 0.07349733 0.013735053 -0.0010417271
-0.05992538 -0.009579728 0.10545411 -0.013641162 0.10230024 -0.079305574 -0.03750141 0.11763395
-0.009783611 0.031476177 -0.264372 -0.28841332 -0.34112686 -0.413455 -0.22519578 0.036656026
0.05668399 0.04755138 0.15188035 0.20641732 0.013875307 0.0867064 0.01521396 0.049453076
0.04252897 -0.049672935 -0.008216055 -0.08726436 -0.009514153 -0.06827966 -0.13469017 -0.04789269
-0.053235717 -0.087863736 -0.09895152 -0.0030497322 -0.0371953 0.06448589 0.025894515 0.043694295
0.21467903 0.14823158 0.16879949 0.16126572 0.110372975 -0.0017682433 0.083469175 0.021914795
0.014904642 -0.021377482 -0.19489327 -0.1562191 -0.14531736 -0.09213242 -0.24778153 -0.13100284
00000000: a9cc 323e c071 cf3d 7e7b 503e 18d7 25bc
00000010: 2f56 2b3e 67eb 56bd 41a5 e7bc 7bdf c03d
00000020: 93c5 78bd 6797 06bd cf61 67be d754 80be
00000030: d799 29be 5038 94be 2b04 e7bd 9b2f 843d
00000040: d095 d03c bd45 63bc 928e 5ebd 8afc 45bc
00000050: 4693 d7bc 1759 623c 8f90 b2bc 75b4 853b
00000060: cef2 17bc 3ceb 723d 2c7f b63d 76ec 133e
00000070: 13d1 293d ba8f 673d 2cdf ef3c 350d cd3c
00000080: 4905 1c3c c052 1c3d 5712 4b3d a126 cdbd
00000090: 3169 09bc ae4c d13b 80a0 b9bc 0895 033b
000000a0: e458 5bbc 109a bebd 15a1 11be ecf0 7abd
000000b0: 1458 e2bd 928e c9bd 5f90 5bbc 5ffe 88bd
000000c0: 25c5 70bc 97fb 1f3d 8099 9dbd e291 e8ba
000000d0: 1f52 47bd 88cb 8d3d 290b fabc 4918 f7bd
000000e0: 64ff af3b a6a6 1fbe 5468 54bd c6c5 9cbd
000000f0: 4eef 363d f2c4 113e 91a9 f63c acf3 993c
00000100: 8dee cf3c fe77 febb 4271 65bc cd0e a7bc
00000110: fa2d 89bc 04f6 d3bd f450 2cbe adc1 48be
00000120: 4c2a 71be 7887 1ebe 8e76 0ebe a29f 7f3d
00000130: 80a1 8abd 3149 17bd 5cf6 a23d a8d3 6a3d
00000140: 5145 d33d cdfd e03d b8cc 933d 2371 cf3c
00000150: 65dd 833c 0d9c 973c 2ce3 f7bd faef 36bd
00000160: d8ff b8bd 9704 f4bd 2ab9 273c 11e9 88bd
00000170: 1e0c dc3b 4de0 cc3c 9ed3 c7bd f3bd 0b3d
00000180: d5f9 bbbd c57f d8bd c82c fdbd db80 f4bd
00000190: 009f 30bd 3022 28be e60c 39be 97f7 65bd
000001a0: 1562 4dbe 40ef 883d 9d48 c8bd 3a98 533d
000001b0: b4c8 8b3d ea56 1cb9 3065 e03d 4c89 b1bc
000001c0: bde7 a63d 11a7 0e3e 41c5 0fbd 110d 4b3c
000001d0: 0369 7e3c 060c ec3c 6029 383d 8fbb e43c
000001e0: a4aa 31bd 6c3a 95bc 9061 7cbd 47a3 b1ba
000001f0: 3ace 9d3d afcb 923d 041c fb3d 5b20 9e3d
00000200: a011 193e 5bcb 003d 8c88 f2bd babb a83c
00000210: b6a0 3cbc 9648 183d b676 603d 4e25 24be
00000220: 963f 8abe 5b0c 94be 3bd6 78be 7893 2fbe
00000230: c521 dd3d 1713 fd3d e696 403d adf0 1e3d
00000240: 92e9 463d af91 ebbd 02bd 4b3d f915 55bd
00000250: f408 58bc 6d45 5ebc 1ca6 01be bd2f 89be
00000260: 6437 4dbe 70a1 1dbe f085 3bbe 1fd6 b33d
00000270: 90c3 e63d acf4 b63d 58d5 9b3d a758 943d
00000280: 3c0f 1b3e e30a 0c3e 91c8 763d 9eea 213e
00000290: 68b5 593d 08d1 58bd 67a7 debc a966 0dbd
000002a0: bf40 9ebd 6a20 98bd 39b8 233d e964 71bb
000002b0: 3ad1 983c 1aa7 b2bc 2093 763d 6ba8 a03d
000002c0: 2cd8 903d 4207 d63c 4bb3 4abc 2358 e6bc
000002d0: 60ef 883d 1622 1bbb b76c 6fbc 529c ae3d
000002e0: 585b 203d caa0 9a3d 93ce 2f3d 90af 963d
000002f0: b73b e9bc ca07 913d 6b20 9bbc 7717 00be
00000300: 1868 17be 9d19 c9bd 39bd 0ebd a0fb 87bd
00000310: 6bc3 573d c585 963d fd08 613c 908a 88ba
00000320: 5174 75bd 4bf4 1cbc 53f8 d73d 2e7f 5fbc
00000330: ca82 d13d f66a a2bd 149b 19bd 12ea f03d
00000340: 704b 20bc 2aed 003d c45b 87be e9aa 93be
00000350: 2ea8 aebe 60b0 d3be b999 66be a124 163d
00000360: 792d 683d 3cc5 423d 8686 1b3e 105f 533e
00000370: 4155 633c 2093 b13d f943 793c 4f8f 4a3d
00000380: db32 2e3d d975 4bbd a29c 06bc a8b7 b2bd
00000390: 40e1 1bbc 35d6 8bbd 38ec 09be 202b 44bd
000003a0: b20d 5abd e7f1 b3bd 18a7 cabd 04de 47bb
000003b0: 195a 18bd 2e11 843d bc20 d43c caf8 323d
000003c0: d2d4 5b3e 05ca 173e c6d9 2c3e d722 253e
000003d0: 3a0b e23d 66c4 e7ba e3f1 aa3d a886 b33c
000003e0: 9932 743c d41f afbc 1a92 47be e6f7 1fbe
000003f0: 13ce 14be ecaf bcbd 71ba 7dbe 9c25 06be

conv2.bias f4 [12]
-0.022350471 0.0007225696 -0.039245643 0.018438498 -0.051484853 -0.007164526 0.0012050034 -0.05808972
-0.09815597 -0.011195597 -0.011274137 -0.036049593
00000000: 5618 b7bc d36a 3d3a 0ac0 20bd 550c 973c
00000010: c8e1 52bd 66c4 eabb 34f1 9d3a 7cef 6dbd
00000020: ff05 c9bd bd6d 37bc 28b7 38bc bda8 13bd

bn2.weight f4 [12]
1.0902967 0.9312183 0.85709405 0.7168109 1.072589 0.71576405 1.1016598 0.8404077
1.0850365 0.9138725 1.1239012 0.98038113
00000000: d88e 8b3f 5364 6e3f 846a 5b3f eb80 373f
00000010: 994a 893f 503c 373f 3003 8d3f f624 573f
00000020: 7ae2 8a3f 8cf3 693f ffdb 8f3f 42fa 7a3f

bn2.bias f4 [12]
-0.16968709 -0.15830214 -0.1496758 -0.2365033 -0.15804544 -0.15044469 -0.08372307 -0.13833924
-0.25803944 -0.09014808 -0.2515538 -0.14920352
00000000: 74c2 2dbe f519 22be 9d44 19be ec2d 72be
00000010: aad6 21be 2c0e 1abe 0077 abbd cda8 0dbe
00000020: bf1d 84be 8e9f b8bd a9cb 80be cfc8 18be

bn2.running_mean f4 [12]
-0.9938573 -1.0770749 -0.2102916 -0.92707634 -0.53887504 -1.927532 -0.2770188 0.053005338
-0.5272649 -2.152371 -0.5158625 -0.16167113
00000000: 6f6d 7ebf 97dd 89bf ae56 57be e054 6dbf
00000010: b7f3 09bf 5eb9 f6bf 68d5 8dbe 201c 593d
00000020: d5fa 06bf 72c0 09c0 910f 04bf 1e8d 25be

bn2.running_var f4 [12]
3.5192697 5.211383 2.7981563 4.46348 3.0033107 3.4993112 2.868324 3.239301
2.8692906 4.2897534 6.2622337 4.2749104
00000000: b73b 6140 a6c3 a640 fe14 3340 d4d4 8e40
00000010: 3e36 4040 b7f4 5f40 9f92 3740 b550 4f40
00000020: 75a2 3740 a945 8940 3864 c840 11cc 8840

conv4.weight f4 [24, 12, 5, 5]
0.20783603 0.19946012 0.28718475 0.20265517 0.09677478 0.030093744 0.03978131 0.058971763
0.086060174 0.06745457 -0.09084427 -0.1322831 -0.09915303 -0.0175152 -0.018940698 -0.22489688
-0.2874776 -0.2301028 -0.16738626 -0.1980912 0.03427825 -0.0023888778 0.03509821 0.01923525
-0.08580287 0.050003722 0.025276298 0.062159985 0.13624868 0.13931175 -0.10750057 -0.1286339
0.041358396 0.061943658 0.111192785 -0.130472 -0.10903556 -0.022689873 0.085675344 0.1693205
0.02748243 -0.10689784 -0.099225536 0.04564923 0.1806784 -0.04878404 -0.18101403 -0.11062233
0.017879682 0.13363577 -0.08535527 -0.028839478 -0.04911509 -0.049475607 0.06837495 -0.010247369
0.059495337 0.06450528 0.0861505 0.044534825 0.086003356 0.038590036 -0.059298586 -0.00543619
0.08967266 0.00963276 -0.064895 0.031126307 0.061963685 0.099765345 0.11510644 0.08834146
-0.023093957 -0.005180674 -0.008270362 0.016758159 0.025289753 0.0007048161 0.10177892 0.17135592
0.003262586 -0.0134633 -0.021613732 0.07386785 0.13422078 -0.0053009717 0.062179822 0.040773228
0.120783545 0.11723131 -0.06560809 0.059784252 0.061274882 -0.004376017 0.11722322 -0.060215224
-0.11500077 -0.16971257 -0.11756082 -0.039231766 0.016485 0.07874463 0.11127716 0.11606622
0.07386888 0.056371376 0.12198376 0.078923956 0.016589535 0.040407714 0.037535414 -0.038766135
-0.06526269 0.058433067 0.14399043 -0.20408405 -0.28720614 -0.07624303 0.00092513225 0.02162997
-0.19123088 -0.121816024 -0.075180165 -0.048101705 -0.0394047 0.045256674 0.14085764 0.20508613
0.12566778 0.1377063 0.029373655 0.046145663 0.0428579 0.092423625 0.068165116 -0.07681277
-0.09826602 -0.09656028 -0.03614887 0.116896406 -0.1497389 -0.14443569 -0.11370515 -0.051421613
0.15901357 0.011234107 -0.039762784 -0.06537864 0.03651811 0.06338845 -0.076968096 -0.018916752
0.03201497 -0.07094105 -0.081674166 -0.09117886 -0.032759592 0.0057533425 0.0024923629 -0.037288815
-0.14084508 -0.046553783 0.04095417 0.01694502 -0.05647192 -0.15192768 -0.10015001 0.06535523
0.08900358 -0.0049298555 -0.10530331 -0.07434654 0.1203351 0.1314928 0.14492466 0.06963286
0.13291635 0.1593234 0.17623235 0.14905639 -0.022116745 0.02781123 0.016672028 0.0644084
0.027087294 -0.005816227 -0.02856602 -0.052769408 0.03275515 -0.0056393384 -0.022397172 -0.01210839
-0.032281205 -0.1147204 -0.1488922 -0.012431507 -0.17107531 -0.1990501 -0.18802994 -0.23230143
-0.037244882 0.0046659186 -0.006415166 0.10186063 0.09346612 -0.02633671 -0.01618701 0.10845179
0.09193672 0.017786073 -0.03863534 -0.066469595 -0.050553557 0.098036185 0.12762386 -0.074870504
-0.10468212 -0.07270102 0.040109433 0.021782747 -0.28194878 -0.25216088 -0.11877609 -0.15645319
-0.17650183 -0.05298167 0.024637979 -0.01295253 -0.036058243 -0.031544685 0.072610356 0.029967664
0.029842043 0.029047053 -0.059152424 0.1236821 0.058843926 0.05168303 -0.015496093 -0.11631086
0.041482992 -0.003922168 0.009239731 -0.022121292 -0.12710966 -0.01271167 -0.039538838 -0.114152476
-0.07034122 -0.09757756 0.040032778 0.10895765 0.027377147 -0.0064470056 -0.0026147873 -0.12913823
00000000: f8d2 543e 463f 4c3e e109 933e d684 4f3e
00000010: db31 c63d 2887 f63c baf1 223d 608c 713d
00000020: 5140 b03d 9f25 8a3d 900c babd 3975 07be
00000030: be10 cbbd 097c 8fbc 8629 9bbc 5e4b 66be
00000040: 4430 93be 12a0 6bbe 4e67 2bbe 6bd8 4abe
00000050: 5a67 0c3d b88e 1cbb 24c3 0f3d 3e93 9d3c
00000060: 6ab9 afbd b4d0 4c3d 3d10 cf3c 789b 7e3d
00000070: c684 0b3e bda7 0e3e 4229 dcbd 9bb8 03be
00000080: 6c67 293d a2b8 7d3d 0bb9 e33d 749a 05be
00000090: 094e dfbd 1de0 b9bc 8e76 af3d 5a62 2d3e
000000a0: d522 e13c 41ed dabd c236 cbbd b0fa 3a3d
000000b0: c203 393e c6d1 47bd be5b 39be f68d e2bd
000000c0: 6978 923c d1d7 083e bece aebd c540 ecbc
000000d0: e82c 49bd efa6 4abd 2a08 8c3d 95e4 27bc
000000e0: 62b1 733d 581b 843d ac6f b03d 266a 363d
000000f0: 8722 b03d 9610 1e3d 13e3 72bd 1122 b2bb
00000100: 4da6 b73d b9d2 1d3c abe7 84bd 99fc fe3c
00000110: a2cd 7d3d c651 cc3d edbc eb3d 5eec b43d
00000120: 8a2f bdbc a5c2 a9bb 6a80 07bc 6848 893c
00000130: 752c cf3c 68c3 383a 7771 d03d ed77 2f3e
00000140: 1cd1 553b 2c95 5cbc 480f b1bc 0748 973d
00000150: 2c71 093e c6b3 adbb 45b0 7e3d d401 273d
00000160: 5d5d f73d f816 f03d 895d 86bd 55e0 743d
00000170: 5ffb 7a3d b164 8fbb ba12 f03d 3da4 76bd
00000180: 8685 ebbd 22c9 2dbe bac3 f0bd 7db1 20bd
00000190: 8d0b 873c dd44 a13d 48e5 e33d 20b4 ed3d
000001a0: 9148 973d ace5 663d 9fd2 f93d e2a2 a13d
000001b0: c7e6 873c 8f82 253d bcbe 193d 3dc9 1ebd
000001c0: 72a8 85bd 8357 6f3d 3a72 133e 69fb 50be
000001d0: af0c 93be 4e25 9cbd 9384 723a 5631 b13c
000001e0: 07d2 43be ae7a f9bd 0ff8 99bd 4b06 45bd
000001f0: d366 21bd 105f 393d fc3c 103e 1902 523e
00000200: 0eaf 003e e102 0d3e 05a1 f03c 3c03 3d3d
00000210: c48b 2f3d 9948 bd3d 279a 8b3d 0350 9dbd
00000220: b23f c9bd 65c1 c5bd d610 14bd 6267 ef3d
00000230: 2755 19be f3e6 13be 3fde e8bd 789f 52bd
00000240: 74d4 223e 430f 383c 4dde 22bd 3de5 85bd
00000250: 0494 153d ced1 813d 73a1 9dbd 4ef7 9abc
00000260: 2122 033d 8b49 91bd c944 a7bd fbbb babd
00000270: ec2e 06bd 8986 bc3b e956 233b 28bc 18bd
00000280: b139 10be 2eaf 3ebd 8fbf 273d 48d0 8a3c
00000290: 1a4f 67bd ee92 1bbe 731b cdbd f6d8 853d
000002a0: 8247 b63d a08a a1bb 43a9 d7bd 0043 98bd
000002b0: 4072 f63d 0ca6 063e 2167 143e ac9b 8e3d
000002c0: 391b 083e ac25 233e 4176 343e 3da2 183e
000002d0: 2d2e b5bc 60d4 e33c c793 883c 8de8 833d
000002e0: 2ce6 dd3c 0c96 bebb 4903 eabc bc24 58bd
000002f0: 442a 063d 33ca b8bb 467a b7bc 4562 46bc
00000300: 4c39 04bd 87f2 eabd 3277 18be 85ad 4bbc
00000310: 5e2e 2fbe cad3 4bbe ec8a 40be 6de0 6dbe
00000320: 178e 18bd 90e4 983b 5036 d2bb 4e9c d03d
00000330: 2a6b bf3d 16c0 d7bc 9f9a 84bc f91b de3d
00000340: 5249 bc3d 19b4 913c 1740 1ebd 3621 88bd
00000350: 3f11 4fbd 32c7 c83d d4af 023e b555 99bd
00000360: 9463 d6bd 46e4 94bd ca49 243d bb71 b23c
00000370: 975b 90be 3b1b 81be e140 f3bd 4435 20be
00000380: e5bc 34be 4f03 59bd 96d5 c93c d936 54bc
00000390: cfb1 13bd 0035 01bd bdb4 943d bf7e f53c
000003a0: 4d77 f43c 16f4 ed3c d049 72bd 0a4d fd3d
000003b0: 5406 713d 96b1 533d 53e3 7dbc 6334 eebd
000003c0: 12ea 293d 8885 80bb 3e62 173c b637 b5bc
000003d0: 0929 02be 9c44 50bc 7af3 21bd c6c8 e9bd
000003e0: 0f0f 90bd bed6 c7bd 69f9 233d 3025 df3d
000003f0: 0a46 e03c 6741 d3bb da5c 2bbb d03c 04be

conv4.bias f4 [24]
-0.048526283 -0.03973487 0.023539554 -0.046945143 -0.0985003 -0.026853388 -0.02367457 -0.008082492
-0.06851482 -0.06629467 -0.0177457 0.036911678 -0.027874924 -0.027710503 -0.03583416 -0.032304037
-0.06432231 -0.007107212 -0.042016473 -0.038562886 -0.027387084 -0.016255476 0.041470297 0.03932525
00000000: 7fc3 46bd 08c1 22bd 06d6 c03c 8d49 40bd
00000010: 86ba c9bd a3fb dbbc 2cf1 c1bc 6e6c 04bc
00000020: 7f51 8cbd 80c5 87bd 6e5f 91bc b330 173d
00000030: f459 e4bc 2301 e3bc d7c6 12bd 3d51 04bd
00000040: 6abb 83bd 9ee3 e8bb 7719 2cbd 1ef4 1dbd
00000050: e15a e0bc 342a 85bc c2dc 293d 8313 213d

bn4.weight f4 [24]
0.94231385 0.87737405 0.85931706 1.0026243 0.9690445 0.90422916 1.0212759 0.95507264
0.89661276 0.90767354 1.0600939 0.9318482 0.87939566 0.95737314 0.9641864 0.94724
0.9966741 0.8145589 0.99640083 0.88661706 1.0195894 0.89138293 0.87169576 0.9483023
00000000: 7b3b 713f 969b 603f 34fc 5b3f fe55 803f
00000010: 4d13 783f 907b 673f 2bb9 823f a47f 743f
00000020: 6a88 653f 4b5d 683f 28b1 873f 9b8d 6e3f
00000030: 1320 613f 6816 753f ebd4 763f 527e 723f
00000040: 0926 7f3f ef86 503f 2014 7f3f 56f9 623f
00000050: e881 823f ac31 643f 7427 5f3f f1c3 723f

bn4.bias f4 [24]
-0.10991653 -0.08608713 -0.035906572 -0.061550803 -0.14420752 -0.14829062 -0.14140917 -0.08419175
-0.21217892 -0.1712577 -0.06504839 -0.07365785 -0.157528 -0.11706616 -0.033635702 -0.16890636
-0.21784061 -0.13696378 -0.13673413 -0.16574262 -0.007293987 -0.16445486 0.019142631 -0.13144653
00000000: eb1b e1bd 734e b0bd c512 13bd b21c 7cbd
00000010: 23ab 13be 7fd9 17be 91cd 10be b96c acbd
00000020: 6e45 59be 2e5e 2fbe 1738 85bd edd9 96bd
00000030: 054f 21be 62c0 efbd 97c5 09bd caf5 2cbe
00000040: 9c11 5fbe 3c40 0cbe 0804 0cbe 6fb8 29be
00000050: 6602 efbb db66 28be 02d1 9c3c eb99 06be

bn4.running_mean f4 [24]
-1.0777893 0.22874257 -0.3168379 -1.6387442 -1.0884323 -1.6550484 -1.2002624 -2.0360186
-1.4870589 -0.7491748 -2.899487 0.4102409 -0.05776053 -0.858096 -0.9425847 -1.2331209
-1.377263 1.3928025 -0.28011405 -1.7421818 -2.6089818 -2.871992 1.522382 2.39796
00000000: 00f5 89bf 7e3b 6a3e 9438 a2be 5fc2 d1bf
00000010: c051 8bbf a0d8 d3bf 33a2 99bf 214e 02c0
00000020: f257 bebf ebc9 3fbf 3291 39c0 180b d23e
00000030: 4e96 6cbd 2eac 5bbf 3b4d 71bf e8d6 9dbf
00000040: 274a b0bf 5a47 b23f 1c6b 8fbe d0ff debf
00000050: 8ff9 26c0 b8ce 37c0 6add c23f 2d78 1940

bn4.running_var f4 [24]
3.2416625 1.8987447 2.3835099 4.4235682 2.7031758 3.4526255 2.8423476 2.3826766
3.0742583 3.4036295 4.305177 1.9846205 2.9271312 2.2805526 2.477704 2.5922017
2.7027822 2.8857126 2.5727189 2.5717661 4.6727834 3.7880707 2.0296896 2.9478228
00000000: 6677 4f40 110a f33f 6d8b 1840 df8d 8d40
00000010: d500 2d40 d1f7 5c40 06e9 3540 c67d 1840
00000020: a6c0 4440 11d5 5940 03c4 8940 0b08 fe3f
00000030: 1e56 3b40 93f4 1140 b492 1e40 a2e6 2540
00000040: 62fa 2c40 84af 3840 6da7 2440 d197 2440
00000050: 7187 9540 c06f 7240 6fe6 0140 21a9 3c40

conv5.weight f4 [24, 24, 5, 5]
0.020961063 -0.062479187 -0.0942412 -0.1228432 -0.15802899 0.067973286 -0.08818771 -0.14263052
-0.12955523 -0.22449061 -0.027019769 -0.025537163 -0.067756064 -0.079467796 -0.12962829 0.09882948
0.0032140524 -0.025307268 0.0034881136 -0.05330866 0.10001138 0.013470636 -0.043777693 -0.006572674
-0.0051067164 0.002804108 0.04152581 -0.0044199172 0.050002854 -0.051705323 0.079949 0.0967835
0.056403324 0.015982674 0.010832784 0.04795244 0.038317405 0.0032193786 0.08166215 0.024821257
0.04792224 0.061466888 -0.015868157 0.032629743 0.08485917 -0.14618193 -0.06519702 0.014348431
-0.10510947 -0.12999296 -0.0020922723 -0.077422075 -0.04526905 0.050381627 -0.006466138 -0.043150444
-0.10419954 -0.11846867 0.013487578 -0.045201406 -0.01980438 -0.052102953 -0.017678462 0.018335013
0.016145768 -0.09878749 -0.12572762 -0.039261244 -0.121648006 -0.15812154 -0.11959211 -0.11759112
-0.08718238 -0.1561431 -0.21272027 0.13094363 0.11218481 0.11345242 0.0796138 -0.004975042
0.08037451 0.04523769 -0.030525094 -0.09138489 -0.13168019 -0.057079475 -0.14075562 -0.12850815
-0.12156712 -0.10951494 -0.140981 -0.18962769 -0.16921161 -0.0891817 -0.09531644 0.055577032
0.057179138 0.055765178 0.0606495 0.050286323 -0.022123063 0.05284519 0.018807512 -0.02125952
0.017620642 -0.028026188 -0.044759125 -0.039963227 0.033629045 -0.043584652 -0.07775706 -0.16185102
-0.103843056 -0.11453481 -0.15233804 -0.13523017 -0.19143745 -0.19841687 -0.15018733 -0.110879086
-0.18920772 -0.27244905 -0.3021305 -0.24163537 -0.15594335 -0.07600366 -0.05775037 -0.0609958
-0.020700336 -0.111249596 -0.15230307 -0.09315554 -0.103796564 -0.08151854 -0.0484516 -0.034615383
-0.071602516 -0.12634972 -0.053038303 -0.13232632 -0.010676961 -0.03648721 -0.088662006 -0.030242912
-0.102335684 0.085891895 0.013503502 0.031300023 0.083661035 0.0011971953 -0.08323896 -0.0695123
-0.030375903 0.13315126 0.02680018 -0.10295865 -0.05956491 -0.02541328 0.16193072 0.10619629
-0.07637308 -0.06124798 -0.03860132 0.062317915 0.05610088 -0.00040886493 0.05368346 0.1409644
0.15540601 0.19078577 -0.009748694 -0.014843488 0.03784816 0.07014126 0.072599635 0.15986222
0.022232499 0.014572077 -0.011428488 -0.010688236 0.08621606 -0.009786015 0.005347927 -0.104247205
-0.07823431 -0.03189329 -0.080934376 -0.05485778 -0.09803346 -0.089987 -0.02349682 -0.098815516
-0.06663229 -0.02896631 -0.055571213 0.013510006 -0.050109584 0.010634841 0.03605997 -0.015942628
0.025521621 -0.0044399803 -0.061542425 -0.10276424 -0.05363397 -0.051131584 -0.07502899 -0.12772955
-0.044054907 0.06391744 -0.025358982 -0.07943834 -0.11553761 -0.029791944 0.10680547 -0.026870774
-0.009199357 -0.040203348 0.021200096 0.055772886 -0.07046723 -0.008206413 0.045331657 0.088949695
0.05338721 -0.020908494 -0.07656324 -0.12735747 -0.07768388 -0.12242329 -0.0029670338 0.045866776
0.026752656 0.008664909 -0.008096916 -0.014782939 -0.053048957 0.015724914 0.04097972 0.06676508
-0.08172984 -0.02437624 0.0379246 0.066056065 0.06486642 -0.06907874 -0.005686181 -0.030872792
0.008835827 0.03828709 -0.088426106 0.02358882 0.0033874894 0.053425483 -0.013408718 -0.0041975603
00000000: 89b6 ab3c 2dea 7fbd 8801 c1bd 3795 fbbd
00000010: 5ad2 21be 9435 8b3d c29b b4bd bc0d 12be
00000020: 20aa 04be dee0 65be 9058 ddbc 5033 d1bc
00000030: b1c3 8abd 03c0 a2bd 47bd 04be 1c67 ca3d
00000040: daa2 523b 3051 cfbc d698 643b 2e5a 5abd
00000050: c4d2 cc3d f1b3 5c3c 3d50 33bd 965f d7bb
00000060: 3e56 a7bb 20c5 373b f816 2a3d f4d4 90bb
00000070: cbcf 4c3d f6c8 53bd 4dbc a33d 6d36 c63d
00000080: 2c07 673d 19ee 823c fd7b 313c c769 443d
00000090: b6f2 1c3d 36fc 523b 7c3e a73d f355 cb3c
000000a0: 1c4a 443d b4c4 7b3d f0fd 81bc c4a6 053d
000000b0: a5ca ad3d b7b0 15be 0486 85bd ae15 6b3c
000000c0: a243 d7bd e01c 05be 811e 09bb 778f 9ebd
000000d0: 0a6c 39bd f75c 4e3d e6e1 d3bb 85be 30bd
000000e0: 9266 d5bd b49f f2bd 01fb 5c3c 1c25 39bd
000000f0: cc3c a2bc e869 55bd 6cd2 90bc 4f33 963c
00000100: 2144 843c 1851 cabd bebe 00be 66d0 20bd
00000110: 9722 f9bd 9dea 21be b5ec f4bd 9dd3 f0bd
00000120: ad8c b2bd fae3 1fbe 58d3 59be 1616 063e
00000130: 26c1 e53d be59 e83d 8f0c a33d ad05 a3bb
00000140: 649b a43d 284b 393d c30f fabc 0028 bbbd
00000150: 2cd7 06be 2bcc 69bd 3e22 10be a497 03be
00000160: 2ff8 f8bd 5e49 e0bd 535d 10be c32d 42be
00000170: cf45 2dbe e5a4 b6bd 4435 c3bd bea4 633d
00000180: ac34 6a3d 076a 643d 9c6b 783d 08f9 4d3d
00000190: 6d3b b5bc 3374 583d 3612 9a3c 7228 aebc
000001a0: 2a59 903c 2d97 e5bc 5855 37bd 7bb0 23bd
000001b0: 9cbe 093d d285 32bd 183f 9fbd 46bc 25be
000001c0: abab d4bd 3a91 eabd 81fe 1bbe c779 0abe
000001d0: 2e08 44be cb2d 4bbe b5ca 19be 9314 e3bd
000001e0: abbf 41be 717e 8bbe d9b0 9abe 436f 77be
000001f0: 9daf 1fbe cfa7 9bbd a78b 6cbd bbd6 79bd
00000200: c093 a9bc d4d6 e3bd 56f5 1bbe 55c8 bebd
00000210: 4b93 d4bd 31f3 a6bd 2f75 46bd dcc8 0dbd
00000220: 57a4 92bd d261 01be b13e 59bd 8d80 07be
00000230: 6cee 2ebc 9d73 15bd 6d94 b5bd fcbf f7bc
00000240: 5f95 d1bd 17e8 af3d cb3d 5d3c 7434 003d
00000250: 7a56 ab3d 35eb 9c3a 3079 aabd 775c 8ebd
00000260: e3d6 f8bc ce58 083e 0d8c db3c fcdb d2bd
00000270: 56fa 73bd 832f d0bc 2bd1 253e 717d d93d
00000280: 7d69 9cbd 29df 7abd 6b1c 1ebd 1241 7f3d
00000290: 09ca 653d ec5c d6b9 30e3 5b3d f958 103e
000002a0: c122 1f3e 585d 433e fcb8 1fbc 1a32 73bc
000002b0: ac06 1b3d 39a6 8f3d 1eaf 943d ecb2 233e
000002c0: ee20 b63c b9bf 6e3c 8e3e 3bbc b61d 2fbc
000002d0: 0c92 b03d 8655 20bc aa3d af3b 8f7f d5bd
000002e0: 4f39 a0bd 8aa2 02bd ecc0 a5bd 8db2 60bd
000002f0: c4c5 c8bd 1b4b b8bd 677c c0bc ca5f cabd
00000300: 8376 88bd c14a edbc a49e 63bd 1259 5d3c
00000310: b53f 4dbd c23d 2e3c 9eb3 133d 1d9a 82bc
00000320: b812 d13c 417d 91bb e913 7cbd 0f76 d2bd
00000330: 4baf 5bbd 5a6f 51bd cda8 99bd 89cb 02be
00000340: eb72 34bd 26e7 823d a4bd cfbc 92b0 a2bd
00000350: fc9e ecbd 3c0e f4bc d4bc da3d 1920 dcbc
00000360: e6b8 16bc 44ac 24bd d3ab ad3c 1c72 643d
00000370: 2051 90bd 3174 06bc b0ad 393d 422b b63d
00000380: 8cac 5a3d 4a48 abbc 30cd 9cbd ff69 02be
00000390: ba18 9fbd 10b9 fabd 9172 42bb cdde 3b3d
000003a0: 6328 db3c 43f7 0d3c eda8 04bc 2434 72bc
000003b0: dd49 59bd 89d1 803c 5ada 273d 21bc 883d
000003c0: f961 a7bd aeb0 c7bc d356 1b3d 6748 873d
000003d0: b0d8 843d 2879 8dbd 2553 babb f0e8 fcbc
000003e0: 25c4 103c ecd2 1c3d bf18 b5bd 573d c13c
000003f0: a400 5e3b aed4 5a3d 3db0 5bbc b08b 89bb

conv5.bias f4 [24]
-0.06362284 0.02658932 0.018544815 -0.004718248 0.009489162 -0.05355143 -0.06320522 -0.07002503
-0.02282909 -0.05374728 -0.000554173 0.015788713 -0.04528508 -0.10761955 -0.010567038 -0.048010197
0.051514294 -0.023446314 0.00020430647 -0.015633035 -0.012722498 -0.022308871 -0.05206996 -0.11079644
00000000: b14c 82bd d8d1 d93c 4ceb 973c 889b 9abb
00000010: 6e78 1b3c bf58 5bbd bd71 81bd 4869 8fbd
00000020: 1204 bbbc 1c26 5cbd ec45 11ba 5557 813c
00000030: d97c 39bd a367 dcbd 5f21 2dbc 57a6 44bd
00000040: a700 533d 7c12 c0bc 1a3b 5639 da10 80bc
00000050: 0672 50bc 18c1 b6bc 4f47 55bd 3ee9 e2bd

bn5.weight f4 [24]
0.5648961 0.5914355 0.52191055 0.6567155 0.54049385 0.5678246 0.57644975 0.55273086
0.5370613 0.5150816 0.51949203 0.5226627 0.5008661 0.472247 0.5457398 0.521663
0.6002593 0.50277513 0.52185184 0.52064425 0.54282516 0.5778413 0.49969873 0.55270624
00000000: 089d 103f 5168 173f ee9b 053f 821e 283f
00000010: ce5d 0a3f f45c 113f 3692 133f c57f 0d3f
00000020: d97c 093f 63dc 033f 6efd 043f 39cd 053f
00000030: c338 003f 5cca f13e 9bb5 0b3f b58b 053f
00000040: 98aa 193f dfb5 003f 1598 053f f148 053f
00000050: 97f6 0a3f 68ed 133f 83d8 ff3e 287e 0d3f

bn5.bias f4 [24]
-0.3531708 -0.23175503 -0.31327903 -0.32238588 -0.3494399 -0.3883856 -0.35165086 -0.32271382
-0.4312913 -0.41961166 -0.32265696 -0.33255768 -0.4392658 -0.42609113 -0.4272623 -0.37712422
-0.31178626 -0.35800007 -0.37367293 -0.27384982 -0.3396081 -0.30937418 -0.32539237 -0.36917242
00000000: ced2 b4be 3151 6dbe 1c66 a0be c30f a5be
00000010: c9e9 b2be 7ada c6be 950b b4be bf3a a5be
00000020: 37d2 dcbe 57d7 d6be 4b33 a5be 0045 aabe
00000030: 72e7 e0be 9e28 dabe 20c2 dabe 6d16 c1be
00000040: 73a2 9fbe c94b b7be 0f52 bfbe 0b36 8cbe
00000050: 1de1 adbe 4b66 9ebe d499 a6be 2b04 bdbe

bn5.running_mean f4 [24]
-3.9374018 -1.5237281 -1.2864367 -1.1450427 -2.5212734 -2.889943 -3.7803535 -4.2619247
-2.016388 -3.8254693 -1.5492084 0.2729937 -4.5206337 -5.0337844 -2.1068997 -1.5015569
-1.8494148 -1.77471 -2.2859762 -4.8262196 -2.3876095 -1.5044906 -3.7191598 -5.097329
00000000: 64fe 7bc0 8609 c3bf f5a9 a4bf c290 92bf
00000010: 8b5c 21c0 d3f4 38c0 50f1 71c0 b061 88c0
00000020: 800c 01c0 7dd4 74c0 764c c6bf d5c5 8b3e
00000030: 08a9 90c0 c314 a1c0 72d7 06c0 0433 c0bf
00000040: a0b9 ecbf b329 e3bf 6f4d 12c0 6470 9ac0
00000050: 98ce 18c0 2693 c0bf b706 6ec0 521d a3c0

bn5.running_var f4 [24]
7.8754964 5.8306246 4.4840217 6.7865634 6.7024803 4.3366976 5.3344674 6.111199
3.559911 4.6726904 5.7972107 6.031092 5.87749 5.036904 4.0302343 3.6497638
7.451734 5.7797737 5.7812357 8.395463 5.3967996 4.9737873 5.1348743 7.13778
00000000: 1104 fc40 7a94 ba40 1b7d 8f40 872b d940
00000010: b87a d640 3ac6 8a40 f5b3 aa40 f18e c340
00000020: 95d5 6340 ae86 9540 c082 b940 b5fe c040
00000030: 6614 bc40 512e a140 aef7 8040 bb95 6940
00000040: 9b74 ee40 e8f3 b840 e2ff b840 d153 0641
00000050: 95b2 ac40 4429 9f40 e450 a440 b268 e440

fc1.weight f4 [10, 2400]
-0.20981094 -0.18157034 -0.088956535 -0.04587529 0.00024588767 -0.12128585 -0.16847503 -0.1402084
-0.17230013 -0.2509992 0.0024594895 -0.031731978 0.038342994 0.034031752 0.027733874 -0.04572528
-0.07441173 -0.065177135 -0.077078976 -0.15144771 -0.0039417334 0.0045168926 0.06243851 0.067897215
0.026999429 -0.00600792 -0.013501804 -0.059834663 -0.06397713 -0.19255704 -0.076802135 -0.009156733
-0.0017577363 0.00010862851 0.08200383 0.06718458 -0.021289503 -0.078166515 -0.12422713 -0.20348093
0.012915421 0.053700935 0.040122528 0.080033556 0.13156329 0.0884649 -0.0045803552 -0.09366667
-0.093857266 -0.12432923 0.02901065 0.03420292 0.07101187 0.08053449 0.07852474 0.07879647
0.037492555 -0.06445656 -0.06266435 -0.11954802 0.044884324 0.048573423 0.02431356 0.004564012
0.01498503 0.030631179 0.10339079 0.11271079 -0.051757243 -0.07959976 0.057307247 0.12242561
0.083770745 0.06652379 0.06485116 0.074011624 0.104922295 0.09656013 -0.0062249214 0.018739453
0.06592225 0.12362978 0.05305286 0.06794404 0.12561421 0.11220549 0.12435663 0.056738254
0.020169506 0.1291161 0.05963922 0.12703238 0.08209427 0.15232459 0.13276362 0.11304784
0.117624685 0.09213657 0.0309272 0.1006954 -0.03131919 0.072814964 0.033549532 -0.028790554
-0.02733236 -0.0044985344 -0.004394725 -0.024229776 -0.023680266 -0.06825864 -0.011547539 -0.002764411
0.048710205 -0.04139102 -0.082642816 -0.09079071 -0.0118116075 0.063495874 0.022975773 -0.007892756
0.025550371 0.041110687 0.061593994 0.012535506 0.012907593 -0.07226621 -0.022073427 0.007226435
0.018043565 -0.0060419664 0.10597643 0.05591936 0.0847258 0.071671546 0.07246997 -0.011623209
-0.019488161 -0.013665344 0.02524555 0.08102108 0.1739443 0.053027593 0.0030436204 0.041492414
0.018421864 -0.017007459 -0.04293458 -0.0132839875 0.013316264 0.08137011 0.23303731 0.067762
0.022427548 0.044280082 0.06602286 -0.035723884 -0.017490385 0.008365851 0.00038377882 0.060169645
0.26859578 0.07389917 0.056306273 0.062258366 0.04732205 -0.056158338 -0.039088905 0.011599999
0.0062456275 0.05307305 0.18805362 0.064467184 -0.007553827 0.018983396 0.0008446215 -0.0051208707
-0.00541717 0.024385745 -0.070093766 -0.010754838 0.22775972 0.09908125 -0.04203924 0.0020847255
-0.021453274 -0.00449287 -0.024913648 -0.00540591 -0.05232924 0.00039313175 0.15905732 0.09221142
0.06560627 0.06259571 0.03006925 -0.024639178 -0.029328682 0.016575458 -0.04058849 -0.044896934
0.109218545 0.026023567 0.048212223 0.042428493 0.05288042 0.033991233 0.03899944 0.027679188
0.026166119 0.051457897 0.03153975 -0.0125194695 -0.019352924 -0.0039584823 -0.011957579 -0.047599643
-0.041228835 -0.018909866 0.03533149 0.007176856 0.04584689 -0.07679968 0.007692958 0.009732177
0.00017423724 -0.0674619 -0.14758131 -0.09304396 -0.07656145 -0.070357375 0.1498294 0.052408606
0.058123656 0.032394502 0.007977399 -0.022420663 -0.058737032 -0.035220034 -0.023685604 -0.007894663
0.024888735 0.05505366 0.046947982 0.011572656 -0.023986064 -0.059747174 -0.06392395 -0.050744936
-0.07068032 -0.034002315 -0.008754837 0.0127601 0.052347373 0.0024963466 -0.031461496 -0.07318865
00000000: aed8 56be 93ed 39be d82e b6bd bae7 3bbd
00000010: 7cea 8039 b764 f8bd b884 2cbe ca92 0fbe
00000020: 726f 30be f882 80be 632f 213b 64f9 01bd
00000030: 8b0d 1d3d e164 0b3d 2632 e33c 6e4a 3bbd
00000040: 2d65 98bd 977b 85bd 95db 9dbd 1c15 1bbe
00000050: a829 81bb 7102 943b 86bf 7f3d b20d 8b3d
00000060: e82d dd3c 16de c4bb ac36 5dbc 3115 75bd
00000070: 7106 83bd ac2d 45be 704a 9dbd 1f06 16bc
00000080: d863 e6ba 7dcf e338 a0f1 a73d 1298 893d
00000090: 5367 aebc c415 a0bd cb6a febd 4e5d 50be
000000a0: 349b 533c 83f5 5b3d 8557 243d a2e8 a33d
000000b0: 87b8 063e 162d b53d ce16 96bb 50d4 bfbd
000000c0: 3d38 c0bd 53a0 febd bea7 ed3c 5c18 0c3d
000000d0: ac6e 913d 44ef a43d 94d1 a03d 0b60 a13d
000000e0: cb91 193d cd01 84bd 2b56 80bd 98d5 f4bd
000000f0: a0d8 373d edf4 463d 3b2d c73c b58d 953b
00000100: c583 753c 3dee fa3c 8dbe d33d ead4 e63d
00000110: 67ff 53bd 3305 a3bd 01bb 6a3d 47ba fa3d
00000120: ff8f ab3d a03d 883d afd0 843d 6893 973d
00000130: 80e1 d63d 51c1 c53d 6dfa cbbb 7b83 993c
00000140: 3f02 873d 9c31 fd3d f54d 593d 3f26 8b3d
00000150: 03a1 003e fecb e53d b0ae fe3d 5f66 683d
00000160: 853a a53c 0337 043e 4148 743d c714 023e
00000170: 0a21 a83d fafa 1b3e 30f3 073e a085 e73d
00000180: 36e5 f03d 19b2 bc3d 0a5b fd3c 6439 ce3d
00000190: 8d48 00bd 0320 953d 3c6b 093d 2bda ebbc
000001a0: 1de8 dfbc 7168 93bb a001 90bb 867d c6bc
000001b0: 1efd c1bc 30cb 8bbd e431 3dbc 1f2b 35bb
000001c0: 5a84 473d a189 29bd a340 a9bd 7bf0 b9bd
000001d0: 7985 41bc 200a 823d b037 bc3c 9e50 01bc
000001e0: 034f d13c ae63 283d fc49 7c3d b961 4d3c
000001f0: 5e7a 533c 4f00 94bd 55d3 b4bc bbcb ec3b
00000200: 19d0 933c b0fb c5bb 2c0a d93d b30b 653d
00000210: b884 ad3d 88c8 923d 236b 943d 466f 3ebc
00000220: a3a5 9fbc 9be4 5fbc c1cf ce3c 61ee a53d
00000230: 741e 323e 7633 593d 7a77 473b f3f3 293d
00000240: 73e9 963c 3a53 8bbc 2cdc 2fbd 15a5 59bc
00000250: 762c 5a3c 5fa5 a63d 55a1 6e3e cec6 8a3d
00000260: fab9 b73c 085f 353d fe36 873d 3553 12bd
00000270: ff47 8fbc ec10 093c ec35 c939 7274 763d
00000280: 6385 893e 7358 973d 68a1 663d a102 7f3d
00000290: c4d4 413d 4906 66bd b01b 20bd ec0d 3e3c
000002a0: 1fa8 cc3b 2063 593d 2191 403e 5f07 843d
000002b0: 1886 f7bb 1183 9b3c 9769 5d3a facc a7bb
000002c0: 8482 b1bb 9dc4 c73c 528d 8fbd 0f35 30bc
000002d0: d839 693e 1ceb ca3d 5731 2cbd e49f 083b
000002e0: c7be afbc ed38 93bb b517 ccbc 0f24 b1bb
000002f0: 2f57 56bd 401d ce39 ecdf 223e 57d9 bc3d
00000300: 955c 863d 2e32 803d ca53 f63c 1ad8 c9bc
00000310: b442 f0bc 41c9 873c 1e40 26bd d9e5 37bd
00000320: f9ad df3d 602f d53c 2e7a 453d 80c9 2d3d
00000330: 2499 583d 643a 0b3d e0bd 1f3d 77bf e23c
00000340: 545a d63c 84c5 523d d32f 013d 761e 4dbc
00000350: 068a 9ebc 28b6 81bb b9e9 43bc d8f7 42bd
00000360: 91df 28bd dde8 9abc c1b7 103d d52b eb3b
00000370: f3c9 3b3d 2749 9dbd 3615 fc3b b573 1f3c
00000380: 74b3 3639 7729 8abd 8e1f 17be d58d bebd
00000390: 40cc 9cbd 8717 90bd e16c 193e 68aa 563d
000003a0: 1213 6e3d 19b0 043d a3b3 023c 8aab b7bc
000003b0: 3e96 70bd e242 10bd 5008 c2bc 9e58 01bc
000003c0: 76e3 cb3c f27f 613d 874c 403d 3d9b 3d3c
000003d0: 6c7e c4bc 74b9 74bd 8fea 82bd ecd9 4fbd
000003e0: d8c0 90bd 0346 0bbd 7370 0fbc bd0f 513c
000003f0: 336a 563d bf99 233b c5dd 00bd eee3 95bd

fc1.bias f4 [10]
0.07382963 -0.04665494 -0.02297159 0.11134954 0.0002415123 0.021346657 -0.099200614 -0.045417428
-0.008439583 -0.014085891
00000000: fd33 973d 4019 3fbd ea2e bcbc 3a0b e43d
00000010: 773e 7d39 2fdf ae3c b129 cbbd a007 3abd
00000020: 2d46 0abc 82c8 66bc
