saved_models/model_v0/model/model.pth (torch, 438475 bytes, 26 tensors)

cnn_layer_1.0.weight f4 [32, 3, 3, 3]
00000000: 57b1 0eb9 211a 67b6 f352 35b9 e9da c3b7
00000010: 2749 5ab8 edce cb38 4f33 e1b7 4edb 3bb9
00000020: 4d71 ce39 1f39 a3b6 0004 77b7 250d deb8
00000030: f372 21b8 1344 43b7 44ec 5138 1197 61b7
00000040: d186 dcb6 5177 ffb8 89f8 d337 0c44 26b8
00000050: d444 c637 4c90 5635 df82 05b7 7f7f fd37
00000060: 9865 9ab6 6e42 2bb6 628b c837 a8b2 36bd
00000070: 28f2 93bc 8552 3e3d f2a6 22bd 5c4b a2bb
00000080: 8746 343d 5100 14bd 9320 373d b740 ec3c
00000090: 4354 7dbd b03e d9bb f6b9 343d 4d39 56bd
000000a0: 4c8c 273c f0d3 e53c 9f43 82bd 82a6 063c
000000b0: bebb a23c 983d d7bc 7e29 a3bc 72ba a63c
000000c0: c86a 34bd 38a0 a9ba a35d d03c c3bd 48bd
000000d0: cbca 8a3c 2bbe 2f3d 299f 0eba 3447 dcba
000000e0: ef16 053a cd31 16ba 651d 87bb b963 503a
000000f0: b6f3 403b 90dc 833a bca1 883a 44a0 513a
00000100: ffea 933a 4b5f 95b9 1eed ef3a 4299 88bb
00000110: 439e 1a3b 1688 cb3a f31b 9bbb 2c6a 6b3a
00000120: 7e7b 93ba 5a42 a33a c540 bcba fa36 68ba
00000130: 1c6e 2e3b 9e33 b7b8 6e6e 8339 8512 0039
00000140: 2d07 a83a 7755 b03c 7d18 a13c b538 c73d
00000150: 45c1 3d3d c023 0b3e 41ca 2c3d 78df 473d
00000160: 2365 9d3d 409f 31bc 14f9 cf3c 9364 e43d
00000170: c17a 743d 2f31 99bd f4d3 b53d d8c4 503c
00000180: 9d2d 953d 125f 2c3a 1b22 0e3d 1c95 9abd
00000190: 7451 bfbd 6d81 d5bd fefa 27bd 9c5d e8bb
000001a0: 06d8 5cbd 0d66 8b3d 18b9 0e3c 7639 07be
000001b0: 3908 5abd 070d e33c 28d6 a43c 34a1 8cbd
000001c0: 0617 de3c 2dd9 bdbc 2db2 9bbc db8e e03a
000001d0: 6074 aabc 7d91 38bd 7af4 45bc 98e9 223c
000001e0: 1811 c5bc b44a 9ebc b1fd c8bc bbce b13a
000001f0: 819d ddbc b2c9 9b3b 4795 74bc a39b 983c
00000200: af75 60bd d359 98bb cea5 1abc 233e 44bd
00000210: bab6 81bc 144a aabc 5089 ddbc d205 f9bd
00000220: 5463 dcbc 549f 99bd 24a9 ef3d b0df 5dbd
00000230: 12f4 cfbd 84bc 2b3e d92c e53d e40c 503b
00000240: 6a7c 97bc b274 8f3b ddbe 763d a113 a43d
00000250: c2e5 093e 8b83 6d3d ab91 8bbd ffb9 2fbd
00000260: a52e dbbd 7167 9dbd 2d3b f63d fd95 f6bb
00000270: fccf 18bd b681 f93d d21b a13d 6dc7 01be
00000280: 61e1 9ebd 6e79 dfbd 3ea5 0cbd 4680 103d
00000290: 299d 1cbd 6d92 dfbc 2229 eb3c 43e0 0fbd
000002a0: 9a4f 8dbb 3e2c cc3b 6447 6bbb 6f11 663b
000002b0: 6fb6 383c edd3 5dbd 5eaf 093d ae37 b03b
000002c0: e045 3abc 0d65 873c e275 52bc 06ea 7bba
000002d0: e9ae 763d 648f 853d a7c7 9dbc fdda 303d
000002e0: 56d5 bc3a 1ec6 39bd 7aa1 5ebc 500e d5bb
000002f0: bd26 b6bc a39a 7a3d b719 243d 77d3 fcbc
00000300: e9f6 8cbd 88c8 043b 4241 a5bd b2ac 403b
00000310: 6231 8dbc 78da 40bd c089 e13c 9417 2a3e
00000320: 9ecf 043e 7ba5 9f3c 041b 22bd 5231 ed3c
00000330: 71b0 d83a bcd2 48bd e8f1 6dba 6c59 8abd
00000340: c5a1 5d3d 2ccd 5fbd 2bb0 8abd e5e1 3dbd
00000350: 6ca9 bfbd ed98 33bd d6a5 77bd bd99 97bd
00000360: 0658 8c3a 71af 8db8 91f4 2bb6 2a9e cdb8
00000370: 4354 83b5 9f31 4db2 90e4 cdb8 fe7f 5e34
00000380: b349 d733 fc5e ba3a f3a2 d0b8 175a d934
00000390: c903 d839 9a4c 75b4 2030 18b1 b2a7 c038
000003a0: b903 58b5 83dc 56b2 c3ea 173b 33dc d736
000003b0: 0a30 82b3 9e9f 1cba 3f8d 05b5 3700 092f
000003c0: 420c 34b8 2a8a d733 0d21 37b1 9b64 353d
000003d0: c61a debc 5ce6 86ba edc6 c93d 3c0c 793d
000003e0: 0a34 c6bd 4665 7e3c 0e04 62bc 1526 88bd
000003f0: 0890 c1bd db94 533d e2be a03d 8aab 553d
-0.0001360824 -3.4436891e-06 -0.00017292406 -2.334775e-05 -5.204338e-05 9.718337e-05 -2.6845983e-05 -0.00017915407
0.00039375797 -4.8644283e-06 -1.4723279e-05 -0.00010588233 -3.8492446e-05 -1.16387555e-05 5.0049523e-05 -1.3446218e-05
-6.5722056e-06 -0.00012181572 2.5268893e-05 -3.9640858e-05 2.363549e-05 7.993119e-07 -7.957889e-06 3.021932e-05
-4.6013847e-06 -2.5519653e-06 2.3906763e-05 -0.044603974 -0.018059805 0.046465416 -0.039709993 -0.004952831
0.044012573 -0.036133114 0.0447088 0.028839452 -0.061847936 -0.0066297874 0.04412266 -0.05230074
0.0102263205 0.028055161 -0.06360554 0.0082184095 0.019864913 -0.026274487 -0.019917246 0.020352576
-0.044047147 -0.0012941426 0.025435274 -0.049009096 0.016942402 0.042905968 -0.0005440587 -0.0016805888
0.0005076965 -0.0005729467 -0.004123377 0.000794943 0.0029442138 0.001006024 0.0010424177 0.0007996599
0.0011285244 -0.00028490493 0.0018304919 -0.0041686604 0.0023592866 0.0015528228 -0.0047335564 0.00089803594
-0.0011252014 0.0012455687 -0.0014362565 -0.000885829 0.0026615923 -8.7357344e-05 0.00025068544 0.0001221393
0.0012819521 0.021525128 0.019664997 0.09727613 0.046326894 0.13587856 0.04218507 0.0487971
0.07685306 -0.010841191 0.025387324 0.111519955 0.05968738 -0.07480084 0.088783175 0.012742244
0.07284091 0.0006575446 0.034700494 -0.075479716 -0.09341708 -0.10425077 -0.04101085 -0.007091237
-0.053916954 0.06806574 0.008711122 -0.13205513 -0.053230498 0.027716173 0.020121649 -0.068666846
0.027110588 -0.023174847 -0.01900586 0.0017132418 -0.020807445 -0.045060623 -0.012082214 0.009943388
-0.024056002 -0.01932273 -0.024535032 0.0013565639 -0.027052643 0.0047542686 -0.014928169 0.0186289
-0.05479973 -0.0046493798 -0.009438945 -0.04791082 -0.015834201 -0.020787276 -0.027043015 -0.12159313
-0.026902832 -0.075010926 0.11702183 -0.054168403 -0.101539746 0.16771132 0.11190195 0.0031745965
-0.018491942 0.004377925 0.060240615 0.080115564 0.13466552 0.057986777 -0.06814893 -0.04290199
-0.10702256 -0.076857455 0.12023006 -0.007525204 -0.037307724 0.121829435 0.078666344 -0.12673731
-0.07757831 -0.10911833 -0.034337275 0.03527858 -0.038235817 -0.027291501 0.028706137 -0.035125982
-0.0043124678 0.00623086 -0.0035900706 0.0035105606 0.011273964 -0.054157186 0.03361451 0.0053777313
-0.011369199 0.016527677 -0.012845488 -0.00096097623 0.0602254 0.0652149 -0.01926024 0.043177593
0.0014406841 -0.045354955 -0.013588304 -0.0065019503 -0.022235269 0.06118263 0.040063586 -0.030862553
-0.06883032 0.0020261128 -0.080690876 0.002939981 -0.017235462 -0.047083348 0.027531505 0.16610557
0.12969825 0.019488087 -0.039576545 0.028954182 0.0016532076 -0.049029097 -0.00090768794 -0.06755337
0.054109354 -0.054639027 -0.067718826 -0.046358008 -0.093584865 -0.043847013 -0.060460888 -0.0740237
0.0010707385 -6.7560824e-05 -2.5623342e-06 -9.804622e-05 -9.784784e-07 -1.1943853e-08 -9.817735e-05 2.0721924e-07
1.00251235e-07 0.0014218981 -9.9485645e-05 4.048495e-07 0.0004120155 -2.284527e-07 -2.2146267e-09 9.186509e-05
-8.047169e-07 -1.2506578e-08 0.00231807 6.433134e-06 -6.062335e-08 -0.00059747125 -4.97519e-07 1.2460154e-10
-4.292676e-05 1.00368496e-07 -2.6648792e-09 0.044285398 -0.027112376 -0.0010292041 0.09852395 0.060802683
-0.096778944 0.015527075 -0.013794912 -0.066478886 -0.094513 0.05165563 0.07848908 0.052165546

cnn_layer_1.0.bias f4 [32]
00000000: 84e8 c7ba 0f63 743d 5b74 1fbc 8d16 70bb
00000010: 915c cebb c941 0b3d 3973 473a 8918 5fb9
00000020: ecb2 d0bb 0162 a63c af84 4b3d 0484 99bc
00000030: 5736 513d 5882 4c3c 1943 553d 399b 3b3d
00000040: 882f b8b6 7c04 253c ec70 6eb9 8fcf 83b3
00000050: f524 1a3c 6dcd 633d f9e3 e0bc c363 313d
00000060: 0f65 a53d 65f9 913d 9491 9a3d 37ec 323c
00000070: b5e9 b2bc 9d76 303c 9259 853a 128c 2b3b
-0.001525179 0.059664782 -0.009732331 -0.0036634535 -0.006297656 0.033998284 0.0007608417 -0.00021276077
-0.0063689854 0.020310404 0.049687084 -0.018739708 0.051077213 0.012482248 0.052065942 0.04580233
-5.4891607e-06 0.01007187 -0.00022739515 -6.1379176e-08 0.009408225 0.05561583 -0.027452456 0.04330803
0.08075916 0.07127646 0.07547298 0.010920576 -0.021839956 0.010770467 0.0010173789 0.0026176018

cnn_layer_1.2.weight f4 [32]
00000000: b0d4 7f39 c1a7 be3d cb0f 81a9 2352 243e
00000010: 0947 a53d dfc0 2e3e 0352 3e3d 2158 e53d
00000020: b449 22af f986 983d 48ab 6a3e c8a2 3a3c
00000030: a1e4 f73d 1138 1f3e fb43 ec3e 2d9c 883e
00000040: 318d 3724 ad5a 3a3d 34d5 1b3d 0927 bc14
00000050: d1ac 543e 16b8 d13e 8c02 4c39 0c97 653e
00000060: b0e9 093e 51bd d83e db02 8c3e a8a6 0438
00000070: 6e46 b437 484e 6a3d 5c0a d03a c499 813e
0.00024397927 0.0930934 -5.7314905e-14 0.16046958 0.080701895 0.17065762 0.04646493 0.1119845
-1.4759999e-10 0.07447619 0.22916901 0.011391349 0.121041544 0.15548731 0.46145615 0.26681653
3.9801393e-17 0.04549663 0.038045123 1.8998545e-26 0.20769049 0.4096076 0.00019455905 0.22420901
0.13468051 0.42331937 0.2734593 3.1626463e-05 2.1490468e-05 0.05720356 0.0015872228 0.25312626

cnn_layer_1.2.bias f4 [32]
00000000: f43f 243c c27d 973c 178d 86ba 2e3f 1e3d
00000010: 5bfe c43b acc9 273d 0af1 283c 28bc e33c
00000020: 2a2e 55ba a94b 133b b5f3 b03d 5c67 b0b8
00000030: 7dea e23c 46c3 613d c591 663d d37b 8d3d
00000040: 1538 e7bb 5de2 183c 20d9 bbb9 20eb 06b9
00000050: 1d93 a03d 4d58 873d 23fb e0ba 6691 fb3c
00000060: 1715 c63c 27a7 103d 4cc3 433d 8f98 da37
00000070: f0e9 943c 5b7a 663c 64de bb3a cf0a 453d
0.010025013 0.018492583 -0.0010265437 0.03863447 0.006011767 0.040963814 0.010311374 0.02779968
-0.0008132184 0.0022475517 0.086402334 -8.411586e-05 0.027699703 0.055117868 0.05629136 0.06908383
-0.007056246 0.009331313 -0.0003582919 -0.00012866827 0.0784056 0.06608639 -0.0017164688 0.03070898
0.024179978 0.03531566 0.04779367 2.6058666e-05 0.018177956 0.014067258 0.0014333245 0.04810601

cnn_layer_1.2.running_mean f4 [32]
00000000: 0400 0000 5e5a 973c 0400 0000 0b3a 423e
00000010: 8d6d 8537 119f 703d 273b ba3b 235f 163b
00000020: 7701 0000 d87a 113b 4d82 b13d 0400 0000
00000030: bb84 f13c cc45 9f3d 27b6 903d f55a 723d
00000040: 0400 0000 c692 fb3b aa28 4d00 0400 0000
00000050: 6823 5d3c e010 573d 0400 0000 6409 d33c
00000060: d26c f83d 4946 ab3d a9cb bd3d f33f 343c
00000070: 0400 0000 5629 e63a bfbf 0a36 de59 d63d
6e-45 0.018475708 6e-45 0.18967454 1.5905849e-05 0.058745448 0.005683321 0.002294489
5.25e-43 0.0022198465 0.08667431 6e-45 0.029482236 0.077769846 0.07065993 0.059168775
6e-45 0.007677409 7.085921e-39 6e-45 0.013497211 0.052506328 6e-45 0.025761314
0.12130131 0.08363015 0.09267361 0.011001575 6e-45 0.0017559926 2.0675213e-06 0.104663596

cnn_layer_1.2.running_var f4 [32]
00000000: 0400 0000 b58b df3a 0400 0000 3253 363c
00000010: 3426 1335 f30e 163b 9fc0 df39 91ac 0c39
00000020: 0400 0000 a6dd d638 d8b9 0e3c 0400 0000
00000030: 02ed 133b 131a 513b c84c e23a 9424 363b
00000040: 0400 0000 174d c639 1a5e 0000 0400 0000
00000050: efec b73a 3678 dd3a 0400 0000 94b9 083b
00000060: ed36 d33b 9c61 b63a cc8f 613b ec8a a531
00000070: 0400 0000 1679 a638 104f c530 dd1a f13b
6e-45 0.0017055186 6e-45 0.011128234 5.481736e-07 0.0022897094 0.00042677388 0.00013415726
6e-45 0.000102456004 0.008711301 6e-45 0.0022571688 0.003190641 0.0017265314 0.0027792798
6e-45 0.0003782294 3.3757e-41 6e-45 0.0014032404 0.0016896788 6e-45 0.0020862566
0.0064457566 0.0013914588 0.0034417985 4.8179256e-09 6e-45 7.938051e-05 1.4356107e-09 0.0073579387

cnn_layer_1.3.weight f4 [32, 32, 3, 3]
00000000: 5b10 1139 60a3 1239 269a 0b39 3a75 44b8
00000010: bd10 78b7 8df3 2cb7 b1ac 0ab9 565c 54b8
00000020: cc50 2bb8 6ddf 83ba 5584 62ba cbe9 223b
00000030: 5bfe 9d38 cb14 123a 4f90 8c3b 79bc 9238
00000040: adde 2738 2019 7a3b a64c 7338 ade1 7238
00000050: d200 6c38 8524 8838 8d24 8538 c715 8738
00000060: 0e2d 9338 8be4 9738 8401 9938 57e7 8b3b
00000070: 8847 903b a303 6d3b 8f59 cc3b a5d9 e13b
00000080: 154d d53b b3a8 f03b 0717 fd3b 2e61 db3b
00000090: f003 8aba 13bf cfb9 7b3a 66ba 1afb 8dba
000000a0: 6a9a 04b9 cd2e 03ba ec3f 88ba 7850 b3b9
000000b0: 40ed 95b9 bace 793b 1e10 653b 9b11 973b
000000c0: a97c 3f3b 6b06 053b 487e aab9 750d a4bb
000000d0: 9761 afbb 96c8 02bc 2914 c9b9 7593 b5b9
000000e0: 6fbd 8db7 886e 17ba 064c 09ba f33b 15ba
000000f0: e2b5 2cba c738 c7b9 5734 59ba ef16 81bb
00000100: 45a1 17bb c69a 7939 a2f9 f8b8 b180 c7b9
00000110: 6b7c 51b9 539d 4dba a97e aaba bcd3 02bb
00000120: eb4b ea38 de12 2538 2e65 4f38 39b7 1b39
00000130: 5756 6838 926b 9f38 5b3f d638 a8d1 3738
00000140: c9de 4038 976b 06b8 15c3 a8b8 bc9e 2fba
00000150: d99c f639 ad52 093a 636e ec39 e18f 0038
00000160: c8d2 19ba 2087 6bb9 c039 04bc 402f 11bc
00000170: 879d e5bb fdaa 81bb e965 aebb 5b20 cdbb
00000180: f7c0 f7bb 9146 16bc 33cc 0dbc e604 0a38
00000190: 2ad9 edb5 826f 9336 eccf df37 5206 99b6
000001a0: 8eef ccb4 0687 d137 6a42 8cb6 e43e e8b5
000001b0: ff01 a6bb dfa8 a0bb 01c1 dbbb 0871 10bb
000001c0: 42e7 18bb 816a a0bb dc36 ccba 77bf 67bb
000001d0: 5c3e 42bb 168a cbbb 22aa 0ebc ac7c fcbb
000001e0: bc5d 95bb 9ee6 d7bb e0e8 a6bb 2552 2dbb
000001f0: 39d0 8abb 99ea 4dbb 7bc8 263a a158 063b
00000200: 1f3d 9abb 5fc1 7d3c be05 173c d3fc 063c
00000210: e797 da3b 2621 423c d9ba 663c abef 9ebb
00000220: 9e1a 7eba 8c49 bcbb 21e4 0fbb 7d51 0d3b
00000230: 8d8b ca3a 08bb bfbb 8c65 79bb b49f bab9
00000240: 4805 8a3a 6414 a638 f76f 3e3a 45ab c43a
00000250: bbf7 2f39 bef8 663a 7e41 ca3a fe9f 5a39
00000260: 66c4 673a 2a8f 5fba e8b1 9fba 08ed e2ba
00000270: 63fa 49ba 9e13 06bb 8d16 b3ba dbd4 8eba
00000280: 8fd1 02bb e3a9 60ba c5b9 4438 fc11 4138
00000290: ff77 4038 7785 1238 6ce5 0e38 ff33 1038
000002a0: 567a 1338 b223 1038 a953 1238 d9b4 b737
000002b0: d309 b837 f7e4 b337 4ebf bb37 f1e0 bc37
000002c0: 0312 d837 db61 e637 105f f437 33a0 ed37
000002d0: 8216 39bc 3a3e 18bc 3e2c a5bb 9d9a a23c
000002e0: 0f91 a83c f4c4 ad3c 6664 173c e923 043c
000002f0: b3d2 453c 51c7 48bc c415 1cbc 9ef7 05bc
00000300: 3861 893a eebb f13b 733e e33b b689 89bb
00000310: 77cc 1d3a 9447 203a e91e 71b7 86e0 68b7
00000320: 68c7 56b7 3b65 9636 b457 6f36 7421 7e36
00000330: 770b ea36 3edd b136 787c b836 7cff 15bc
00000340: 290a 14bc 0c4d 36bc 8445 55bb 4740 f9bb
00000350: 47cf f2bb dcf9 05bc e613 14bc 2b17 e7bb
00000360: 4fbd fb3a 9a00 383a 095c 4c3a 5890 103b
00000370: 4642 893b 0bd0 533b d72f 52ba 8143 113b
00000380: 5c01 ed3a c293 b4bb 559a a03b 5246 64ba
00000390: e978 d63b 0d8b a83a 2fb2 d2bb 9382 0cbc
000003a0: f73e ddbb ae26 1dbb 63c8 f23b 0115 9d3b
000003b0: 1965 993b 7764 ab3b ef7d f73b 0671 193c
000003c0: 61fd 7b3b 9997 a03b 2af4 f93b 214a 7736
000003d0: 96f9 7736 f71a 7b36 30ac 4036 4fb5 4236
000003e0: f18f 4836 3a16 3436 71fe 3736 fa5f 4036
000003f0: 9dbe 25b9 5e41 75b9 51a9 94b9 b719 8ab9
0.0001383437 0.00013984507 0.00013313498 -4.6839217e-05 -1.4785849e-05 -1.0308705e-05 -0.00013225038 -5.0630733e-05
-4.0844825e-05 -0.0010061093 -0.0008640935 0.002485859 7.533721e-05 0.00055725564 0.004289664 6.996928e-05
4.0023286e-05 0.0038161948 5.80071e-05 5.7907473e-05 5.626755e-05 6.491788e-05 6.348742e-05 6.441358e-05
7.017898e-05 7.2428105e-05 7.295891e-05 0.004269521 0.0044030584 0.0036165498 0.006236262 0.0068924003
0.006509433 0.0073443293 0.0077236923 0.0066949343 -0.0010529738 -0.00039624478 -0.0008782518 -0.001083228
-0.00012646025 -0.0005004227 -0.0010395027 -0.00034201494 -0.0002859626 0.0038117603 0.0034952234 0.004610253
0.002921859 0.0020298015 -0.00032519014 -0.005006487 -0.00535221 -0.007982394 -0.00038352728 -0.00034632874
-1.6896722e-05 -0.00057766633 -0.00052374636 -0.0005692832 -0.0006588382 -0.0003799854 -0.00082856923 -0.0039395015
-0.0023136896 0.00023804148 -0.00011872059 -0.0003805212 -0.00019978143 -0.00078435725 -0.0013007718 -0.001996263
0.0001117213 3.9356637e-05 4.9446877e-05 0.00014850208 5.539352e-05 7.601747e-05 0.00010216116 4.3825858e-05
4.5983852e-05 -3.204829e-05 -8.047201e-05 -0.00066993735 0.00047037637 0.0005238455 0.00045095672 3.0651576e-05
-0.00058678957 -0.00022461684 -0.008070409 -0.008861363 -0.007007304 -0.003957151 -0.005322207 -0.0062599606
-0.007560845 -0.009172098 -0.008654642 3.2906326e-05 -1.7721079e-06 4.3939226e-06 2.6680493e-05 -4.560491e-06
-3.817226e-07 2.4977617e-05 -4.1800567e-06 -1.730365e-06 -0.005066156 -0.0049029435 -0.0067063575 -0.0022040028
-0.00233312 -0.0048955088 -0.0015580314 -0.0035361925 -0.002963922 -0.0062115295 -0.008707555 -0.0077052917
-0.004558293 -0.006588771 -0.005093679 -0.0026446667 -0.004236248 -0.0031420349 0.00063622714 0.0020499604
-0.0047069932 0.015487998 0.009217678 0.008238989 0.00667094 0.0118487235 0.014082634 -0.004850348
-0.00096932973 -0.005746072 -0.0021956044 0.0021563463 0.0015452966 -0.0058511533 -0.0038054911 -0.00035595673
0.0010530138 7.919295e-05 0.0007264609 0.0015004656 0.00016781587 0.0008810869 0.0015430895 0.00020849702
0.00088412163 -0.0008528108 -0.0012183757 -0.0017313072 -0.0007704852 -0.002045847 -0.0013663337 -0.0010897176
-0.0019961332 -0.0008570237 4.6903053e-05 4.6031535e-05 4.5888122e-05 3.493341e-05 3.4069104e-05 3.43807e-05
3.5161465e-05 3.436552e-05 3.4887027e-05 2.1899514e-05 2.1939084e-05 2.1445083e-05 2.238122e-05 2.2516093e-05
2.5757594e-05 2.7463704e-05 2.9131334e-05 2.83272e-05 -0.01129687 -0.00929218 -0.0050406745 0.019849116
0.020576982 0.021212079 0.009240245 0.008065202 0.01207416 -0.012254552 -0.009526674 -0.008176712
0.0010481244 0.0073771393 0.0069349348 -0.0041973246 0.00060195423 0.00061141816 -1.4371916e-05 -1.38805535e-05
-1.2801822e-05 4.482133e-06 3.5664825e-06 3.7868422e-06 6.975078e-06 5.300767e-06 5.4981174e-06 -0.0091551505
-0.0090356255 -0.011126768 -0.0032542655 -0.0076065394 -0.0074099633 -0.008177247 -0.009037947 -0.0070523224
0.0019206199 0.00070191326 0.0007795697 0.0022058692 0.0041888086 0.0032320048 -0.0008017993 0.002216548
0.001808207 -0.005510778 0.0049012103 -0.00087079883 0.0065451753 0.0012858823 -0.0064299325 -0.008576053
-0.0067518908 -0.0023979354 0.007409142 0.0047937636 0.0046812412 0.005230482 0.0075528543 0.009365326
0.0038450586 0.0049008843 0.0076279836 3.6849017e-06 3.6951146e-06 3.741761e-06 2.8710456e-06 2.9013788e-06
2.9886107e-06 2.6835028e-06 2.741723e-06 2.8666095e-06 -0.00015806635 -0.00023389372 -0.0002835491 -0.0002634057

cnn_layer_1.3.bias f4 [32]
00000000: 2bd2 64bd 83f4 1ebd f04e 68bd 987e 18bc
00000010: 1181 24bd dcd6 1bbd 54bb 8dbd 9b6b ad3b
00000020: 7ae7 b0bd 7ec5 9cbd e8d7 b1bd cf06 debd
00000030: 1a0e 52bd 90b6 cabb d576 98bc b2c9 dfbd
00000040: 0b28 39bd 9397 cebd 3ae3 61bc 4424 9dbd
00000050: 5fcc 58bd 8771 94bd 583f 80bd 05b4 d7bd
00000060: 871e 86bd bf45 46bd f92b c4bd f2d3 2cbd
00000070: 328d 6bbd 75da e9bd 932a 9ebd c104 ccbc
-0.055864494 -0.038807403 -0.056715906 -0.009307526 -0.04016215 -0.038046703 -0.06920496 0.0052923686
-0.08637901 -0.07654856 -0.08683759 -0.108411424 -0.05128298 -0.006186314 -0.018611351 -0.10927142
-0.045204204 -0.10087504 -0.013787085 -0.07672933 -0.05292928 -0.07248216 -0.06262082 -0.10532383
-0.065487914 -0.04840636 -0.095786996 -0.042194314 -0.0575077 -0.114186205 -0.07722964 -0.02490461

cnn_layer_1.5.weight f4 [32]
00000000: 0b58 a13c 6ace ab3e b328 833e 2361 9e3b
00000010: c93b 953d 73a4 743e ffaa 9a3e 97a1 863e
00000020: 0a88 333e a2a1 fe3d a3f9 023e 9ff6 573e
00000030: e45c 7d3e 87a5 753e 8961 903e d4a6 333e
00000040: e4ee 883e 2723 053e b90a da3d deb2 9c3e
00000050: 67de 8b3e d5d6 d63e 6ff6 de3c f7ea e03d
00000060: be02 7c3e 1a27 b73e ea6e 263e 950a 353e
00000070: e1e8 703e 25e8 983e 6f21 653d 18ce f53e
0.019695302 0.3355592 0.2561699 0.004833357 0.07286794 0.23890857 0.30208585 0.26295158
0.17532364 0.12433173 0.12790541 0.21090172 0.24742466 0.23988925 0.28199413 0.17544109
0.2674476 0.13001691 0.106465764 0.30605215 0.27318117 0.4196078 0.027217118 0.10982316
0.24610421 0.3577202 0.16253248 0.17679818 0.23526336 0.29864612 0.055940088 0.480088

cnn_layer_1.5.bias f4 [32]
00000000: 2062 adbb 80c6 e83c 8109 75bb e5ef 8e3a
00000010: effd 44bc df78 1a3c 3763 4dbb 2a49 603c
00000020: f845 7ebb 1009 b5bc 525f 873c 47e7 2f3d
00000030: 97e2 d9bc 66e9 a8bc fac4 0abd bba3 7fbc
00000040: f393 c6bc 3078 013d ca6e 843d 0983 d13b
00000050: e8df 2fbd 7b76 d4bc e6f6 8b3c 104d cd3b
00000060: ebeb c93c 2361 803c c376 5bbc a733 2f3c
00000070: 378c 0bbd eb9a d3bc 0b13 bb3b a8aa 1b3d
-0.0052912384 0.028414965 -0.0037389698 0.0010905234 -0.012023433 0.009428232 -0.0031339654 0.013689319
-0.003879903 -0.022099048 0.016524944 0.042945173 -0.026597304 -0.020619106 -0.033879258 -0.015603001
-0.02424047 0.03160876 0.06466444 0.0063937944 -0.042938143 -0.025935402 0.017085504 0.00626529
0.024648627 0.015671318 -0.013395014 0.010693467 -0.034069266 -0.025830707 0.005709057 0.038004547

cnn_layer_1.5.running_mean f4 [32]
00000000: 86d5 d13a 2e51 693d ba7e ee3c d003 293b
00000010: 0e9d 763c 4e9c f53c ab9b 8c3d 4b99 973d
00000020: a1be 473c 6234 863c f6e1 253c b32e 6e3c
00000030: a6ae f53c dc01 d03c 389d 313d e59f 683c
00000040: 2add 1f3d 5bdd 373d 79c8 8d3c d09a 3a3d
00000050: 284c fc3c 878b 253d a230 4b3c a6d8 2a3c
00000060: 5baa 493d af3c 873d 218f 323c ffb3 1f3d
00000070: 122e 213d 481c 023d 701f 0d3c f87c 883d
0.001600907 0.056962185 0.029113162 0.0025789626 0.015052093 0.029981758 0.06865629 0.07402285
0.012191446 0.0163824 0.010124674 0.014537501 0.029990505 0.025391512 0.043362826 0.014198278
0.039029278 0.044888835 0.017307507 0.045557797 0.030798033 0.040416267 0.012401732 0.01042763
0.04923473 0.06603371 0.010898382 0.038990017 0.039350577 0.031765252 0.008613452 0.06664461

cnn_layer_1.5.running_var f4 [32]
00000000: 5be9 9e38 9cb3 8e3c 537c f33b f42b 2d38
00000010: 4ac3 d03a 87d6 d13b 3c32 bc3c dcb9 6c3c
00000020: fac3 123b 9906 443b 955b e23a e0f2 6b3b
00000030: 4f51 fd3b 5c4d 873b 7a1b 413c 34fd 373b
00000040: 5d47 313c ea61 cc3b d611 213b f780 403c
00000050: a81d 053c ca6b 733c 6009 493a 92ee a83a
00000060: 033f 533c 69a5 b53c d74b 093b cb2b c43b
00000070: a11e 1c3c ef65 1f3c 15f9 423a 75f9 f93c
7.577493e-05 0.017419629 0.007430592 4.128735e-05 0.0015927341 0.0064037475 0.022973172 0.014448609
0.0022394643 0.002991116 0.0017269725 0.003600292 0.00773064 0.004129095 0.011786336 0.0028074505
0.010820237 0.006237258 0.0024577281 0.011749498 0.008124746 0.014857242 0.00076689385 0.0012888482
0.012893441 0.0221736 0.0020949745 0.005986666 0.009528787 0.009728893 0.0007437629 0.030514458

cnn_layer_2.0.weight f4 [64, 32, 3, 3]
00000000: a624 d23b 756e 833b fa30 723a 27f2 043c
00000010: 9520 893b 7217 773a 38ce 6f3c 3117 ec3b
00000020: 7bb0 d33a bd1f 4dbd bf2e e3bb cd93 013d
00000030: 4b86 6ebd 7ffe d63b b87b 193d c122 acbd
00000040: 5a48 29bc bee4 b23c 77ff 08bd 9b85 933b
00000050: 9c27 c33c b069 afbc c688 17bc 05dd cc3c
00000060: 5675 6fbc ad36 cd3c 59fb 9a3b e308 83ba
00000070: 135a cbba 4263 9eb9 37f2 47ba 1687 a9b9
00000080: 972b afb6 0825 f3ba 041c 62ba 4540 593a
00000090: a46e 7bbb ea55 24bc 7760 12bc e06b 4c3a
000000a0: 841b 43bc 9925 66bc e2ff 17bb 996c 27bc
000000b0: 768b 04bc 0451 863b c680 87bc c9cd e8bb
000000c0: f6e4 1f3c eeaf 04bd 7c11 b8bc ff0c 283d
000000d0: 64b9 3abc 5020 adbc eb33 0abb d57e f4bb
000000e0: ee34 373b 99f6 81ba 8924 eb3a fe3a 163d
000000f0: dade 05b9 e1b1 c6bb 156d 833d 71ad 52bd
00000100: 6432 10bd c331 883c 5603 e6bc b0e6 0939
00000110: 0a97 183d 8cde 223c 21f6 ff3c 2349 3a3d
00000120: 1ba7 febb 8e36 cfba 4531 06bc f9ae 97bc
00000130: 17da b4bb 320d d03c 77cd f0bc 78cf 07bd
00000140: eb2b 813d 1ad3 1abc 88f9 9bbc f9b4 e13b
00000150: b4b6 7dbc 140e ddbc 64a4 e53c fe11 69bc
00000160: 3242 12bb 4f02 2c3d a988 ba39 efc7 6cbc
00000170: f23d b73b 1620 73bb 4933 c1bc 9366 7fbb
00000180: 79d0 143d 0711 013c 019f 07bb 6b89 483b
00000190: a871 153c a2c2 3dba 5575 443b 63aa 6cbb
000001a0: 7641 bc3c ed4f 4d3c 9440 863b b258 643d
000001b0: 0ca2 54bd 5c91 a8bc 49d0 e63c 6048 1dbd
000001c0: 7744 54ba 1f3c 45bb d6e1 2f3d d744 313c
000001d0: d36a cbbc a587 28bd 4ba3 5fbd 503a 40bd
000001e0: 8e79 b7bc caaf 1abd 2153 073c a048 05bd
000001f0: 45c4 d3bc 29ba 49bc 1a8d 763c 4bb3 f0bc
00000200: 0344 393b 381d 593c 9e34 11bc 0845 e43b
00000210: 6e49 b33d b662 bf3c d56c f5bc 7199 d4bc
00000220: 336a 64bb 2ea4 de3c 3a57 69bc 6275 873c
00000230: 1fac c63c 3075 89bc 2459 063d 4e13 a6bc
00000240: 6f2c 6fbd b3c0 1ebc 47da fd3c 65e6 13bd
00000250: 6a9d d33c bc3b 423d 9290 b9bc f35b b73c
00000260: f514 14bc ac02 43bc a294 86bc be79 8bbc
00000270: 255f ae39 ddce 21bc d43b 42bc 986e b63a
00000280: 953a 7cbb c07b 3e3b 3872 c0bb 7dc7 0abc
00000290: 2f89 56bc 15ec 233c e92a bfbb 82cd 44bc
000002a0: 517d 3ab9 0875 27bc 932a 2cbb bb6a 42ba
000002b0: 7d94 4bbd ae67 71bd 9763 df3c 8406 8ebc
000002c0: 6a5e 2cbd 0d54 c13d 83c5 083d 4e21 1bbd
000002d0: aa10 bfbb 0e0d c33c 4961 2c3d b76b 34bc
000002e0: da69 c13c 3c84 9f3d d4a3 d6bc 733c b43c
000002f0: 12c6 953d b15b 3abd 776a 96bd 9c8e 1ebc
00000300: 479c 65bd 85df 70bd 6a88 a2bc a479 dabc
00000310: 1d94 84bd 06a7 b8bc cc54 c6ba fae5 ddbb
00000320: 714e 0abc 7322 133b b841 cebb ee3b eebb
00000330: a82a 1c39 6c1c f4bb d076 93bb 97c9 11bd
00000340: dd1c 78bc a7e5 2f3c 2900 34bc 5f08 a8b9
00000350: da5b d93c 0312 5f3c 5be7 823c 481e 073d
00000360: 72cc 6ebd 7689 4cbd f00d 943d 426d 92bd
00000370: 7ee4 32bd 3d33 b33d bf7c 33bd 3495 44bc
00000380: 45ef b63d 4792 f5bc 39ee 553b c738 be3c
00000390: e31f 9dbc 5b10 133c 8838 f53b 5e5a 08ba
000003a0: 2fb0 3f3b e508 f3bc 1229 8cbb 769d 3d3d
000003b0: 1ae1 1d3d f3e9 3b3c 12d7 f33c a5cd a83c
000003c0: 364e 39bc 2c23 bdba 46ed e63b 2798 03bc
000003d0: 6d1b 18bd 6972 9fbc 1329 bebc 8578 34bd
000003e0: ec99 0fbd 6ac0 83bb 232a d3bc 4f22 21bd
000003f0: f01c acbc 9305 f9bc 2e8b 2d3c 6983 c93c
0.0064130602 0.0040109702 0.00092388655 0.008114374 0.0041847923 0.0009425796 0.014636569 0.007204913
0.0016150618 -0.050079096 -0.006933063 0.031635094 -0.05823354 0.0065611 0.037471503 -0.08405066
-0.010332191 0.021837588 -0.033446755 0.004502011 0.023822598 -0.0214127 -0.009248918 0.025007734
-0.014615377 0.025050486 0.00472967 -0.0009997155 -0.0015514515 -0.0003021006 -0.00076273404 -0.0003233484
-5.220481e-06 -0.0018550465 -0.00086253905 0.000828747 -0.0038365507 -0.010030249 -0.008934132 0.0007798057
-0.011908416 -0.01404705 -0.002319329 -0.010218763 -0.008089891 0.0040990133 -0.016540896 -0.0071046096
0.009759178 -0.032394342 -0.022469275 0.04102802 -0.01139674 -0.021133572 -0.0021088074 -0.0074614086
0.0027955133 -0.0009915411 0.0017939965 0.036677353 -0.00012766887 -0.0060636853 0.0641729 -0.051434938
-0.035204306 0.01662529 -0.028077763 0.00013151276 0.037253417 0.009940755 0.031245293 0.045479905
-0.0077713854 -0.0015809105 -0.008190458 -0.01851605 -0.0055191624 0.025396917 -0.029394848 -0.033156842
0.06307205 -0.009449745 -0.019039884 0.0068880287 -0.015485454 -0.026984252 0.02803249 -0.014225481
-0.0022317288 0.04199439 0.00035578504 -0.014451965 0.0055921013 -0.0037097982 -0.023584025 -0.003897105
0.036331628 0.007877595 -0.002069414 0.0030599486 0.009121336 -0.00072387804 0.0029977162 -0.00361123
0.022980433 0.012531263 0.004097054 0.05574865 -0.051912352 -0.020577125 0.02817549 -0.0383991
-0.000809736 -0.003009565 0.042939983 0.010819635 -0.024831211 -0.041144986 -0.054599088 -0.04693061
-0.022396829 -0.0377653 0.008259566 -0.032539964 -0.025850425 -0.01231245 0.01504829 -0.029382369
0.0028269298 0.013251595 -0.008862643 0.006966237 0.0875424 0.023362499 -0.029959122 -0.025952073
-0.0034853339 0.027177896 -0.014241988 0.016535465 0.024251996 -0.016779512 0.032799855 -0.020272877
-0.058391985 -0.009689498 0.030987872 -0.036108393 0.025831897 0.04742025 -0.022651944 0.022382712
-0.0090382 -0.0119024925 -0.016428296 -0.017025825 0.00033258754 -0.00987598 -0.011855084 0.0013918458
-0.0038487066 0.002906546 -0.005872991 -0.008470413 -0.013094231 0.010005017 -0.0058339727 -0.0120118875
-0.00017785026 -0.0102207735 -0.0026270493 -0.0007416417 -0.049702156 -0.058936767 0.027269168 -0.017337091
-0.042082228 0.094398595 0.033391487 -0.03787356 -0.005830844 0.023809936 0.042084966 -0.011012009
0.023610044 0.077888936 -0.026201166 0.02200148 0.073131695 -0.0454976 -0.07344525 -0.009677555
-0.05605724 -0.058806915 -0.019840438 -0.02666933 -0.06473563 -0.02254058 -0.0015131473 -0.0067718
-0.008441553 0.0022450953 -0.0062944554 -0.007270328 0.0001489321 -0.007449677 -0.0045002475 -0.03559264
-0.0151436 0.010735906 -0.010986366 -0.00032049694 0.026533056 0.013615134 0.01597946 0.032987863
-0.058300443 -0.04993578 0.07229221 -0.071497455 -0.04367494 0.08750007 -0.04382014 -0.011998463
0.08932356 -0.029976977 0.0032643212 0.023220433 -0.019180244 0.008976067 0.0074835457 -0.0005201454
0.00292493 -0.029667327 -0.004277357 0.046292745 0.03854475 0.011469352 0.02976564 0.020605871
-0.011310151 -0.0014430038 0.007047328 -0.008031881 -0.03713553 -0.019463735 -0.023212945 -0.04406025
-0.0350589 -0.0040207403 -0.025776928 -0.03933936 -0.021009892 -0.030398166 0.010592265 0.024598794

cnn_layer_2.0.bias f4 [64]
00000000: e6fd 85bd 6def 80bd 647f c5bb 1581 4cbd
00000010: ffae 39bc 9757 81bd 578d 7abc 57ae 34bc
00000020: caeb 8abd 9a3e 19ba 4342 483c c67a c1bc
00000030: 2f9c 3cbd aa6a 99bd 9cb6 28bd 82ca ccbc
00000040: cb2c a1bd 49ec 40bd f656 50bc ca1b 09bd
00000050: 5286 51bd fb3f 26bd 4c78 ad3d b287 0f3b
00000060: 1618 8a3d 8f89 c13c 5ea4 32bd 0320 c9bc
00000070: 5da2 02bd eab1 fcbc de14 1fbd e3d9 6fbd
00000080: 759b a23d f5fb cf3b 6d0f 8bbc 37f2 77bc
00000090: e64d a1bc d621 cdbc 20be 5ebd 1586 a1bb
000000a0: a4de dc3c 2bfd 8037 f34f 4bbd 2132 1cbd
000000b0: 80c4 50bc 850e a5bc b6e7 c43c 030f 00bd
000000c0: 7f67 893d 52bc 92bd c5dc 373d 2400 a03d
000000d0: 8bcb 0abb 439a fbbc 92d1 a6bb 1409 0d3c
000000e0: ef77 87bd 9bd4 2dbd dae2 8a3c b092 32bd
000000f0: 3fbd d0bc 4a6d 31bd 82e7 c3b7 6a6e 4d3d
-0.06542568 -0.06295667 -0.006027149 -0.04992779 -0.011333226 -0.063155346 -0.015292487 -0.011027894
-0.067832544 -0.0005845815 0.012222829 -0.023618113 -0.046047386 -0.07491048 -0.041189775 -0.024998907
-0.07869872 -0.04710034 -0.012716046 -0.033473767 -0.05115349 -0.04058836 0.084702104 0.002190095
0.06742875 0.023625163 -0.043613784 -0.024551397 -0.031893123 -0.030846555 -0.03883826 -0.058557402
0.07939807 0.0063471743 -0.016975129 -0.015133432 -0.019690465 -0.025040548 -0.054380536 -0.004929314
0.026961632 1.537668e-05 -0.049636792 -0.038133744 -0.012742162 -0.020148525 0.02403627 -0.031264316
0.067091934 -0.071648255 0.044888277 0.07812527 -0.002117845 -0.030713206 -0.0050909007 0.008608121
-0.066146724 -0.042439085 0.016953874 -0.043596923 -0.025480865 -0.043317117 -2.3353616e-05 0.050154127

cnn_layer_2.2.weight f4 [64]
00000000: 2d0c 473e 5f3d dc3d 6c8a 833b 8346 8f3d
00000010: 26cc dd3d 20af cd3d ef52 333e b448 d03d
00000020: 8d47 0c3e cacc 313e 1a3d 393e b952 443d
00000030: 9691 083e 31df b23d 3f72 d83d 08de 4a3e
00000040: 080a 2e3e 9597 cc3d 4dd6 fb3d 40f5 553d
00000050: 2c6f 923d b0a0 263e d21d 5b3e 70e5 2b3e
00000060: e3cc 2b3e f79b 843e 7563 833d 96b5 863d
00000070: 262f 503d bf6f 983c 2355 533e 6a86 c33d
00000080: 4800 9a3e 7e05 593e 8530 533e 4f56 703b
00000090: e68d 073e 462d 243e b715 073e 0ede 093e
000000a0: e485 103e a6b3 8c38 58f0 393e e449 283e
000000b0: 5eaf 2f3d 3462 c43d 2d6e 833e f07d f73d
000000c0: d1ad 313e 1021 7a3e 64b7 363e d9a1 6b3e
000000d0: 5947 2c3a 5484 2e3e bf35 613a ed51 443e
000000e0: e181 e73d 5f44 d93d f72b 183e 6c7b 123e
000000f0: 4985 793e 8574 343e 799f 85b8 5fff 863e
0.19438238 0.10753893 0.004014304 0.06995871 0.10829954 0.10043168 0.17512105 0.10170117
0.1369917 0.17363277 0.18089715 0.047930453 0.13336787 0.08733977 0.10568666 0.1981126
0.16996014 0.099898495 0.12296734 0.05223584 0.071501106 0.16272235 0.21398094 0.16786742
0.16777377 0.25900242 0.06415454 0.065776035 0.050826214 0.018607972 0.20637946 0.09547122
0.3007834 0.21193501 0.20623977 0.0036672538 0.13237724 0.16032895 0.13191877 0.13463613
0.14113575 6.709182e-05 0.1815809 0.16434437 0.042891853 0.09589043 0.25669995 0.120845675
0.17351462 0.24426675 0.17843395 0.23010959 0.0006571911 0.17042667 0.00085910776 0.19171877
0.11304069 0.10608744 0.14860521 0.14304894 0.2436725 0.17622574 -6.371638e-05 0.26366708

cnn_layer_2.2.bias f4 [64]
00000000: 4991 793d 259d 173c 709d 6539 ef8d 793c
00000010: df06 4a3d bc24 083c 4320 243d a68f 933c
00000020: 84a5 f93c b700 df3c 3ba2 783d cfa6 053d
00000030: 2fd9 dc3c aaba 0b3d c2b9 843d 1c22 7f3d
00000040: 9e24 413d 5deb 513d cc2c 1e3d c0ca 403a
00000050: 612f 293c c6e6 c63b ec7c 473d 9a3e 323d
00000060: 5ce9 c73b f2db 7b3d 4688 d73c fb58 f43c
00000070: 111f ff3c 69e4 c83b 4548 593d 0241 b13c
00000080: 47c1 023e 6a67 543d c273 393d a2f2 053b
00000090: c006 ca3c 7f76 923c c2b8 b53c e296 643d
000000a0: b758 8e3d c23c 153a 5958 923c 4d43 103d
000000b0: 55c2 e13c 2646 b93c 1ed0 f13d 3742 573c
000000c0: 0b7f 243d d99d 4f3d 93f8 843d 6c8f e63d
000000d0: 436f e238 03c1 4d3d 6bfe 79ba 90de 583d
000000e0: 37cd 2f3d 8ccb 8239 e84b f73c ed96 a83d
000000f0: 3cf6 543d 63e3 a43d d9c4 e638 deeb b33d
0.06092957 0.009253775 0.00021897792 0.0152315935 0.04932296 0.008309539 0.04006983 0.018012833
0.030474432 0.02722202 0.06070159 0.032629784 0.02695903 0.034113564 0.06480743 0.06228839
0.04715406 0.05124985 0.03861694 0.0007354431 0.010326237 0.006069991 0.04870312 0.043516733
0.0061008167 0.061489053 0.026310097 0.029827585 0.031142743 0.0061307442 0.053047437 0.021637443
0.12769042 0.051856436 0.04527641 0.002043881 0.024661422 0.017878769 0.022182826 0.055807956
0.06950515 0.00056929525 0.017864393 0.035220433 0.027558485 0.022616457 0.11807273 0.013138345
0.04016022 0.050687645 0.06492724 0.11257824 0.00010797244 0.0502329 -0.00095365074 0.052946627
0.042920318 0.00024947186 0.030187562 0.08231912 0.05199264 0.08051183 0.000110039204 0.087852225

cnn_layer_2.2.running_mean f4 [64]
00000000: 03d3 fd3c ba8f 783c 4026 3f37 e559 c23c
00000010: 119c 3f3d 50fa f13b a63b 0c3d 35b8 f53c
00000020: 43e4 0a3d d7c8 2f3d 95cc 9e3d 6388 ad3c
00000030: 9bc3 d03c 3a28 ac3c bcb5 a23d cc6f 723e
00000040: 541a b43c 21fa 893c 4fa5 5c3d 8af3 013c
00000050: c842 1d3d 96dd 333d 7ef9 1a3e 2ffd e33c
00000060: c32a dd3d 373a db3d 6ea9 4a3c 8f56 823d
00000070: 399b 233d 7dac 8d3b ac43 923d 39f3 0a3d
00000080: 09f0 233e dad4 fa3d fa9c 813d bd41 0f3a
00000090: 3a2a 843d 021e a13d e230 703d 2569 363d
000000a0: 0507 fb3c 7463 c73b c1e0 573d e852 043d
000000b0: 8cf9 773c 8c82 d73d 8b18 693d 6c2a ad3c
000000c0: 8937 713d 098d 793d 7600 573e b362 103e
000000d0: a797 353a 5dd4 7e3d d5e7 3c3b 6e49 c43d
000000e0: 319e 183d 4f66 cb3c 17e3 ff3d 4ee4 483d
000000f0: e6db 213d 6967 913d d4e5 4637 097c ff3d
0.030984407 0.015170986 1.1393393e-05 0.023724506 0.046779696 0.007384576 0.034236573 0.029995063
0.033909094 0.042916145 0.07753865 0.021183198 0.025483897 0.021015275 0.07944819 0.2367546
0.02198521 0.016842904 0.053868588 0.007931599 0.038393766 0.043912493 0.15134236 0.027830688
0.10799172 0.10704463 0.012369497 0.06364166 0.039942954 0.0043235407 0.07141814 0.03392336
0.16009535 0.122476295 0.06328769 0.0005464813 0.064533666 0.07867052 0.05864037 0.044533867
0.030642996 0.006084854 0.052704576 0.032305628 0.01513518 0.10522947 0.05690817 0.021138392
0.058890853 0.060925517 0.2099627 0.14100151 0.00069272 0.062214244 0.0028824706 0.09584318
0.037260238 0.024829058 0.12494486 0.049045853 0.039516352 0.07099802 1.1855231e-05 0.1247483

cnn_layer_2.2.running_var f4 [64]
00000000: 9f4a 053c f3cd 5b3b 7c56 4a33 4ca4 b53b
00000010: 89d7 0e3c 5565 a13a 3e4b 213c 1b7a c23b
00000020: 7d98 0a3c fec3 5c3c 929e 983c 5041 133b
00000030: ab9c df3b 5bcb 983b b5f8 a43c 4d22 d93d
00000040: 72bd 823b ca80 f83a a31a 5c3c 3916 253a
00000050: 181c 073c 942d 733c 8ced 233d c42b d83b
00000060: 61fb ba3c 6940 ef3c af30 9e3a 29a8 543c
00000070: b5fb d33b 13bb 7639 24e3 ca3c c032 da3b
00000080: b5b7 503d ca19 043d eb2c 773c a4bd 0037
00000090: 9c49 7d3c f2eb c93c a1bb 523c 79b0 fd3b
000000a0: c9a2 a13b c6cf 8e38 a26b 5b3c 6362 de3b
000000b0: 28f1 893a 2b30 023d 7b06 4a3c 4ed8 423b
000000c0: 8bc2 4b3c b9e4 a93c a47b 913d 0cd2 0a3d
000000d0: 79cd 6e36 90e9 883c 2e88 4b38 70ba c33c
000000e0: 929a 183c 5878 ab3b 3e17 083d b135 593c
000000f0: aa6f 473c 19d1 a73c 6ad4 8b30 4122 163d
0.008135467 0.0033539503 4.7110447e-08 0.0055432674 0.00871838 0.0012313524 0.009844599 0.0059349663
0.008459208 0.013474463 0.0186303 0.002246935 0.006824096 0.0046629137 0.020138124 0.106022455
0.003989869 0.001895928 0.013434085 0.0006297562 0.008246444 0.01484241 0.040021464 0.006597014
0.022824945 0.029205518 0.0012068952 0.012979546 0.006469215 0.00023530079 0.024766512 0.006658882
0.050956447 0.032251157 0.015086393 7.673549e-06 0.015459444 0.02464864 0.012862117 0.0077419844
0.0049327356 6.8097885e-05 0.013392361 0.006786631 0.0010524141 0.031784218 0.012330647 0.0029730978
0.012436519 0.020738946 0.07103661 0.033891723 3.5584364e-06 0.016712934 4.85258e-05 0.023892611
0.009314196 0.005232852 0.03322529 0.01325743 0.012172619 0.020485448 1.0173953e-09 0.03665376

cnn_layer_2.3.weight f4 [64, 64, 3, 3]
00000000: 84a5 10bc 43cc 06bd 1722 98bc 2c5e 1dbc
00000010: 48ad 6bbc 7b1d a6bc f241 87bc 589c 8bbc
00000020: 5d67 c3bc 3361 5c3b 2d26 87bb 461f 49bb
00000030: 966a deba 576b 583c d0af 4f3c c09c c3bc
00000040: 2bef 85bc e626 83bc f0c9 1db9 6ca2 fbb8
00000050: 9ccd c1b9 707c 1eba 115c 13ba 62a0 f8b9
00000060: 1f76 0cba 2c16 ddb9 ef76 8fb9 2af1 46bb
00000070: accc 66bc 7682 96bc d07d 243b 21f7 f43b
00000080: 7db9 ebbb 2f66 9dbc 231b 6ebc fdab 50bc
00000090: 679d 77bc e46a eabc 430d 8bbc de50 a1bc
000000a0: 0639 dcbc 53a5 94bc c327 1dbc a3ff 493b
000000b0: fbbb 283b 7a66 823b 5669 653c 7115 7f3c
000000c0: 8e4e 40bc 4c4d 023a e125 a6ba ffe1 af3c
000000d0: 8db6 a73b b042 1d3b b665 6abc cd95 0dbd
000000e0: e541 55bd 0088 b9bb fed8 27bc 7dce 0cbc
000000f0: a633 edba 19a2 7bbc 9b1b f1bb 5a40 79bc
00000100: 7b7c 76bb 42fe 9ebc 81d9 9cbc 1503 6bbc
00000110: f429 d4bc e169 39bc 3766 a1bc 93f7 5abc
00000120: 33ad e4bb 6174 e3bc ea7c a9bc eeb4 323c
00000130: 85d0 e53b ce0c 6d3c 057c 57bc 6597 92bc
00000140: 6aa0 47bc 17d8 18bc a39f 57bc 051d bdbb
00000150: bc1d 1b3b 1f52 a0bc b23d b73b 7ade 9b3b
00000160: 59f3 15bc 776c 163c 01b0 36bd 3332 19bd
00000170: f156 17bd c822 d3bc b3a0 bdbc 49a7 a8bc
00000180: f63c 423b 238e e53b c45b a7bb 11ae 2dbc
00000190: 9c6b 15bc 6065 b8bb 9438 d7bb aba7 f1bb
000001a0: 8390 59bb d257 c4bb 8d47 d5bb 66e6 cdbb
000001b0: e5ec 70ba b225 7dbc e654 683b 8921 84ba
000001c0: 874b d2bc 2ddb cdbc 8c84 ec3c b461 0a3d
000001d0: 096c d63c 7766 a13b fd77 ba39 0521 82bc
000001e0: 159b 7eba 78a6 04bc 11a0 acbc f233 96bb
000001f0: 82f9 87bb fc2b 5ebc c65b 86bc 6f5a f6bc
00000200: 1119 06bd cb59 8abc 371a 23bc 31d6 2cbc
00000210: 73ae 663a 5036 80bb cf19 8ebb 002a bfbc
00000220: e39f 58bd 0553 22bd 617e 2ebd 7c93 26bd
00000230: 158b f3bc 022e 58bd 1c87 6dbd 9ce4 26bd
00000240: ebcb 9dbc d585 6bbc f4fd d4bb 1441 a9bc
00000250: 2b2e 39bc cfd2 56bc d216 02bd 1380 82bc
00000260: d3e1 95bc 40b9 cdbb c987 203b 9303 0fbb
00000270: 860c 8bbc b22b 26bc ea7d b2bc 75ab 9c3a
00000280: c4af 4bbb 9bdb 54bc c37c f5bc 8423 25bd
00000290: 04f8 27bd ae1d 8bbc c62c 84bc 4666 a8bc
000002a0: d825 723a 9e78 3a3a 72ac 44bc a5c6 3bbb
000002b0: a373 eaba 8c33 1a3c ca87 da3a bbc4 dc39
000002c0: 38c9 413b a06c 073a 117b 09bc 2685 24bc
000002d0: a849 8ebc c2f3 87bc 637a 8fbc fda3 19bc
000002e0: dcd3 a8bb 6ba7 bbbb fe07 79bc 9796 85bc
000002f0: 6c7a 9dbb aa06 f2bb cec8 12bd 61bc 3dbd
00000300: 6f36 92bb 318f 90bc d635 f0bc 65ce e9bc
00000310: f511 a3bc 7131 4dbc 0e7f e4bb 1c8e babb
00000320: 8cac 433c 6f8c 9c3c 51e6 d33c d672 ec3c
00000330: 1504 173d d295 6b3c cc0d 00bc fb8c 20bd
00000340: ac5f 80bc 0c65 cebc 61ca 9dbc 0c44 0b3c
00000350: 050e 6e3c 07c5 8d3c ab29 d63b 13df d6b9
00000360: 9ea1 c1bc 0d97 88bc 2242 e9bc 348b e83b
00000370: 6d44 ae3b 7dc8 a2bc 20d4 aa3b 35c0 d6bb
00000380: bcb7 9dbc 443f f63b 7cab 283c 6e74 6b3d
00000390: 24ca d13c 8a06 6a3d 820f 143d 13c9 733d
000003a0: 2b54 d73c f216 233c 7929 15bc af0d a8bb
000003b0: ab33 f5bb 76ee 26bc 0932 b4bb cb80 00bc
000003c0: 24a5 10bc 5d30 e8bb 0cc0 47bb 761e 893b
000003d0: 24cb 973b 76d0 503a a67f ffbb 7cfa 9c3b
000003e0: bbf3 a53b ab4d 52bc 834b 7fbb ed5f 06bb
000003f0: f35c 9dbc 7785 8fbc 53ac abbc d0b2 6fbb
-0.0088285245 -0.032909643 -0.018570943 -0.009604972 -0.014384575 -0.02027773 -0.016510937 -0.017042324
-0.023852998 0.0033627271 -0.004124424 -0.0030688806 -0.0016969021 0.013209186 0.012676194 -0.023878455
-0.016349396 -0.01600976 -0.00015047914 -0.00011998866 -0.0003696502 -0.00060457643 -0.0005621324 -0.0004742174
-0.00053581776 -0.00042168924 -0.00027363698 -0.0030356147 -0.0140868835 -0.018372755 0.0025099404 0.007475749
-0.007193743 -0.019213764 -0.014532837 -0.012736318 -0.015113211 -0.028615423 -0.016974097 -0.01969188
-0.02688266 -0.018145239 -0.009591999 0.0030822537 0.002574681 0.0039795013 0.014002165 0.015569077
-0.011737479 0.00049706246 -0.0012676084 0.021470068 0.0051181973 0.0023996048 -0.014306476 -0.03456669
-0.052064795 -0.0056619644 -0.010244606 -0.0085941525 -0.0018097057 -0.015358471 -0.007358027 -0.0152130965
-0.0037610817 -0.019408349 -0.019146683 -0.0143439965 -0.025898911 -0.011316747 -0.01970206 -0.01336469
-0.006978655 -0.027765455 -0.020689446 0.010907395 0.007013383 0.014468385 -0.013152127 -0.017894456
-0.012184242 -0.009328864 -0.013160619 -0.0057712817 0.0023668846 -0.019570408 0.0055920715 0.004756746
-0.009152257 0.0091811335 -0.044601444 -0.03740139 -0.03694815 -0.02577342 -0.023147916 -0.02058758
0.0029638386 0.0070054694 -0.005107375 -0.010600583 -0.009119894 -0.005627319 -0.006568024 -0.007374724
-0.0033197708 -0.0059919143 -0.0065087737 -0.006283569 -0.00091905735 -0.015450882 0.0035450994 -0.0010080795
-0.02567078 -0.025128925 0.028871797 0.033784583 0.026174562 0.004925545 0.00035566083 -0.015884886
-0.000971244 -0.00809633 -0.02107242 -0.004583829 -0.0041496167 -0.013560291 -0.016401183 -0.030072419
-0.03273875 -0.01688852 -0.009954981 -0.010549114 0.00087997987 -0.0039127246 -0.0043365727 -0.023335457
-0.052886855 -0.039629955 -0.042600993 -0.040667996 -0.029729405 -0.05277825 -0.05799018 -0.040745363
-0.019262275 -0.01437517 -0.0065 -0.020660914 -0.011302511 -0.013111784 -0.031760044 -0.015930211
-0.018296158 -0.006278187 0.0024494997 -0.0021822199 -0.016973745 -0.010142254 -0.021788556 0.0011952954
-0.0031080106 -0.012991811 -0.029966718 -0.040317073 -0.04100801 -0.016981926 -0.01613463 -0.02055658
0.00092372065 0.000711331 -0.012004005 -0.0028652337 -0.0017887246 0.009411704 0.0016672548 0.00042108246
0.0029569399 0.00051660277 -0.008391158 -0.010041511 -0.017369106 -0.016595725 -0.017514413 -0.009377477
-0.0051522087 -0.005726745 -0.015199659 -0.016307158 -0.0048058536 -0.0073860483 -0.035836034 -0.04632223
-0.0044620554 -0.017646404 -0.029322546 -0.0285408 -0.019906024 -0.012523995 -0.006973154 -0.0056932103
0.011942994 0.019109933 0.02586666 0.028863352 0.036869127 0.014378982 -0.007815789 -0.03919695
-0.01567062 -0.025194667 -0.01926154 0.00850011 0.01452971 0.017305864 0.006535729 -0.00040983464
-0.023636635 -0.01667359 -0.028473917 0.0070966724 0.0053182156 -0.01987099 0.0052132756 -0.0065536746
-0.01925265 0.007514866 0.010294791 0.057484083 0.025609083 0.057135142 0.036147602 0.05951793
0.026285252 0.009954201 -0.009104126 -0.0051285843 -0.007482966 -0.010188689 -0.0054991287 -0.007843207
-0.008828435 -0.0070858435 -0.003047946 0.0041845394 0.0046323705 0.00079656334 -0.0077971993 0.0047906023
0.0050644553 -0.0128359 -0.003895492 -0.0020503954 -0.01920936 -0.017519696 -0.020956194 -0.0036575086

cnn_layer_2.3.bias f4 [64]
00000000: 5859 abbd 16d1 edbd 3846 7bbd 41dd cebd
00000010: 6c19 9abd 719f a4bd 5ea2 b6bb f422 5dbd
00000020: 749c 4dbd ec9b 36bd 5246 6abd d406 91bd
00000030: 1325 d7bd 4c1d 74bc b353 abbd 7d38 bb3c
00000040: 442e c3bd 9ef3 b4bd c136 cabc 4f96 c73c
00000050: bb79 af3c 0882 4ebd 4a39 71bd 5bf0 8ebc
00000060: fa61 00bd 8926 7dbd b6db b5bd f79e 28bd
00000070: 8215 81bd 11e3 e0bb 7a43 ce3c b38f 2fbd
00000080: 176a 2bbd 43f5 c3bd e3b7 863b 482f 2cbd
00000090: 2820 e23c 02b9 9fbd 6ce0 f8bd 2a83 0fbe
000000a0: a041 8ebd 2420 1abd 4e90 d13c 22f8 00bd
000000b0: 1f07 aebd ffe6 ed3b 631c ddbc a1ca a9bd
000000c0: d004 9ebd f00d 83bd 8ff7 20bd b1dc abbc
000000d0: a774 773c 9a6e 13bd 593a 1cbd 9d98 8ebc
000000e0: 92ca 353c 880d 6dbd 492c 78bd 656c 9dbd
000000f0: daeb f1bb 96b1 93bd 6b30 9cbd 6289 aabd
-0.0836665 -0.116121456 -0.061346263 -0.101007946 -0.0752438 -0.080382235 -0.005573555 -0.053988412
-0.050198033 -0.044582292 -0.05719597 -0.070813805 -0.10505118 -0.014899563 -0.08365574 0.022854084
-0.09530309 -0.08835529 -0.024684312 0.024363665 0.02142035 -0.050416976 -0.058892526 -0.017448595
-0.031343438 -0.061804328 -0.08879797 -0.041167226 -0.063029304 -0.006863006 0.02517866 -0.04286165
-0.041849222 -0.09568264 0.0041112765 -0.04203728 0.027603224 -0.07798959 -0.1215218 -0.14014879
-0.06946111 -0.037628308 0.025581505 -0.031486638 -0.08497452 0.007260203 -0.026991075 -0.082906015
-0.07715762 -0.06399143 -0.03929859 -0.020979257 0.015103496 -0.03599415 -0.038141582 -0.017406756
0.01109566 -0.057874233 -0.06058911 -0.0768669 -0.007382852 -0.07211606 -0.076264225 -0.08326985

cnn_layer_2.5.weight f4 [64]
00000000: e7df 8d3e 92de ab3e d37e 8b3e 278d 983e
00000010: 8829 7b3e 7730 2b3e 227a a93e 8b66 033e
00000020: 0fe1 993d 6879 563e a4c2 b63e 0b78 af3d
00000030: 1a79 823e 487d a73e c354 4e3e 35bf a73e
00000040: 2154 813e 058e a73e 3cdf 953c b4c6 943e
00000050: 6bdf 873e 991f 793e 3301 723e 7d86 803e
00000060: c003 1e3e 8a26 4d3e 323f 913e 7925 ee3c
00000070: 6f7d 5c3e 4abf b53e 170a 8f3e 1a99 213d
00000080: 094f 873e 5826 6f3e 4ba6 bd3e 8ca0 c33e
00000090: 44a3 c33e 6b2a 9f3e a80b 733e 82f7 c33e
000000a0: dd6c b33d 1f19 473e 5a0f 973e bcf7 e23e
000000b0: 1bee 653e 26ea 8e3e 0914 843e 0341 863e
000000c0: dc4a 733e 57d3 893e b070 403e a091 913e
000000d0: 7dad ad3e 2857 903e 9b7c 7b3e 6758 2d3e
000000e0: 9077 a83e d5f6 713e 0df2 043e a788 243e
000000f0: 143c 3d3e e987 a23e b89f 213e 85ba a03e
0.27709886 0.33568245 0.27245197 0.2979519 0.24527562 0.16717707 0.33100992 0.12832086
0.0751363 0.2094475 0.35695374 0.08567818 0.25483018 0.3271277 0.20149522 0.32763067
0.25259498 0.3272554 0.018294923 0.29057848 0.26537642 0.2432846 0.2363327 0.25102606
0.15431118 0.20034233 0.28368527 0.029070603 0.21532224 0.35497504 0.27937385 0.03945265
0.26427487 0.2335447 0.37040934 0.38208425 0.382105 0.3108705 0.23734915 0.3827477
0.087609984 0.19443177 0.295039 0.4432963 0.22454111 0.27913016 0.25796536 0.26221475
0.23759025 0.26919052 0.18792987 0.28431416 0.33921424 0.28191495 0.24559252 0.16928254
0.3290372 0.23629315 0.1298296 0.16067754 0.18479949 0.31744316 0.15783584 0.31392303

cnn_layer_2.5.bias f4 [64]
00000000: 5fcb 81bd a6aa 01be 9b8b 09bd 9ee4 29bd
00000010: 8d00 83bd 9086 dcbc fcf3 3cbd fe06 c0bc
00000020: 65df 46ba 9ab6 6bbd 30e3 6abd 1e03 05bc
00000030: 7a60 46bd 977f d6bd 8bf7 22bd 995d 1cbd
00000040: c483 61bd 154c 9cbd 84a4 5aba cdb6 9fbd
00000050: 51c6 d3bd ea64 9dbd fab4 41bd 4f5c 9bbd
00000060: e1d1 9dbb 91b6 27bd 1829 27bd 7c4d aabb
00000070: 7d58 64bd 1665 d1bc 3e6a c4bd c340 3ebc
00000080: 28a6 2fbd ac52 96bc 7fa7 88bd 9901 c4bd
00000090: 5e57 00be 7989 99bd 98c0 10bd 7f7d d0bd
000000a0: e719 233b bbfc 38bd aea2 1ebd 4f64 a5bd
000000b0: 8a87 08bd bd6a 5cbd 202f 04bd b684 6fbd
000000c0: b1b4 90bd bafb dcbd aa2f 17bd 1238 fabc
000000d0: e00b b6bd 28bc 88bc c272 81bc 27c5 80bd
000000e0: 85e5 11bc 38de 86bd 59c5 c5bc afe1 18bd
000000f0: 1757 0abd a8e5 29bc 14e9 05bd 2d3b c5bd
-0.06337618 -0.12662753 -0.033580404 -0.041477792 -0.063965894 -0.026919633 -0.04613112 -0.023440834
-0.0007586389 -0.05754719 -0.05734557 -0.008118419 -0.04843185 -0.104735546 -0.039786857 -0.0381752
-0.055057302 -0.07631699 -0.0008340555 -0.07798538 -0.1034056 -0.076852635 -0.047291733 -0.07585966
-0.0048162793 -0.040945593 -0.040810674 -0.005197225 -0.05574845 -0.025560897 -0.095905766 -0.01161212
-0.04288307 -0.018349968 -0.06672572 -0.09570617 -0.12533328 -0.07496924 -0.03533992 -0.101801865
0.0024887265 -0.045162898 -0.038729362 -0.08075773 -0.033332385 -0.05381273 -0.032271504 -0.058476172
-0.07065714 -0.107902005 -0.03691069 -0.030544315 -0.08888984 -0.016691282 -0.015801791 -0.06287604
-0.008904819 -0.065853536 -0.024141954 -0.037324604 -0.03377446 -0.010369696 -0.032692984 -0.096304275

cnn_layer_2.5.running_mean f4 [64]
00000000: c384 a33c a821 3a3b ae3f 833c 5b0d 943b
00000010: 4c16 123c bad9 0f3b 0c33 883c d229 0b3d
00000020: 4b78 8b3c b78d f83a e808 ad3b 6e5d 043d
00000030: b4d0 703c 5d4a 5a3c a72d 843c e160 7c3c
00000040: 7452 153c 582c 2b3c 640a 8d3b bd43 953c
00000050: b3c8 913c 5e0b fc3b 835b 103c d5b8 a83c
00000060: dc14 f83d aad5 063a ac98 4d3c 121c 8e39
00000070: 7d9b c43b afd9 bc3c 4fe7 523c 0258 db3b
00000080: c671 633c c557 0a3b f203 c43c 948f 063d
00000090: ec4c 303c 0b4f a13c 931f c13b cb59 713b
000000a0: 555f 103c ae9a 5d3c 14a6 ac3c 6e32 c33c
000000b0: ba34 e83c a2bf bc3c 8eb7 ac3c bbc1 8d3c
000000c0: f9f6 9c3b b970 463c 717f 533c 6011 233d
000000d0: 3a50 aa3c afc5 763c 5b03 2d3c 5aa0 7c3c
000000e0: abb7 ae3c 891c 9d3c 7bbc a13c 3e14 203c
000000f0: 4d98 123c 0655 9a3c dfd8 973c f7ea 823c
0.019960767 0.0028401408 0.016021576 0.0045181937 0.008916449 0.0021949844 0.016625904 0.03397543
0.017025134 0.0018963133 0.0052806027 0.032315664 0.014698196 0.013323394 0.01613505 0.015403957
0.009113897 0.010447584 0.004304217 0.018220777 0.017795896 0.0076917848 0.008810881 0.020595947
0.121133536 0.0005143533 0.012548607 0.00027105265 0.005999981 0.023053018 0.012872531 0.006693841
0.013882106 0.0021109444 0.023927663 0.03285177 0.010760527 0.019691011 0.0058936565 0.0036827202
0.008811791 0.013525648 0.021075286 0.023827758 0.028345454 0.023040596 0.02108362 0.017304292
0.0047901836 0.012111836 0.012908802 0.039811492 0.020790208 0.01506178 0.010559882 0.01541909
0.021327814 0.019178646 0.019743195 0.009770451 0.008947444 0.01883937 0.01853603 0.01598118

cnn_layer_2.5.running_var f4 [64]
00000000: 6567 b53b 8a7b 1b3a 9262 763b 781d 873a
00000010: 1b2b d93a 7369 8f39 f35c 3f3b 78da 953b
00000020: a6f8 f73a 2e64 7239 9a58 4f3a 2b45 933b
00000030: 3aab 693b c6bf 433b 3fa0 3e3b e8f6 253b
00000040: 2f16 283b 7e46 113b ea8e 3239 abaf 533b
00000050: bbe7 3a3b df65 be3a 3b65 c03a a300 693b
00000060: 9132 b63c ae68 1938 542a 523b 9317 4037
00000070: 901f 933a a9fb 873b 26d0 f83a 94c0 df39
00000080: 008e 3e3b 0cd1 8e39 8d58 aa3b 976a 143c
00000090: a24d dc3a 4b24 a03b 79bf 913a 0aa5 4c3a
000000a0: 7334 953a ce9e 213b dfcb 633b 608e ac3b
000000b0: a41d b13b c5d1 8f3b e4a1 6f3b 15f9 873b
000000c0: 9d24 643a b98c 283b 562f e43a 0510 023c
000000d0: 4d1f 773b c58c 353b f6de e63a 7003 173b
000000e0: e006 5f3b 32b8 963b b47b 303b a7ee e63a
000000f0: a31c 5f3a fab5 b53b cd7c 933b b4c2 4c3b
0.005536007 0.00059311895 0.0037595374 0.0010308465 0.0016568633 0.0002735365 0.002919969 0.0045731626
0.0018918708 0.00023116238 0.0007909626 0.0044943294 0.0035655037 0.0029868945 0.0029087213 0.002532417
0.0025647988 0.002216726 0.00017028642 0.0032300751 0.002851947 0.001452621 0.0014678607 0.0035553358
0.022240909 3.6575533e-05 0.0032068687 1.1449581e-05 0.0011224616 0.0041498733 0.0018982932 0.00042677356
0.0029076338 0.00027240103 0.0051985444 0.009058616 0.0016807804 0.004887139 0.0011119685 0.0007806575
0.0011383429 0.0024661305 0.0034758968 0.005265996 0.0054051448 0.00438902 0.0036565 0.004149566
0.00087029656 0.0025718643 0.0017409127 0.00793839 0.0037707866 0.0027702313 0.0017614055 0.002304282
0.0034031197 0.0045995945 0.0026929202 0.0017618731 0.0008511042 0.005545375 0.0045009614 0.0031243982
