models/cifar_net.pth (torch, 251231 bytes, 10 tensors)

conv1.weight f4 [6, 3, 5, 5]
00000000: 0ca4 a23d 031c 0dbe a27b d1bd 0ce8 363e
00000010: 04e7 763d b8d8 b93e f356 1ebf 4282 86be
00000020: 31c5 9e3e 57bf f73d 7d69 be3e 41ae 0dbf
00000030: 2c81 c6be 9cbe 0d3f 8519 423e 4a93 1f3e
00000040: 2c5d 1dbe 018a 22be 67f9 743d 3b6b b43d
00000050: 632a 7abd ebee acbd 146f 633d c357 c1bd
00000060: 34ee 61bc 3186 873d d0cc 31be 1618 53be
00000070: edb2 dd3d ff17 aabd 579a b33e c94f 0dbf
00000080: 0c90 abbe 94ee 023f a95b a13d 0b53 073f
00000090: de87 16bf 827d 91be 68cc bd3e 89fa a13d
000000a0: 7941 833e 07b5 51be e40c 37be f643 ef3d
000000b0: a807 db3c cf40 283e 8535 823d 03fd 90bc
000000c0: f908 30bd acd6 fe3c 539a 293d 1e21 4cbe
000000d0: 2e25 e3bc 7e18 ed3d d4f1 16be 7691 a13e
000000e0: c4b8 07bf e82a 0cbe af92 f93e 0b5e 3bbe
000000f0: f75b 0d3f 0046 ddbe 2b10 acbe ac3d f73e
00000100: f064 333d 17c6 5d3e a012 75be 04c5 8abe
00000110: d6ab 5f3e 0071 2d3b c74f 643d 84e4 20bd
00000120: 40b9 f33d eb59 c9bd 477e c33b 9f00 053e
00000130: b1aa b0bc a3f1 2c3d db19 01be 7961 d2bd
00000140: 21b7 073e 1e4e 433e 9627 d5bb b9c7 d0bd
00000150: ca96 88bd 9b75 6d3d 70bb d13d 7da4 d53d
00000160: 19f2 d0bd 3eae 8abd f431 763e a338 2f3e
00000170: 0191 6a3d 30dd 043d eb77 9cbd f000 443d
00000180: a4aa 453e 90d1 293e 0531 b83d 218f 293d
00000190: 5da3 a7bd 9805 ab3d fc5c abba 9740 a1bd
000001a0: 67b0 a5bd 4a7b 11bd 8e56 dd3c 2428 12bd
000001b0: d9b5 c7bd d731 92be 1fc7 e63d 4979 a33d
000001c0: e289 40bd b59d 0dbe ad4a 66be dbc6 343c
000001d0: dc85 f93d d4e9 cabc 945f 0dbe f789 82be
000001e0: 4f65 aebc 3565 15be bcbd cb3d 0d07 9ebd
000001f0: efb0 8fbd 7783 7e3e d7df 643e 5cc3 b13d
00000200: be50 16bd 9cb8 4bbc 7939 8f3e f54d 9b3e
00000210: 43ee a83d 057a 95bc 4b62 75bd ec0f 903e
00000220: 37f4 a63e 0a1d 793e 82f9 e2bd e22c eebd
00000230: 38a5 99bc 7c3a 5a3e d7ba d63d 1765 483d
00000240: 7518 cebd b6e3 453d 0cef 003e 76d1 3fbd
00000250: 95d8 843d b512 6fbd 6b24 fc3e c34a a73e
00000260: e410 903e 5857 7e3e f6d6 7a3e cc6e b93e
00000270: 3beb 3c3d b6c3 d93d c55b 8d3c a7f7 843e
00000280: c8d7 803e 1fa3 3dbe f147 14be e5e2 91bd
00000290: 8ebd 3c3e a99a 28be 439d 9ebe d14f 46bd
000002a0: 84f2 63bd 50cf 643d 8e70 90be 167a 30be
000002b0: 19cb 36be 9a13 c3bd 7fea 32bd 5830 ecbd
000002c0: 1acd eebe 3f4d e4be ea2a 01bf f052 86be
000002d0: 6577 fcbd 722d 95be 4abb c5be 2e6c b0be
000002e0: 4bff 98bd 64f6 7abd e111 98be bc01 11be
000002f0: 301e d0bd 98e3 813d ce53 1ebe d055 71be
00000300: a378 e9bd 47d5 c03c f130 f9bb 1e36 3c3d
00000310: 09df fcbd 12a5 193d 5d07 d83d 39c1 573e
00000320: ca93 ed3d b310 d7bd 450a 2abe a74c 37be
00000330: 5058 333d 1da7 003e cb68 19be 0306 b5bd
00000340: 1a84 45bd 0461 903c d4b8 ff3d 278c 13be
00000350: ed85 42be 1635 e73d 4582 873e 47bc 083e
00000360: 26d3 eabd 075f a33c 510f 2c3d 4cf5 143e
00000370: ae71 183e baef 12bd bddf 7e3e af8b 883e
00000380: 36d8 b43e 3796 98bd d449 b23c 81ca 8cbd
00000390: 141c 09be 11b7 863d 1b05 52be b214 64be
000003a0: 344e a3be 111f 5bbe 29d2 3abe 9aff 32be
000003b0: 8549 45be a804 90be e8f9 31be b62d e9bd
000003c0: b555 4abe 7598 5fbe 28c5 27be b4a8 82be
000003d0: a85e d9bd b283 cabe e609 9ebe 4345 86be
000003e0: d4ec 68be 5bc0 80be bd2b 6639 ad2c 96bd
000003f0: bd98 d03d 4f4f 663d 066d a53d 2eb2 bfbd
0.07941446 -0.13780217 -0.10228659 0.17861956 0.060278907 0.36298156 -0.61851424 -0.26271254
0.3100982 0.12097042 0.37189856 -0.55344015 -0.38770425 0.5536897 0.18955047 0.1558353
-0.15367573 -0.15872957 0.05980816 0.08809515 -0.06107558 -0.084440075 0.055525854 -0.09440567
-0.013789702 0.06617392 -0.17363286 -0.20614657 0.10825143 -0.08305358 0.3507869 -0.5519987
-0.33508337 0.5114529 0.07878811 0.5286109 -0.58801067 -0.28416067 0.37070012 0.07909114
0.2563589 -0.20479213 -0.17876011 0.116828844 0.02673705 0.16430973 0.06357864 -0.01769877
-0.042977307 0.031108223 0.04140694 -0.19934508 -0.02772769 0.11576937 -0.14740688 0.3155629
-0.53016305 -0.13688242 0.48744723 -0.18297593 0.5521845 -0.43217468 -0.33606085 0.4828924
0.043797433 0.21657597 -0.23932886 -0.27103436 0.21842894 0.0026465058 0.055740144 -0.03928043
0.11900568 -0.098316036 0.005965981 0.12988518 -0.021565767 0.04222263 -0.1260752 -0.10272498
0.13253452 0.19072768 -0.006504963 -0.10194344 -0.06669386 0.057973485 0.10240829 0.10431764
-0.102024265 -0.06771515 0.24042493 0.17111449 0.057267193 0.032437503 -0.0764006 0.047852457
0.19303375 0.16583848 0.08993725 0.041396264 -0.08185456 0.08350676 -0.0013073976 -0.07873648
-0.08090287 -0.03551797 0.027018812 -0.035682812 -0.097514816 -0.2855365 0.11268448 0.07982118
-0.047006495 -0.13829692 -0.22489424 0.011033739 0.12183735 -0.024769701 -0.13805991 -0.25495884
-0.021288542 -0.14589389 0.09948298 -0.077161886 -0.07016169 0.24854837 0.22351013 0.0867984
-0.036698096 -0.012434151 0.27973536 0.30332914 0.0824857 -0.01824666 -0.059908193 0.28137147
0.32608196 0.24327484 -0.11082746 -0.116296545 -0.01875554 0.21311373 0.104848556 0.04892453
-0.100632586 0.048312865 0.12591189 -0.046830617 0.06486622 -0.05836745 0.49246535 0.32674226
0.28137887 0.24838006 0.24496064 0.36217344 0.04612277 0.10633032 0.017255673 0.25970194
0.25164628 -0.18519257 -0.14480568 -0.07123355 0.18431684 -0.16465248 -0.30979356 -0.048415963
-0.055651203 0.05586177 -0.28210872 -0.17234072 -0.17850913 -0.09525223 -0.043680664 -0.11532658
-0.46640855 -0.44590184 -0.50456107 -0.2623515 -0.1232746 -0.29136235 -0.38619453 -0.34457535
-0.07470568 -0.061270133 -0.2970114 -0.14160818 -0.10162008 0.06342238 -0.15461656 -0.23567891
-0.11399963 0.023539199 -0.007604711 0.045950048 -0.12347228 0.03751094 0.105482794 0.21069802
0.11600454 -0.10501232 -0.1660548 -0.17900334 0.043785393 0.12563749 -0.14981382 -0.08839037
-0.048221685 0.017624386 0.12486425 -0.14408933 -0.18996401 0.11289422 0.26466575 0.13353072
-0.114660546 0.019942774 0.042006794 0.14546698 0.14887115 -0.035873152 0.24890037 0.2666907
0.35321206 -0.07450526 0.02176372 -0.06874562 -0.13389617 0.06577886 -0.2050976 -0.2227352
-0.31895602 -0.2139857 -0.18244232 -0.17480317 -0.19266327 -0.28128552 -0.17380488 -0.11385672
-0.19759257 -0.21835501 -0.16383803 -0.25519335 -0.10613757 -0.395536 -0.30866927 -0.26224717
-0.22746593 -0.25146756 0.00021950803 -0.0733274 0.101853825 0.05622798 0.08077435 -0.09360157

conv1.bias f4 [6]
00000000: 0546 4abe 7be3 68bd 8a11 8abe d465 713e
00000010: caa6 66be fe09 acbe
-0.19753273 -0.056857567 -0.26966506 0.23574 -0.22524562 -0.33601373

conv2.weight f4 [16, 6, 5, 5]
00000000: dd0d 81be 5525 3fbe ffa3 50be f5a3 a1be
00000010: af10 6fbe d1ca 77be b6ed 81be eb88 1bbe
00000020: 2b87 36be 0bb5 13be 5196 053d f874 6fbe
00000030: 5f34 61be cb97 19be 3e73 e7bd 192a b13d
00000040: e750 573b 828e 05be d3f5 86be 9167 45be
00000050: 6724 8b3d 8354 a93d 644e 90bc dd7d 0ebe
00000060: 45db 1fbe 15bc 383e 01aa 323d 1ab5 4dbc
00000070: 9d34 6c3c 5e9c ad3b e16c 3f3e 0fd8 0f3d
00000080: ec60 813c 9694 04bd ed8c a2bd c16b b53d
00000090: 6bfd e23c 5d1c a43d d999 913d 5223 95bd
000000a0: fe7d d83d fb42 a03d c5ce ee3c 6d29 c23d
000000b0: 92de ef3c d63a e53d f94c 543e 2281 fa3d
000000c0: a43c c13d a15f 4e3d 4116 00be 3fe8 d0bd
000000d0: 2f00 7cbd 7d01 6a3a 00d2 68bd d402 0dbe
000000e0: e543 efbc 6319 b73c c564 0cbc 4531 2bbc
000000f0: 67b8 adba 76d5 c13c eeda dcbc 4628 903d
00000100: f1ef e43d e58b 29bd 597a 5a3b 71e1 32bd
00000110: 2c2d 8f3c 25bb a93d 0662 9dbd 8a41 a6bd
00000120: fad2 edbd e5cb 113d b85d ba3d c911 3b3e
00000130: 348a fd3c 7685 bbbc afa3 933d 51aa 8abd
00000140: 1b5c ce3d c244 a63c 49c6 c0bd 5c60 9ebc
00000150: 3e06 4bbd 74ff a03d 56c7 61bc 75c1 613d
00000160: c36e 893b d1f7 6e3c 5dbf 203e 36c1 673c
00000170: a179 d0bb b929 25bd e03e f93c ff18 093e
00000180: 0da0 3d3d 91e5 463d 96de 553c 104b 8e3d
00000190: 5a3a d3bd 9470 a2bd 4abb 78bd d7df 58bd
000001a0: a1cc f9bc 5bd3 b1bc 2893 9f3c 002b 69bd
000001b0: a088 f5bc 41a5 cabd 2ed3 b0bd 4a21 0fbc
000001c0: 3361 22bd e111 443b fb11 04be 95cd f83d
000001d0: be14 6e3d 7777 5c3d 1c14 9bbb 062c 7dbb
000001e0: 0a83 073e 4664 4fbd 2f60 eabc efc3 05be
000001f0: 5688 d33c ff71 113c 5a5b be3d 9580 72bc
00000200: d5ac 84bd 28fa 1fbd 940b 9fbd ca13 34bd
00000210: ebd4 99bd 7598 90bd a224 323d bb4b 5abb
00000220: 26e1 c9bc ca3c 1fbd 5e27 83bc 8133 2abd
00000230: 9589 253d 6c34 663d b51a 6bbc 6ca1 35bd
00000240: 4b28 04bd cd09 b0bc 373f 8b3a 091f 093e
00000250: 7a9e 613d 1b9e 1a3d 18dc 25be 5eeb 8bbe
00000260: 2b66 d2bd 1d5f ff3b 4009 18bd e857 34bd
00000270: e68d d1bd 379a 81bd 5456 023e eb47 4d3e
00000280: bf26 0fbd 7c7f 04be 6a6e 9cbd 5680 c83d
00000290: 6ca6 923e ddce f6bd d293 22be 29fe 99bd
000002a0: 649e 8d3c 4213 9f3e 92aa 24be c801 5bbe
000002b0: c146 c5bd ed23 9d3d 8306 6d3e 92d4 bbbd
000002c0: 1b0f 45bd 5b0f 973c 5a2a 84bd d3dc c8bd
000002d0: dd95 18bd a960 2bbd e381 8cbd 5857 033e
000002e0: 1e4b 3ebd 2927 9abd 61d3 8dbd 8772 5bbd
000002f0: aa81 a43d efa8 a6bb a31a e1bd 1b70 02be
00000300: 768b ddbd b251 223c db84 b0bd bc27 71be
00000310: 4d3e 18be 3a24 90bc edc4 a23c 019b 06be
00000320: 157a 6fbd 5106 d53a bf36 333d 7541 f83d
00000330: e4aa 053e d162 0abe 6a36 47be a8d7 98bd
00000340: 906f 863c fa84 193e 796c 34be 12c7 40be
00000350: 6054 03be 9949 25bd 5f4a f13d 1589 6cbe
00000360: 5055 93be 7e53 28be 519d efbd 8872 303e
00000370: d068 b3be 9ca5 a7be a140 4bbe 75fa 93bb
00000380: cfa5 e43c c5d5 cb3b c603 c53c d228 faba
00000390: 856a 3c3d a050 853d a681 8e3d e89a f3ba
000003a0: b9b4 45bc a03b 23bc ef31 04be 413e 0bbd
000003b0: 27f7 8cbd 2a07 3fbd 822a a7bd b21d f7bd
000003c0: 1c4c d7bd 3d80 97bd 6c38 fabc 0c48 77bd
000003d0: 772d 6abe 4d90 0cbe d66e 92bd 6dcf 81bc
000003e0: 7abd 24be 4d92 85be 1ba1 cb3d b5f3 4f3e
000003f0: c3c9 8b3d a5e8 383d 655b 5a3b 37e7 46bb
-0.2520589 -0.18666585 -0.2037506 -0.31570402 -0.23346208 -0.24198462 -0.25376672 -0.15188949
-0.17825 -0.14424531 0.032614056 -0.23384464 -0.21992634 -0.1499931 -0.113012776 0.086506076
0.0032854618 -0.13042644 -0.26359424 -0.19277789 0.067940526 0.082680725 -0.017615505 -0.139152
-0.15610988 0.18040498 0.04361916 -0.012555385 0.014416841 0.0052981814 0.18693878 0.03511816
0.015793286 -0.032368265 -0.07937036 0.08858443 0.02770873 0.08013222 0.07109422 -0.072821274
0.10570906 0.078252755 0.02915133 0.094805576 0.029280934 0.11192863 0.20732488 0.122316614
0.094353944 0.050384168 -0.12508489 -0.102005474 -0.061523613 0.00089266134 -0.056840897 -0.1377061
-0.02920718 0.022350973 -0.008568947 -0.0104487585 -0.0013253809 0.023661356 -0.026959863 0.070389315
0.11178578 -0.04139318 0.0033337085 -0.04367203 0.017477594 0.08287648 -0.07684712 -0.08117969
-0.11612506 0.03559484 0.09099907 0.18268503 0.03094969 -0.022890788 0.072089545 -0.067707665
0.100761615 0.020296458 -0.0941282 -0.019333057 -0.0495665 0.07861224 -0.013780436 0.055116136
0.004194112 0.014585451 0.15698 0.014145186 -0.0063621555 -0.040322993 0.030425489 0.13388442
0.046295214 0.048558775 0.013053557 0.06947911 -0.10313864 -0.07931629 -0.060725488 -0.052947845
-0.030493082 -0.021707227 0.01947935 -0.056925774 -0.029972374 -0.09894801 -0.08634029 -0.008735964
-0.039643478 0.0029917883 -0.12897484 0.12148587 0.05812525 0.053824868 -0.004732622 -0.0038630976
0.13233581 -0.050632738 -0.028610317 -0.13063024 0.025821846 0.008877276 0.09294768 -0.014801164
-0.064782776 -0.039056927 -0.0776588 -0.043964185 -0.07511314 -0.07060329 0.043491967 -0.00333093
-0.024643492 -0.038876332 -0.016009983 -0.041553024 0.04041441 0.056202337 -0.014349629 -0.044343397
-0.03226499 -0.021489048 0.0010623698 0.13390745 0.055082776 0.037748437 -0.1619724 -0.27328008
-0.10273393 0.007793321 -0.037118196 -0.044029146 -0.10232143 -0.06328242 0.12728244 0.20046966
-0.03494906 -0.12939256 -0.07638247 0.09790103 0.28642595 -0.12051175 -0.15876701 -0.0751918
0.01728744 0.3106938 -0.16080692 -0.21387398 -0.09632636 0.07672868 0.23147015 -0.09171404
-0.04811011 0.01843994 -0.064533904 -0.09807744 -0.037252296 -0.04184023 -0.068607114 0.12826288
-0.046458356 -0.075270005 -0.06925083 -0.05357602 0.08032544 -0.0050860564 -0.10991409 -0.12738077
-0.10817616 0.009907173 -0.0861909 -0.23550314 -0.14867516 -0.0175954 0.019869292 -0.13145067
-0.058466036 0.0016252493 0.04375338 0.1212186 0.13053471 -0.13514258 -0.19454351 -0.07463008
0.016410619 0.14992133 -0.17619504 -0.1882594 -0.12825155 -0.04035339 0.11781763 -0.23099168
-0.28776026 -0.164381 -0.116999276 0.1723119 -0.35040903 -0.32743537 -0.19848873 -0.004515941
0.027911095 0.0062205517 0.02404965 -0.0019085652 0.046000022 0.065095186 0.06958322 -0.0018585594
-0.012067013 -0.009962946 -0.12909673 -0.033994917 -0.06883078 -0.04663769 -0.081624046 -0.12066211
-0.105125636 -0.073975064 -0.030544482 -0.060371444 -0.22868906 -0.13726921 -0.071500465 -0.015845979
-0.16087905 -0.2608818 0.09942838 0.2030781 0.06825592 0.045143742 0.0033318636 -0.0030350217

conv2.bias f4 [16]
00000000: cd68 dd3e f11f 2c3f b23b b1be 8e8a f1bd
00000010: 6090 cb3d 019a a8be dfcd 99bd f4dd 06bf
00000020: 5d3e 4ebf d4ef b4be 8293 6c3e 8e96 2d3f
00000030: 664c b1be ea56 e03e ef5f a8bd d8ea 173e
0.4324402 0.6723624 -0.34615856 -0.11794005 0.09939647 -0.32929996 -0.0750997 -0.52682424
-0.8056391 -0.35339224 0.23103145 0.67807853 -0.346286 0.4381631 -0.08221423 0.1483568

fc1.weight f4 [120, 400]
00000000: 8dbc f13d b57f 0bbd f13f 92bd 45d1 44bc
00000010: 4efe aabd 8a8c d73c 7a9d 54bd 7ed1 89bd
00000020: fc79 b1bc 4bf6 85bd 6ab3 da3c a6b7 a33c
00000030: f616 55ba 34aa 94bb bd7a c4bc 655d a73c
00000040: 32ac 28bc 793f 903d 036e a03d 00be 3fb9
00000050: 0089 72bd 2cfc 4e3d 98d8 ce3d 3328 8f3d
00000060: dd43 2ebd 6e22 08bd d73f 91bd 7a4e d9bc
00000070: cf22 57bd 96d1 f3bb b4d3 083c d551 9a3c
00000080: 78d9 b13d 9ac2 30bd 2928 a93b 51c5 2abc
00000090: ff6d 41bd bee5 ecbc 74d4 86bc 6c90 ff3c
000000a0: fa92 64bd 3f24 60bc 11c5 6cbc 09a5 13bb
000000b0: 898f 0dbd 2587 9abd d4cf 30bd cc2c efbd
000000c0: 1867 b1bd 4afb f6bd 8ebd 7bbc 0cf0 403d
000000d0: 91a6 383d 41d6 e13d 62d2 cb3c 3dab ee3c
000000e0: bb20 89bd 6ee0 98bd 3123 dbbc 0aed e63c
000000f0: ccad 623d 2db7 b03b 60b4 c3bd 5cd3 9dbc
00000100: 8b55 fd3b b878 e03c 7051 3ebd 68a5 a2bb
00000110: ab0f 2ebd efb2 a6bb 0e6b 8b3d 2a00 51bc
00000120: 9d01 a2bd c6eb 113d b7ab cd3c a991 48bd
00000130: fed0 bf3c 1e4b ff3c fd3e 40bc d279 3bbb
00000140: b43f 97bc 68b9 ef3b 2c9f e5bc 29a0 7bbd
00000150: 5700 8cbd a4b2 9dbd 7c82 4ebd dbb0 f9bd
00000160: 6a9a ddbc 93e9 2bbd 21d4 54bc 15db 11bd
00000170: 3ea3 c8bd af68 68bc 0e78 8abd 2403 74bd
00000180: 53b5 893b b225 fa3a 7766 86bb f829 5bbd
00000190: b0a3 f03d a170 763d f505 0e3e 5c42 9a3d
000001a0: bf8d cb3d 7ab5 093d 22a4 983d 4a89 bd3d
000001b0: 1a0b 723d 0b93 423c 3dbc e3bc dcbf c0bc
000001c0: e335 e33d 9783 913b f621 12bc d1d3 d23c
000001d0: 8dda 0f3d 8244 d33c 68ee ef38 f2fe 31bd
000001e0: 5c96 753a 8360 053d 2a5b 7b3d e31a 393d
000001f0: 81b7 61bc f795 b13d cd56 153c 7882 8b3b
00000200: ca5b 69bd e981 343d 7b6b b43c 3480 733d
00000210: 1c02 483d 7178 5e3d a494 7bba ce7c a8bc
00000220: db68 0e3d ae7a 703c 79d2 dc3c 257f a6bc
00000230: 37a2 3dbd c9cb 1dbd 0bb7 e23b 54fc 2d3d
00000240: 7f82 2f3c 67c4 f3bc b6c5 a1bb ef77 d9bc
00000250: eae5 d93c fe28 ccbc e210 873d 8519 f63c
00000260: c024 ebbc 1d93 3a3b 778e 093b 7511 383d
00000270: 8a50 5cbc 2876 f2bb 65f9 2cbd 99e4 a0bc
00000280: 46fa 3b3d dee6 de3c 6f2a b4bd f203 66bd
00000290: db80 6abc a35c 0c3d 03b5 20bd e521 81bd
000002a0: 443e dcbc d159 653c 1a21 7a3d 035f 5fbd
000002b0: 39b4 0cbc 0c2a e5bc 5cea 6bbc 4b3d 5e3c
000002c0: 36b9 a43a 488e 253d 9379 5b3d c873 0f3c
000002d0: 0ec9 3a3d 0b0f 25bd 4d50 ba3c a1bb 933d
000002e0: d798 bf3c 9158 bdba 2683 67bd 3604 da39
000002f0: 2880 70bb b10c f4bc b16f 463c 6464 febc
00000300: 840d 18bd 1071 d13c fb81 34bd 4f8d 903b
00000310: d671 683d e015 0d3d bea2 4cbc 87ff 8e3d
00000320: 3834 80bd eb5e 793c 055a 84bd eb2e e23b
00000330: fe20 aa3d b918 d03b e0cd c73b 9b8a c9bd
00000340: 4cf6 a8bc 6bd5 653b 0872 39bc 2efd b4bc
00000350: 89d4 7d3b fccc 15bd dedb 8f3c da68 13bd
00000360: ead3 12bd 72c9 43bc 90e2 4e3d dad7 06bd
00000370: 3d4f b53d bc3b 243d 2551 4b3d 2fa9 873d
00000380: 9a96 123e eb61 be3d f723 e43c 2844 803d
00000390: 93a0 623d e2c8 5fbc 3e7c 543d 0b18 abbc
000003a0: f496 49bd 9378 7abd cf02 723d c3ac cb3b
000003b0: 4c12 8dbd 11e7 c1bd 035e 43bd 055f 063d
000003c0: e73c ee3b b5a4 553c 7266 9e3c 1735 a4bc
000003d0: 682b cabc 8439 2d3d d5cd 0b3d 7804 a33d
000003e0: d296 303d a6c3 683d a213 1d3d 928e 2d3d
000003f0: 8861 003d 7ba6 26bd 5f26 583a dafc e2bc
0.11803541 -0.034057338 -0.07141102 -0.012012784 -0.08349286 0.026312131 -0.051907994 -0.067294106
-0.021664612 -0.06541117 0.02669688 0.019985031 -0.00081287266 -0.0045368914 -0.023984307 0.020430276
-0.010294961 0.070433564 0.07833483 -0.0001828596 -0.059212685 0.05053346 0.10099906 0.06990089
-0.04254519 -0.03323596 -0.070922546 -0.026526678 -0.05252343 -0.007440756 0.008351255 0.018837849
0.08684057 -0.043154337 0.005162258 -0.01042302 -0.04722404 -0.028918143 -0.016458727 0.031196795
-0.05580423 -0.013680517 -0.014451281 -0.0022528789 -0.034560714 -0.07545308 -0.04316695 -0.11678466
-0.08662242 -0.12059648 -0.015365018 0.047103927 0.045080725 0.11027194 0.024880592 0.029134387
-0.06695696 -0.074646816 -0.026750179 0.0281892 0.055341527 0.00539293 -0.09555888 -0.019265823
0.007731145 0.027401313 -0.046464384 -0.0049635656 -0.04249541 -0.0050872485 0.068075284 -0.012756387
-0.07910464 0.03562524 0.025106294 -0.048967037 0.023415085 0.031163748 -0.011733768 -0.0028606546
-0.018462993 0.0073158033 -0.02803 -0.061432038 -0.06836002 -0.077000886 -0.05041741 -0.12191936
-0.02705117 -0.0419708 -0.012990029 -0.035609324 -0.09796761 -0.014185115 -0.0676118 -0.059573308
0.0042025237 0.001908472 -0.00410157 -0.05350682 0.11749971 0.060166005 0.1386946 0.07532188
0.09939145 0.033620335 0.07453181 0.092547014 0.05909262 0.011875878 -0.02779972 -0.023528986
0.110942625 0.0044407356 -0.00891923 0.025735768 0.035120536 0.025789503 0.00011440815 -0.043456025
0.00093684136 0.032562744 0.061366238 0.045191657 -0.013776661 0.08671182 0.009114933 0.0042574964
-0.056972302 0.044069204 0.022023907 0.059448436 0.048830137 0.05431408 -0.00095970393 -0.020567324
0.034767967 0.014677687 0.02695583 -0.0203243 -0.04629728 -0.038524423 0.006918793 0.042476967
0.010712265 -0.029756738 -0.004936899 -0.026546447 0.02659889 -0.02492189 0.06595017 0.030041466
-0.028704047 0.0028469034 0.0020989457 0.044938523 -0.013446936 -0.007399339 -0.04223003 -0.019640254
0.045892976 0.027209695 -0.08797156 -0.056156106 -0.014312948 0.034268033 -0.039235126 -0.06305293
-0.02688516 0.013998465 0.061066724 -0.05453397 -0.00858789 -0.027974151 -0.014399137 0.013564418
0.0012567404 0.040418893 0.05358274 0.008755632 0.045601897 -0.04029755 0.022743369 0.07213522
0.02338831 -0.001444595 -0.056521557 0.00041583338 -0.003669748 -0.029791208 0.01211159 -0.03105373
-0.037122265 0.025566608 -0.04406927 0.0044113765 0.056749187 0.03444469 -0.012489973 0.06982332
-0.0625996 0.015220384 -0.06462482 0.0069025657 0.08307074 0.0063506034 0.0060975403 -0.0984089
-0.020625256 0.0035069834 -0.011318691 -0.022093382 0.0038731417 -0.03657244 0.017560896 -0.035988666
-0.03584663 -0.011949884 0.050509036 -0.032920696 0.08853004 0.04009603 0.049637932 0.06624066
0.14315262 0.0929602 0.02784918 0.06263 0.055328917 -0.013658734 0.0518763 -0.020885488
-0.049216226 -0.061150145 0.05908471 0.006215663 -0.068882555 -0.094679005 -0.04769708 0.03280546
0.0072704437 0.0130397575 0.01933596 -0.020044846 -0.0246789 0.04229118 0.034131844 0.07959837
0.043112583 0.05682721 0.0383488 0.042372294 0.031343013 -0.040686112 0.0008245464 -0.02770846

fc1.bias f4 [120]
00000000: 69ab a6bc 00d8 41bd 8735 573e b70d 403d
00000010: a7a6 473e 3db9 50bb 646a e23d caca 823e
00000020: 89e0 9c3c 2d6c 08bc 5fb6 c8bc d928 f83c
00000030: fcbb 6f3d 18bc ac3d 2d69 0e3e b42e 06bd
00000040: a7aa 693d 5c6a 56bd c432 103e f07c 0cbd
00000050: 1476 36bd dab2 fabc eb64 d2bc c84c 92bd
00000060: 3f37 ddbc f48f 763c 3430 81bd 6bb7 0cbd
00000070: 380d a3bd fcc7 0c3c 5c5c 2ebd c0e5 693b
00000080: 69a9 a63d 4cdc 29bd 8265 66bb 89a1 05bd
00000090: 4aa1 623c ebf9 64bd 55d1 a23c 7fd4 b2bd
000000a0: 6930 48bd 2f2f 3f3e 4235 b43c e818 0cbd
000000b0: 5d1f 3a3d 5957 17bd c4e7 f73c 121a 4b3e
000000c0: 3af3 d5bd 8716 03bd 4be1 ebba 3e6d c83d
000000d0: 956a 5abb aed4 433c b252 143e e60c 1d3e
000000e0: 94db 9f3d cc3c 453d 9c8a 56bd 010e ca3b
000000f0: 9c7e 543d ea43 713d 1990 39ba c066 2c3d
00000100: 53fe 9a3c e77e 8b3c 7b78 f73d d94e 903c
00000110: 519d 3d3c de87 d43c 0e3f 4f3c eb38 2b3d
00000120: ed2f 91bb b98e 0a3e 63a9 1e3d f269 6f3d
00000130: 40cb 3f3d 41e2 efbc a84d 1fbe 4fff 4ebb
00000140: 6947 483d 59a0 33be bc4f a73c 2441 923c
00000150: 4691 ac3e f71c 1bbc b7e3 44bd d915 c13d
00000160: 587f 223e 8f6e 8bbb e65b 0a3e 596c 1f3c
00000170: 37db fabc 8c05 f43d 74aa e2bc 5ffb 883d
00000180: 3b92 68bd 83c2 ae3d 70b3 f7bd 6f37 e63c
00000190: be80 b13b 2d8a 483e ec75 58bd 25eb bcbc
000001a0: 0a1d eebc fa31 1c3c caec 8f3c 3bd0 d73c
000001b0: 9073 fc3d 3560 533c df5d 243d dc2e 4cbd
000001c0: 624a 62bc 3b4a 18be 9470 b33c df32 3f3d
000001d0: c11f 1e3e db74 3ebe 0824 093d f0b4 56bd
-0.020345407 -0.047325134 0.21016513 0.04688808 0.19497167 -0.0031848692 0.11055449 0.2554534
0.019150035 -0.008326572 -0.024501024 0.030292915 0.058528885 0.084343135 0.13907309 -0.032759383
0.057047512 -0.052347526 0.14081866 -0.034298837 -0.0445462 -0.030602861 -0.025682887 -0.07143551
-0.027003882 0.01504897 -0.06308022 -0.03435461 -0.07961506 0.008592602 -0.04256855 0.003568992
0.08137781 -0.041469857 -0.0035155718 -0.032624755 0.0138324 -0.055902403 0.019875208 -0.08731937
-0.048874293 0.18670343 0.021998052 -0.03420344 0.045440067 -0.036948536 0.030261882 0.19834164
-0.104467824 -0.032003906 -0.001799622 0.09786461 -0.0033327688 0.011952562 0.14484671 0.15336952
0.07805553 0.048153684 -0.052378282 0.00616622 0.051878557 0.05890266 -0.0007078662 0.042090178
0.0189201 0.017028285 0.12083527 0.017615722 0.011573152 0.025943693 0.012649311 0.041802328
-0.004430762 0.13531007 0.03873576 0.058450647 0.046824694 -0.029282691 -0.15556967 -0.0031585281
0.048896227 -0.17541637 0.020423763 0.017853327 0.33704585 -0.009467355 -0.04806873 0.09427995
0.1586889 -0.004255123 0.13511619 0.009730422 -0.030622108 0.119151205 -0.027669169 0.0668857
-0.05678008 0.08533194 -0.12094772 0.028102605 0.0054169586 0.1958396 -0.052846834 -0.023061344
-0.029066581 0.0095334 0.017568965 0.02634441 0.12326729 0.0129013555 0.040128585 -0.049849376
-0.01381168 -0.14872067 0.021904267 0.046679374 0.154418 -0.18599264 0.033481628 -0.05241865

fc2.weight f4 [84, 120]
00000000: 4b5d 983d 0fcf 9e3d e2cd f83c 431e 0cbd
00000010: 4b2e cd3b 2103 38bd 16df 7f3d db7b 66bd
00000020: dd63 c03c 6711 2a3d 7bfc 82bd 79b8 8ebc
00000030: 5cf6 963d 1150 bbbc d2c1 163c 72ff a1bd
00000040: faab 983d 8618 a9bd c40e 223d 23b2 10bc
00000050: c937 9e3d d881 83bd dbf5 48bd 6325 fb3c
00000060: eb1d 993d 9cfe 483d 3693 debc 0129 95bd
00000070: 814d 43bd 2457 69bd bdbd d3bc 5825 3abd
00000080: 3f06 a53d c44f af3b 74cb abbd 68c3 04bd
00000090: 7727 11bd 5cb7 a0bc 2a28 3bbc d0e5 39bd
000000a0: a8c5 a8bd a0d0 2fbd 544e 873d 7b9e 4f3d
000000b0: db2c e43d 7ed9 6dbd f26f 73bb 256b 9a3d
000000c0: 5c08 493d f0a4 a8bd 1837 94bd 437f a6bd
000000d0: 3a7e a5bd 4395 4e3d 73f2 bb3d 53ab f1bd
000000e0: 5a0c c63d e702 5dbd fd01 81bc dab8 ebbc
000000f0: 1378 b6ba 517c 083a fc80 afba 51b8 bf3d
00000100: a02c b1bd 16f8 96bd cb62 c3bd 1a61 f33c
00000110: 8cd6 7a3d 5ce5 7bbd bdfc 013d 5f8e c03d
00000120: 7aa3 9e3d 33ad 0e3d f5e2 883d ccd1 d63c
00000130: 1b5c bfbc 99b9 b03d ffb6 fabb 9ea9 313d
00000140: 9aeb 553d 83bb 3dbc d258 2b3d 9dea 9cbd
00000150: 7fc4 943d 7f2b 5a3c c912 a43c 12cc 2cbe
00000160: 44da 4bbb 3c37 a2bd 371b b0bd 8c53 b83d
00000170: ed78 e2bd 41ce 293d eee5 9fbc 9604 9a3d
00000180: f926 84bd a1a7 aebd 135f b9bd f6a5 68bd
00000190: e616 02bd f202 f3bc bd7e 3cbd 966a 003e
000001a0: aa42 32bd b4c1 dcbc 582c 033b 76c1 4dbd
000001b0: ba56 0a3e 891b 69bc c830 243e 8eb1 513d
000001c0: f5b0 4fbd 2ad6 46bd 09f6 96bd 73fb aa3d
000001d0: 0d27 6fbd 5ae7 73bd b3d3 013d 51f3 9a3d
000001e0: f2b9 a5bd fcac 553d b803 083e a81c 743d
000001f0: 4be4 b03d a7d8 b53d efc1 2c3c f773 bcbd
00000200: 6463 9e3d 918b f0bc 4c69 b2bd 8a83 893c
00000210: 3d75 88bd 785d 9abd b16a b5bc 079c 06bb
00000220: 3564 80bd 72e9 923c 211c b33d 89d7 35bd
00000230: 85fe 993d eb18 043e aacd 9cbd 33e3 083d
00000240: 8cf9 9bbc bf74 a0bb 9193 e1ba 5088 053d
00000250: d098 c73d ac0d f1bd 5c2c 9b3c d79f 3f3e
00000260: aeea 8dbc 4d17 45be a984 1d3d 43b7 293d
00000270: 6e6e 9ebd ede9 f5bd 8c8f 293d e085 e5bc
00000280: d175 813d 9156 afbb 046f 9abd 34f7 843b
00000290: 16ba 6bbd 940b 2fbe 49ed bb3c 60bf 583d
000002a0: fafc 09be 107c 38bd c289 94bd 3a30 5f3b
000002b0: ceaf 01bd dbe5 0dbd 577f 8abd 3978 ac3d
000002c0: debc 7abd 6e5a edbd 164e 4f3d de31 a93d
000002d0: eb29 8d3d ecd2 aa3d 375f 5fbc fe77 733d
000002e0: fd35 1abd 8a6c 9ebd 08f6 403d 4865 73bd
000002f0: f477 4d3d 7d53 3dbe c353 0a3e c78d d3bd
00000300: e6a7 81bd c9d1 a63d 4f2b cc3a 2004 333d
00000310: 1710 633c 99d4 2fbd f6cb 07be aff4 60bd
00000320: 526d 9bbd b4a8 9fbc 167b c8bd 4139 89b9
00000330: 5fb0 c13c a821 75bd 65a3 acbd 6f58 413d
00000340: e0b5 453d 7b1b d43a c862 803d 897b b63d
00000350: f561 4e3e 952c c03d c514 b6bc 8085 513d
00000360: ea4b 94bc 6dac 613d 4f4c 0f3e beb4 acbd
00000370: f49b 293b 3a54 ccbd 8f37 7fbd d5a1 893c
00000380: 3070 31bc d8cf 993d 7c16 00be be59 083e
00000390: f3dc 123d 8419 0b3d 05d9 28be 257a 2cbc
000003a0: 155d 4a3b 4902 27be c675 9a3b cc9d 8f3d
000003b0: 148d 0a3d 8de3 013e 1ad8 63bd c0b2 bdbc
000003c0: ca5f 8ebc 5cf9 513d 5117 af3d 578c 163d
000003d0: d44a 49bd d9a3 dbbc 5968 1bbe f3f3 23bd
000003e0: ee1b bfbd bf46 1fbd 6cf9 eb3c 88f7 513c
000003f0: 52cd 01be 6695 26bd dfcb 303d b583 643d
0.07439669 0.07754337 0.03037161 -0.034208547 0.006261622 -0.04492486 0.06246861 -0.05627046
0.023485119 0.041520502 -0.06395813 -0.017421948 0.07371208 -0.022865327 0.009201484 -0.079100505
0.07454677 -0.082566306 0.039564863 -0.008831534 0.07725484 -0.0642125 -0.04906259 0.030657476
0.074764095 0.04907094 -0.027169805 -0.072832115 -0.047681335 -0.05696787 -0.02584731 -0.04544577
0.08057832 0.005350085 -0.08388415 -0.032412916 -0.035438027 -0.019618683 -0.01142315 -0.045385182
-0.08240825 -0.04292357 0.06606737 0.050688248 0.11141368 -0.058068745 -0.0037145582 0.075399674
0.049080238 -0.08234584 -0.07237071 -0.08129742 -0.080807164 0.050435316 0.09177103 -0.118002556
0.096703246 -0.053957846 -0.015748018 -0.028774668 -0.0013921283 0.0005206513 -0.0013389881 0.093613274
-0.0865109 -0.073715374 -0.09540328 0.029709388 0.061239764 -0.06149803 0.03173517 0.09402155
0.077460244 0.034833144 0.066839136 0.026223086 -0.023359349 0.0862915 -0.0076512094 0.04337465
0.05222664 -0.011580351 0.041832753 -0.076619364 0.07264041 0.013316034 0.020028489 -0.16874722
-0.0031105438 -0.07920691 -0.08598941 0.0900031 -0.11058221 0.041456465 -0.019518819 0.07520406
-0.06452746 -0.085280664 -0.09051337 -0.056798898 -0.03176012 -0.02966449 -0.046019305 0.1254066
-0.043520607 -0.026947834 0.0020015445 -0.050233327 0.13509646 -0.014227756 0.16034234 0.05119472
-0.05070587 -0.048544087 -0.07371146 0.083487414 -0.05838685 -0.059546806 0.031696033 0.0756594
-0.08092107 0.052166924 0.13282669 0.05959764 0.086372934 0.08879214 0.010544284 -0.09201806
0.07733801 -0.029363425 -0.0871149 0.016786356 -0.066629864 -0.07537359 -0.022145601 -0.0020539777
-0.06269113 0.017933581 0.087455995 -0.044395003 0.07519249 0.1290013 -0.07656415 0.0334198
-0.019039892 -0.0048967297 -0.0017210116 0.0326007 0.097459435 -0.11770186 0.01894205 0.18713318
-0.017323818 -0.1924717 0.038456593 0.041434538 -0.077359065 -0.120075084 0.041396663 -0.028017938
0.063213 -0.0053508957 -0.07540706 0.004057789 -0.057550512 -0.1709426 0.022940295 0.052916884
-0.13475409 -0.04504019 -0.07252838 0.0034055845 -0.0316618 -0.034643035 -0.067625694 0.08421368
-0.061215274 -0.11589514 0.050611578 0.082614645 0.06892761 0.083410114 -0.013633541 0.059440605
-0.037649143 -0.07735546 0.047109634 -0.05942276 0.050163224 -0.1848888 0.13508515 -0.10329776
-0.06330852 0.08145482 0.0015576872 0.043705106 0.013858817 -0.04292736 -0.13261399 -0.05492085
-0.075892106 -0.019489624 -0.09789102 -0.00026173334 0.02364367 -0.05984655 -0.084296025 0.047203477
0.048269153 0.0016182506 0.06268841 0.08910281 0.20154555 0.09383503 -0.0222267 0.051152706
-0.018102605 0.05509608 0.13993953 -0.08432911 0.0025880309 -0.099770024 -0.062308844 0.0168008
-0.01082997 0.07510346 -0.12508577 0.13315484 0.035855245 0.03395988 -0.16489036 -0.010527168
0.0030878235 -0.16309465 0.0047137467 0.07012519 0.03382595 0.1268446 -0.055626012 -0.023156524
-0.01737966 0.0512632 0.08549369 0.036754932 -0.049143627 -0.026811527 -0.15176524 -0.04002757
-0.09331499 -0.038885828 0.028805457 0.012815364 -0.1267598 -0.04066982 0.043163177 0.055789668

fc2.bias f4 [84]
00000000: 5291 563e 4e4d 6f3e 426a 3c3d 7842 413c
00000010: b8a5 53bd 0069 c63c ba43 6c3d e33a e6bc
00000020: 648e bcbd 7501 a83c 6828 893e 8d45 883d
00000030: 0417 a6bd 3342 6a3e eb82 99bd 8195 c63b
00000040: 648c a7bd be32 b9bd d839 c5bd 3c92 303e
00000050: adfd 553d 4158 84bd e05b 5c3d 9625 e13d
00000060: c8c3 1dbd ff87 fabd ca71 68bd 1682 6d3e
00000070: 448b 853d 3e66 9dbd 9b11 bf3e 65c0 9ebd
00000080: 7a83 863e 8a84 613d fd31 9a3b 18a4 923d
00000090: 9c27 6b3e 2a9d 3f3e cf23 40bd 034f a23c
000000a0: 4633 debc ce47 3e3e 27e2 943e 9626 79bd
000000b0: f9d5 1cbd c3a4 20bd 8901 213e 11b6 ac3e
000000c0: 2f26 de3d 9c74 8ebd 7079 26be b42b 853d
000000d0: 1daf 4c3e 83b7 2cbd e32e 9c3d d8af d9bd
000000e0: 1471 10bd 788a afbd 6b63 0fbe fb2b 2c3e
000000f0: fe68 cc3e a987 fa3d 671d 843d 38fe c9bd
00000100: d9d1 33bd c077 593e f6ad 9dbc c502 fc3a
00000110: 62d2 233e a9af 223e f786 88bd dc8c abbc
00000120: 3e99 babc b3ec febc cc48 713d db29 f33b
00000130: 8730 af3e 5e27 7dbd e58f bcbd e6c0 bbbd
00000140: 8b5d 293d d47d 1abd 1892 2ebc 3170 65bd
0.20953873 0.23369333 0.045999773 0.011795633 -0.051671714 0.02421999 0.057681777 -0.028104251
-0.09206846 0.020508507 0.2678864 0.06653891 -0.08109859 0.22876815 -0.07495674 0.0060603027
-0.08181074 -0.090428814 -0.096301734 0.17243284 0.052243877 -0.064621456 0.053798556 0.10993497
-0.03851679 -0.122329704 -0.056749143 0.23194155 0.065207034 -0.07685517 0.3731812 -0.0775154
0.26272184 0.05505804 0.004705666 0.07160205 0.22964329 0.18712297 -0.04690915 0.019813066
-0.027124058 0.18582079 0.2907879 -0.060827814 -0.038289998 -0.03921963 0.15723242 0.33732656
0.10847127 -0.06955835 -0.16257262 0.06502476 0.19988675 -0.042167198 0.076261304 -0.10629243
-0.03526409 -0.08571333 -0.14002769 0.16813652 0.39923853 0.12232906 0.064509206 -0.098629415
-0.0439013 0.21237087 -0.01924799 0.00192269 0.15998223 0.15887322 -0.066663675 -0.02094119
-0.02277815 -0.031118726 0.058907315 0.007420761 0.3421671 -0.06180512 -0.09207133 -0.09167652
0.041348975 -0.037717655 -0.010654949 -0.056015197

fc3.weight f4 [10, 84]
00000000: eb30 fcbd 36f4 ba3e 13e1 2d3e 88a2 503d
00000010: 9206 fc3c 3b78 31be 0b8f bcbd cc0d 4c3d
00000020: 12a8 0f3c d6d0 c8bd f7ad 16be af9b d5bd
00000030: b181 28bd f591 1a3e 0c07 ecbc a069 a7bd
00000040: 5c9e 0dbc c952 3c3d 1e19 adbd 0591 4d3c
00000050: bef1 9e3e a5f8 a2bc 29f2 9ebd dcf7 963d
00000060: 65e1 343e 5fa7 cabc cfa3 333e 98e2 373e
00000070: 0edf 87bd af8e cebd 9d33 87be 8211 de3d
00000080: e5c0 ebbd 7f74 533d 2280 a5bd 9943 22be
00000090: 5a8c ab3d 77c0 2b3e dbc0 043e 9ead 1a3e
000000a0: 85f5 90bb 50fa 57bc 4261 0d3e f45a 973d
000000b0: 3dc8 aabd bd7c 33bd 57b9 04be 8e1c 8abe
000000c0: 585b 8b3e 3529 ae3d 704e c23d 9507 81be
000000d0: f3d5 1f3e e79a 233e 4ec0 193e 0c14 bf3c
000000e0: a4df 9cbd 298f 123e 22ea 073c 54c9 453d
000000f0: 3473 31be 112b 52bd 4a9e c13b ee2f 0a3e
00000100: 5eef cf3c 59ab f43c d2e5 21bc 1106 053e
00000110: a70f 243e aa1f 20bd 5286 0cbd ca86 513c
00000120: 5af1 1bbe f1b8 113e 108d 58bd 4237 f33d
00000130: 1802 ae3d 5b11 3cbc 9029 713d 16b1 053e
00000140: 6367 6d3e 199f 8fbd 3e9e 953d 018f 803d
00000150: 4e11 61be b6c1 6abe 459b 8c3d b6da ae3d
00000160: 0108 8dbd 01d7 a0bd 2fd5 1a3e aa39 debd
00000170: d633 483e 5fad 303e 2195 31be 89d6 013e
00000180: 593c 823d f938 a4bc 86b7 5a3d 994c 39be
00000190: d60d 1cbd d246 c3bd d909 00bd 0b82 cbbd
000001a0: 42d3 353e 1d52 42bd d0fd 76be 8c43 453e
000001b0: 0bc0 353b 6a46 143e 5fc6 53bd e3ed f73d
000001c0: 67fe bdbd 66b2 80bc b00c 63be c204 93bd
000001d0: 6aee 1abe 3134 c9bd fd2e 093d e318 b8bd
000001e0: 5f88 553d 2384 86be 7d3b 7d3e 7c1a 023e
000001f0: 545d b03d 1cc3 11bd 2bd5 a2be b6f0 94bd
00000200: acae 97bd f5f9 4d3d 6be4 6cbc 0a50 5ebd
00000210: 0594 0fbe 40ab 0abd 5021 7b3e 5376 313e
00000220: 7ce8 f5bd 50e5 29bd b057 8b3e d678 ecbd
00000230: 191e bbbc 8b4a 7f3e 2267 7a3e 676c 86bd
00000240: a0a0 8fbe 4872 613d 89d8 1ebd 57e3 4c3d
00000250: cd8c 4b3e df8d 57be 47bd 053e d229 003e
00000260: 16b4 52bd 046f 5dbd e71e 923e 5d5b 513d
00000270: 9041 2d3e 2496 a9bd abeb 5abe 234d 133e
00000280: 81dd 37bc a5a1 00bd a09c 1f3d 5f31 0bbe
00000290: 663c 993e e98e 313e b75f f43d aeb7 62bc
000002a0: 5da1 26bd 4554 a33d 326b af3d 04a2 bcbd
000002b0: 7cbc 34bc 4519 023e 1948 e9bd c15c be3c
000002c0: a961 39be 1042 d2bd 86b7 83bd e948 e2bd
000002d0: 74ae 543c ee78 183e 75b3 7c3d e397 4bbc
000002e0: 1d34 8abd 9f45 b6bd 3cb5 11bd cc32 463e
000002f0: bbf7 4cbd 31f2 dd3d 5e8c bdbd b84b 08be
00000300: 3e06 06bd 1ec5 19be dbc1 833d 4ab2 b93a
00000310: 1f7a 2f3e a51e ebbd fb5a 783e 9081 993d
00000320: 5d64 873a fa9e 723e f197 7ebd fc98 ad3c
00000330: 37f9 553e 198b 0d3d 515d 91bb 4dc0 293d
00000340: 0ce2 30be 625e d4bd 13b8 653e 854d 303c
00000350: f0e0 7d3e 6fec bcba 5753 463d f858 583e
00000360: 7ed9 253e 2149 153d 92a4 cdbd a3f8 5d3e
00000370: cfab ad3b 1a10 563c 4bde 843d 6c72 0abe
00000380: 659e 35bd 7519 99bd 3538 1dbb 9546 8b3e
00000390: c8e6 ad3e d3a6 33bd 6bdb a53d f0b7 c8bd
000003a0: 3094 20bc 074a 183e 9c5f f93c 6496 543e
000003b0: 2d2d bbbd 2897 50be 28d2 a9bc 5ae2 2bbc
000003c0: f772 6bbc 91c5 7b3e deec 0dbc cead 033e
000003d0: e300 ec3d 5ab9 1dbd 5d96 7fbc 7aee 0d3e
000003e0: 0f47 47be e81c cabd f447 cb3c 673a 3e3d
000003f0: ea2f e83d 11aa 23bd da61 dabc c3ab d8bd
-0.12314018 0.36514443 0.1698039 0.050936252 0.030764852 -0.1733102 -0.09206971 0.049817845
0.008768098 -0.09805457 -0.147148 -0.10430085 -0.04113931 0.1509474 -0.028811954 -0.08174443
-0.008643713 0.045977388 -0.08452056 0.012546782 0.3104381 -0.019893954 -0.07761032 0.07371494
0.17664106 -0.024738012 0.17542957 0.17957532 -0.06634341 -0.100858085 -0.26406565 0.10843183
-0.11511401 0.05162477 -0.0808108 -0.15846099 0.08376379 0.16772638 0.12964194 0.15105292
-0.0044237995 -0.013182238 0.13806632 0.07390395 -0.08338974 -0.04382013 -0.12961327 -0.2697491
0.27218127 0.08503953 0.09487617 -0.25201097 0.15608959 0.1597706 0.15014765 0.023324989
-0.076598436 0.14312424 0.008295568 0.048287705 -0.17329103 -0.051310603 0.005908762 0.13494846
0.025382694 0.029866861 -0.009881454 0.12990595 0.16021596 -0.039092697 -0.034307785 0.012788484
-0.15228787 0.14230706 -0.052868903 0.11875774 0.08496493 -0.011478747 0.058877528 0.13055834
0.2318397 -0.07012767 0.07305573 0.06277276 -0.21979257 -0.22925457 0.06865553 0.085378096
-0.06886292 -0.07853509 0.15120386 -0.10850842 0.19551024 0.17253636 -0.17342044 0.12679495
0.06359167 -0.020046698 0.053397678 -0.18095626 -0.038099132 -0.09534992 -0.03125939 -0.09936913
0.1775637 -0.04744159 -0.2412026 0.19264048 0.0027732875 0.14479986 -0.051702853 0.1210592
-0.09277039 -0.015710067 -0.22172809 -0.07178642 -0.1513001 -0.09824408 0.033492077 -0.08989122
0.052132007 -0.26272687 0.24729724 0.12705415 0.08611551 -0.03558646 -0.3180326 -0.072724745
-0.07406363 0.050287206 -0.014458756 -0.05427555 -0.14021309 -0.033854723 0.24524426 0.17330293
-0.120072335 -0.041478455 0.27215338 -0.11546485 -0.0228415 0.2493078 0.24453405 -0.06563645
-0.28052235 0.055040628 -0.038780723 0.050021496 0.1987793 -0.21050213 0.13060485 0.12515953
-0.051441275 -0.05406095 0.28539202 0.05111252 0.16919541 -0.0828059 -0.21378963 0.14384894
-0.011222244 -0.031404156 0.03896773 -0.13593052 0.29928893 0.17339672 0.11932319 -0.013837738
-0.04068123 0.079750575 0.08565368 -0.092105895 -0.011031266 0.12704952 -0.11390705 0.023237588
-0.1810366 -0.10266507 -0.06431489 -0.11049063 0.012981046 0.14889881 0.06169458 -0.012426349
-0.06748221 -0.08899998 -0.03557323 0.19355315 -0.05004094 0.1083721 -0.092552885 -0.13310134
-0.032720797 -0.150166 0.06433459 0.0014167514 0.17136429 -0.11480454 0.24253456 0.07495415
0.0010329593 0.23693457 -0.06215662 0.021191113 0.20895849 0.034556482 -0.004436173 0.041443158
-0.1727373 -0.103695646 0.224335 0.01076067 0.24792838 -0.0014413724 0.048419323 0.21127689
0.16196248 0.036446694 -0.10041155 0.21676879 0.005300022 0.013065362 0.064877115 -0.13520211
-0.04434051 -0.07475559 -0.00239898 0.27202287 0.33965135 -0.043860268 0.08098491 -0.09800708
-0.009800956 0.14871989 0.030441098 0.20760494 -0.09139476 -0.20370162 -0.020730093 -0.010490978
-0.0143706715 0.24587084 -0.008662431 0.1285927 0.11523607 -0.038506843 -0.015599814 0.13860503
-0.194607 -0.09868795 0.024814583 0.046442416 0.11337264 -0.03995711 -0.026657987 -0.10579636

fc3.bias f4 [10]
00000000: d82f e0bd 8220 27bf 934b 583e 8a84 9a3e
00000010: b0e3 fe3e e994 7bbc 2f5c b73c 25a8 55be
00000020: 8499 9b3e 1962 d1be
-0.109466255 -0.6528398 0.2112258 0.30179244 0.49783087 -0.015355327 0.022382824 -0.20864923
0.3039056 -0.40895155
